…
I0912 20:44:46.946200 27276 net.cpp:339] The NetState phase (0) differed from the phase (1) specified by a rule in layer data
I0912 20:44:46.946215 27276 net.cpp:339] The NetState phase (0) differed from the phase (1) specified by a rule in layer loss
I0912 20:44:46.946272 27276 net.cpp:50] Initializing net from parameters: 
name: "lstm_language_model"
state {
  phase: TRAIN
}
layer {
  name: "data"
  type: "HDF5Data"
  top: "data"
  top: "label"
  top: "cont"
  include {
    phase: TRAIN
  }
  hdf5_data_param {
    source: "hdf5_train_list.txt"
    batch_size: 60
  }
}
layer {
  name: "lstm1"
  type: "LSTM"
  bottom: "data"
  bottom: "cont"
  top: "lstm1"
  recurrent_param {
    num_output: 1000
    weight_filler {
      type: "uniform"
      min: -0.08
      max: 0.08
    }
    bias_filler {
      type: "constant"
      value: 0
    }
  }
}
layer {
  name: "lstm2"
  type: "LSTM"
  bottom: "lstm1"
  bottom: "cont"
  top: "lstm2"
  recurrent_param {
    num_output: 512
    weight_filler {
      type: "uniform"
      min: -0.08
      max: 0.08
    }
    bias_filler {
      type: "constant"
      value: 0
    }
  }
}
layer {
  name: "pred"
  type: "InnerProduct"
  bottom: "lstm2"
  top: "pred"
  param {
    lr_mult: 0.1
  }
  param {
    lr_mult: 0.2
  }
  inner_product_param {
    num_output: 2
    weight_filler {
      type: "xavier"
    }
    bias_filler {
      type: "constant"
    }
    axis: 2
  }
}
layer {
  name: "loss"
  type: "EuclideanLoss"
  bottom: "pred"
  bottom: "label"
  include {
    phase: TRAIN
  }
}
I0912 20:44:46.946339 27276 layer_factory.hpp:76] Creating layer data
I0912 20:44:46.946353 27276 net.cpp:110] Creating Layer data
I0912 20:44:46.946360 27276 net.cpp:433] data -> data
I0912 20:44:46.946384 27276 net.cpp:433] data -> label
I0912 20:44:46.946395 27276 net.cpp:433] data -> cont
I0912 20:44:46.946406 27276 hdf5_data_layer.cpp:80] Loading list of HDF5 filenames from: hdf5_train_list.txt
I0912 20:44:46.947180 27276 hdf5_data_layer.cpp:94] Number of HDF5 files: 3365
I0912 20:44:46.954046 27276 net.cpp:155] Setting up data
I0912 20:44:46.954072 27276 net.cpp:163] Top shape: 60 10 2 (1200)
I0912 20:44:46.954079 27276 net.cpp:163] Top shape: 60 10 2 (1200)
I0912 20:44:46.954085 27276 net.cpp:163] Top shape: 60 10 (600)
I0912 20:44:46.954093 27276 layer_factory.hpp:76] Creating layer cont_data_2_split
I0912 20:44:46.954105 27276 net.cpp:110] Creating Layer cont_data_2_split
I0912 20:44:46.954112 27276 net.cpp:477] cont_data_2_split <- cont
I0912 20:44:46.954128 27276 net.cpp:433] cont_data_2_split -> cont_data_2_split_0
I0912 20:44:46.954138 27276 net.cpp:433] cont_data_2_split -> cont_data_2_split_1
I0912 20:44:46.954149 27276 net.cpp:155] Setting up cont_data_2_split
I0912 20:44:46.954155 27276 net.cpp:163] Top shape: 60 10 (600)
I0912 20:44:46.954160 27276 net.cpp:163] Top shape: 60 10 (600)
I0912 20:44:46.954165 27276 layer_factory.hpp:76] Creating layer lstm1
I0912 20:44:46.954174 27276 net.cpp:110] Creating Layer lstm1
I0912 20:44:46.954180 27276 net.cpp:477] lstm1 <- data
I0912 20:44:46.954185 27276 net.cpp:477] lstm1 <- cont_data_2_split_0
I0912 20:44:46.954192 27276 net.cpp:433] lstm1 -> lstm1
I0912 20:44:46.954202 27276 recurrent_layer.cpp:27] Initializing recurrent layer: assuming input batch contains 60 timesteps of 10 independent streams.
I0912 20:44:46.955741 27276 net.cpp:50] Initializing net from parameters: 
input: "x"
input: "cont"
input: "c_0"
input: "h_0"
force_backward: true
input_shape {
  dim: 60
  dim: 10
  dim: 2
}
input_shape {
  dim: 60
  dim: 10
}
input_shape {
  dim: 1
  dim: 10
  dim: 1000
}
input_shape {
  dim: 1
  dim: 10
  dim: 1000
}
layer {
  name: "lstm1_cont_slice"
  type: "Slice"
  bottom: "cont"
  top: "cont_1"
  top: "cont_2"
  top: "cont_3"
  top: "cont_4"
  top: "cont_5"
  top: "cont_6"
  top: "cont_7"
  top: "cont_8"
  top: "cont_9"
  top: "cont_10"
  top: "cont_11"
  top: "cont_12"
  top: "cont_13"
  top: "cont_14"
  top: "cont_15"
  top: "cont_16"
  top: "cont_17"
  top: "cont_18"
  top: "cont_19"
  top: "cont_20"
  top: "cont_21"
  top: "cont_22"
  top: "cont_23"
  top: "cont_24"
  top: "cont_25"
  top: "cont_26"
  top: "cont_27"
  top: "cont_28"
  top: "cont_29"
  top: "cont_30"
  top: "cont_31"
  top: "cont_32"
  top: "cont_33"
  top: "cont_34"
  top: "cont_35"
  top: "cont_36"
  top: "cont_37"
  top: "cont_38"
  top: "cont_39"
  top: "cont_40"
  top: "cont_41"
  top: "cont_42"
  top: "cont_43"
  top: "cont_44"
  top: "cont_45"
  top: "cont_46"
  top: "cont_47"
  top: "cont_48"
  top: "cont_49"
  top: "cont_50"
  top: "cont_51"
  top: "cont_52"
  top: "cont_53"
  top: "cont_54"
  top: "cont_55"
  top: "cont_56"
  top: "cont_57"
  top: "cont_58"
  top: "cont_59"
  top: "cont_60"
  slice_param {
    axis: 0
  }
}
layer {
  name: "lstm1_x_transform"
  type: "InnerProduct"
  bottom: "x"
  top: "W_xc_x"
  param {
    name: "W_xc"
  }
  param {
    name: "b_c"
  }
  inner_product_param {
    num_output: 4000
    bias_term: true
    weight_filler {
      type: "uniform"
      min: -0.08
      max: 0.08
    }
    bias_filler {
      type: "constant"
      value: 0
    }
    axis: 2
  }
}
layer {
  name: "lstm1_W_xc_x_slice"
  type: "Slice"
  bottom: "W_xc_x"
  top: "W_xc_x_1"
  top: "W_xc_x_2"
  top: "W_xc_x_3"
  top: "W_xc_x_4"
  top: "W_xc_x_5"
  top: "W_xc_x_6"
  top: "W_xc_x_7"
  top: "W_xc_x_8"
  top: "W_xc_x_9"
  top: "W_xc_x_10"
  top: "W_xc_x_11"
  top: "W_xc_x_12"
  top: "W_xc_x_13"
  top: "W_xc_x_14"
  top: "W_xc_x_15"
  top: "W_xc_x_16"
  top: "W_xc_x_17"
  top: "W_xc_x_18"
  top: "W_xc_x_19"
  top: "W_xc_x_20"
  top: "W_xc_x_21"
  top: "W_xc_x_22"
  top: "W_xc_x_23"
  top: "W_xc_x_24"
  top: "W_xc_x_25"
  top: "W_xc_x_26"
  top: "W_xc_x_27"
  top: "W_xc_x_28"
  top: "W_xc_x_29"
  top: "W_xc_x_30"
  top: "W_xc_x_31"
  top: "W_xc_x_32"
  top: "W_xc_x_33"
  top: "W_xc_x_34"
  top: "W_xc_x_35"
  top: "W_xc_x_36"
  top: "W_xc_x_37"
  top: "W_xc_x_38"
  top: "W_xc_x_39"
  top: "W_xc_x_40"
  top: "W_xc_x_41"
  top: "W_xc_x_42"
  top: "W_xc_x_43"
  top: "W_xc_x_44"
  top: "W_xc_x_45"
  top: "W_xc_x_46"
  top: "W_xc_x_47"
  top: "W_xc_x_48"
  top: "W_xc_x_49"
  top: "W_xc_x_50"
  top: "W_xc_x_51"
  top: "W_xc_x_52"
  top: "W_xc_x_53"
  top: "W_xc_x_54"
  top: "W_xc_x_55"
  top: "W_xc_x_56"
  top: "W_xc_x_57"
  top: "W_xc_x_58"
  top: "W_xc_x_59"
  top: "W_xc_x_60"
  slice_param {
    axis: 0
  }
}
layer {
  name: "lstm1_h_conted_0"
  type: "Scalar"
  bottom: "h_0"
  bottom: "cont_1"
  top: "h_conted_0"
  scalar_param {
    axis: 0
  }
}
layer {
  name: "lstm1_transform_1"
  type: "InnerProduct"
  bottom: "h_conted_0"
  top: "W_hc_h_0"
  param {
    name: "W_hc"
  }
  inner_product_param {
    num_output: 4000
    bias_term: false
    weight_filler {
      type: "uniform"
      min: -0.08
      max: 0.08
    }
    axis: 2
  }
}
layer {
  name: "lstm1_gate_input_1"
  type: "Eltwise"
  bottom: "W_hc_h_0"
  bottom: "W_xc_x_1"
  top: "gate_input_1"
  eltwise_param {
    operation: SUM
  }
}
layer {
  name: "lstm1_unit_1"
  type: "LSTMUnit"
  bottom: "c_0"
  bottom: "gate_input_1"
  bottom: "cont_1"
  top: "c_1"
  top: "h_1"
}
layer {
  name: "lstm1_h_conted_1"
  type: "Scalar"
  bottom: "h_1"
  bottom: "cont_2"
  top: "h_conted_1"
  scalar_param {
    axis: 0
  }
}
layer {
  name: "lstm1_transform_2"
  type: "InnerProduct"
  bottom: "h_conted_1"
  top: "W_hc_h_1"
  param {
    name: "W_hc"
  }
  inner_product_param {
    num_output: 4000
    bias_term: false
    weight_filler {
      type: "uniform"
      min: -0.08
      max: 0.08
    }
    axis: 2
  }
}
layer {
  name: "lstm1_gate_input_2"
  type: "Eltwise"
  bottom: "W_hc_h_1"
  bottom: "W_xc_x_2"
  top: "gate_input_2"
  eltwise_param {
    operation: SUM
  }
}
layer {
  name: "lstm1_unit_2"
  type: "LSTMUnit"
  bottom: "c_1"
  bottom: "gate_input_2"
  bottom: "cont_2"
  top: "c_2"
  top: "h_2"
}
layer {
  name: "lstm1_h_conted_2"
  type: "Scalar"
  bottom: "h_2"
  bottom: "cont_3"
  top: "h_conted_2"
  scalar_param {
    axis: 0
  }
}
layer {
  name: "lstm1_transform_3"
  type: "InnerProduct"
  bottom: "h_conted_2"
  top: "W_hc_h_2"
  param {
    name: "W_hc"
  }
  inner_product_param {
    num_output: 4000
    bias_term: false
    weight_filler {
      type: "uniform"
      min: -0.08
      max: 0.08
    }
    axis: 2
  }
}
layer {
  name: "lstm1_gate_input_3"
  type: "Eltwise"
  bottom: "W_hc_h_2"
  bottom: "W_xc_x_3"
  top: "gate_input_3"
  eltwise_param {
    operation: SUM
  }
}
layer {
  name: "lstm1_unit_3"
  type: "LSTMUnit"
  bottom: "c_2"
  bottom: "gate_input_3"
  bottom: "cont_3"
  top: "c_3"
  top: "h_3"
}
layer {
  name: "lstm1_h_conted_3"
  type: "Scalar"
  bottom: "h_3"
  bottom: "cont_4"
  top: "h_conted_3"
  scalar_param {
    axis: 0
  }
}
layer {
  name: "lstm1_transform_4"
  type: "InnerProduct"
  bottom: "h_conted_3"
  top: "W_hc_h_3"
  param {
    name: "W_hc"
  }
  inner_product_param {
    num_output: 4000
    bias_term: false
    weight_filler {
      type: "uniform"
      min: -0.08
      max: 0.08
    }
    axis: 2
  }
}
layer {
  name: "lstm1_gate_input_4"
  type: "Eltwise"
  bottom: "W_hc_h_3"
  bottom: "W_xc_x_4"
  top: "gate_input_4"
  eltwise_param {
    operation: SUM
  }
}
layer {
  name: "lstm1_unit_4"
  type: "LSTMUnit"
  bottom: "c_3"
  bottom: "gate_input_4"
  bottom: "cont_4"
  top: "c_4"
  top: "h_4"
}
layer {
  name: "lstm1_h_conted_4"
  type: "Scalar"
  bottom: "h_4"
  bottom: "cont_5"
  top: "h_conted_4"
  scalar_param {
    axis: 0
  }
}
layer {
  name: "lstm1_transform_5"
  type: "InnerProduct"
  bottom: "h_conted_4"
  top: "W_hc_h_4"
  param {
    name: "W_hc"
  }
  inner_product_param {
    num_output: 4000
    bias_term: false
    weight_filler {
      type: "uniform"
      min: -0.08
      max: 0.08
    }
    axis: 2
  }
}
layer {
  name: "lstm1_gate_input_5"
  type: "Eltwise"
  bottom: "W_hc_h_4"
  bottom: "W_xc_x_5"
  top: "gate_input_5"
  eltwise_param {
    operation: SUM
  }
}
layer {
  name: "lstm1_unit_5"
  type: "LSTMUnit"
  bottom: "c_4"
  bottom: "gate_input_5"
  bottom: "cont_5"
  top: "c_5"
  top: "h_5"
}
layer {
  name: "lstm1_h_conted_5"
  type: "Scalar"
  bottom: "h_5"
  bottom: "cont_6"
  top: "h_conted_5"
  scalar_param {
    axis: 0
  }
}
layer {
  name: "lstm1_transform_6"
  type: "InnerProduct"
  bottom: "h_conted_5"
  top: "W_hc_h_5"
  param {
    name: "W_hc"
  }
  inner_product_param {
    num_output: 4000
    bias_term: false
    weight_filler {
      type: "uniform"
      min: -0.08
      max: 0.08
    }
    axis: 2
  }
}
layer {
  name: "lstm1_gate_input_6"
  type: "Eltwise"
  bottom: "W_hc_h_5"
  bottom: "W_xc_x_6"
  top: "gate_input_6"
  eltwise_param {
    operation: SUM
  }
}
layer {
  name: "lstm1_unit_6"
  type: "LSTMUnit"
  bottom: "c_5"
  bottom: "gate_input_6"
  bottom: "cont_6"
  top: "c_6"
  top: "h_6"
}
layer {
  name: "lstm1_h_conted_6"
  type: "Scalar"
  bottom: "h_6"
  bottom: "cont_7"
  top: "h_conted_6"
  scalar_param {
    axis: 0
  }
}
layer {
  name: "lstm1_transform_7"
  type: "InnerProduct"
  bottom: "h_conted_6"
  top: "W_hc_h_6"
  param {
    name: "W_hc"
  }
  inner_product_param {
    num_output: 4000
    bias_term: false
    weight_filler {
      type: "uniform"
      min: -0.08
      max: 0.08
    }
    axis: 2
  }
}
layer {
  name: "lstm1_gate_input_7"
  type: "Eltwise"
  bottom: "W_hc_h_6"
  bottom: "W_xc_x_7"
  top: "gate_input_7"
  eltwise_param {
    operation: SUM
  }
}
layer {
  name: "lstm1_unit_7"
  type: "LSTMUnit"
  bottom: "c_6"
  bottom: "gate_input_7"
  bottom: "cont_7"
  top: "c_7"
  top: "h_7"
}
layer {
  name: "lstm1_h_conted_7"
  type: "Scalar"
  bottom: "h_7"
  bottom: "cont_8"
  top: "h_conted_7"
  scalar_param {
    axis: 0
  }
}
layer {
  name: "lstm1_transform_8"
  type: "InnerProduct"
  bottom: "h_conted_7"
  top: "W_hc_h_7"
  param {
    name: "W_hc"
  }
  inner_product_param {
    num_output: 4000
    bias_term: false
    weight_filler {
      type: "uniform"
      min: -0.08
      max: 0.08
    }
    axis: 2
  }
}
layer {
  name: "lstm1_gate_input_8"
  type: "Eltwise"
  bottom: "W_hc_h_7"
  bottom: "W_xc_x_8"
  top: "gate_input_8"
  eltwise_param {
    operation: SUM
  }
}
layer {
  name: "lstm1_unit_8"
  type: "LSTMUnit"
  bottom: "c_7"
  bottom: "gate_input_8"
  bottom: "cont_8"
  top: "c_8"
  top: "h_8"
}
layer {
  name: "lstm1_h_conted_8"
  type: "Scalar"
  bottom: "h_8"
  bottom: "cont_9"
  top: "h_conted_8"
  scalar_param {
    axis: 0
  }
}
layer {
  name: "lstm1_transform_9"
  type: "InnerProduct"
  bottom: "h_conted_8"
  top: "W_hc_h_8"
  param {
    name: "W_hc"
  }
  inner_product_param {
    num_output: 4000
    bias_term: false
    weight_filler {
      type: "uniform"
      min: -0.08
      max: 0.08
    }
    axis: 2
  }
}
layer {
  name: "lstm1_gate_input_9"
  type: "Eltwise"
  bottom: "W_hc_h_8"
  bottom: "W_xc_x_9"
  top: "gate_input_9"
  eltwise_param {
    operation: SUM
  }
}
layer {
  name: "lstm1_unit_9"
  type: "LSTMUnit"
  bottom: "c_8"
  bottom: "gate_input_9"
  bottom: "cont_9"
  top: "c_9"
  top: "h_9"
}
layer {
  name: "lstm1_h_conted_9"
  type: "Scalar"
  bottom: "h_9"
  bottom: "cont_10"
  top: "h_conted_9"
  scalar_param {
    axis: 0
  }
}
layer {
  name: "lstm1_transform_10"
  type: "InnerProduct"
  bottom: "h_conted_9"
  top: "W_hc_h_9"
  param {
    name: "W_hc"
  }
  inner_product_param {
    num_output: 4000
    bias_term: false
    weight_filler {
      type: "uniform"
      min: -0.08
      max: 0.08
    }
    axis: 2
  }
}
layer {
  name: "lstm1_gate_input_10"
  type: "Eltwise"
  bottom: "W_hc_h_9"
  bottom: "W_xc_x_10"
  top: "gate_input_10"
  eltwise_param {
    operation: SUM
  }
}
layer {
  name: "lstm1_unit_10"
  type: "LSTMUnit"
  bottom: "c_9"
  bottom: "gate_input_10"
  bottom: "cont_10"
  top: "c_10"
  top: "h_10"
}
layer {
  name: "lstm1_h_conted_10"
  type: "Scalar"
  bottom: "h_10"
  bottom: "cont_11"
  top: "h_conted_10"
  scalar_param {
    axis: 0
  }
}
layer {
  name: "lstm1_transform_11"
  type: "InnerProduct"
  bottom: "h_conted_10"
  top: "W_hc_h_10"
  param {
    name: "W_hc"
  }
  inner_product_param {
    num_output: 4000
    bias_term: false
    weight_filler {
      type: "uniform"
      min: -0.08
      max: 0.08
    }
    axis: 2
  }
}
layer {
  name: "lstm1_gate_input_11"
  type: "Eltwise"
  bottom: "W_hc_h_10"
  bottom: "W_xc_x_11"
  top: "gate_input_11"
  eltwise_param {
    operation: SUM
  }
}
layer {
  name: "lstm1_unit_11"
  type: "LSTMUnit"
  bottom: "c_10"
  bottom: "gate_input_11"
  bottom: "cont_11"
  top: "c_11"
  top: "h_11"
}
layer {
  name: "lstm1_h_conted_11"
  type: "Scalar"
  bottom: "h_11"
  bottom: "cont_12"
  top: "h_conted_11"
  scalar_param {
    axis: 0
  }
}
layer {
  name: "lstm1_transform_12"
  type: "InnerProduct"
  bottom: "h_conted_11"
  top: "W_hc_h_11"
  param {
    name: "W_hc"
  }
  inner_product_param {
    num_output: 4000
    bias_term: false
    weight_filler {
      type: "uniform"
      min: -0.08
      max: 0.08
    }
    axis: 2
  }
}
layer {
  name: "lstm1_gate_input_12"
  type: "Eltwise"
  bottom: "W_hc_h_11"
  bottom: "W_xc_x_12"
  top: "gate_input_12"
  eltwise_param {
    operation: SUM
  }
}
layer {
  name: "lstm1_unit_12"
  type: "LSTMUnit"
  bottom: "c_11"
  bottom: "gate_input_12"
  bottom: "cont_12"
  top: "c_12"
  top: "h_12"
}
layer {
  name: "lstm1_h_conted_12"
  type: "Scalar"
  bottom: "h_12"
  bottom: "cont_13"
  top: "h_conted_12"
  scalar_param {
    axis: 0
  }
}
layer {
  name: "lstm1_transform_13"
  type: "InnerProduct"
  bottom: "h_conted_12"
  top: "W_hc_h_12"
  param {
    name: "W_hc"
  }
  inner_product_param {
    num_output: 4000
    bias_term: false
    weight_filler {
      type: "uniform"
      min: -0.08
      max: 0.08
    }
    axis: 2
  }
}
layer {
  name: "lstm1_gate_input_13"
  type: "Eltwise"
  bottom: "W_hc_h_12"
  bottom: "W_xc_x_13"
  top: "gate_input_13"
  eltwise_param {
    operation: SUM
  }
}
layer {
  name: "lstm1_unit_13"
  type: "LSTMUnit"
  bottom: "c_12"
  bottom: "gate_input_13"
  bottom: "cont_13"
  top: "c_13"
  top: "h_13"
}
layer {
  name: "lstm1_h_conted_13"
  type: "Scalar"
  bottom: "h_13"
  bottom: "cont_14"
  top: "h_conted_13"
  scalar_param {
    axis: 0
  }
}
layer {
  name: "lstm1_transform_14"
  type: "InnerProduct"
  bottom: "h_conted_13"
  top: "W_hc_h_13"
  param {
    name: "W_hc"
  }
  inner_product_param {
    num_output: 4000
    bias_term: false
    weight_filler {
      type: "uniform"
      min: -0.08
      max: 0.08
    }
    axis: 2
  }
}
layer {
  name: "lstm1_gate_input_14"
  type: "Eltwise"
  bottom: "W_hc_h_13"
  bottom: "W_xc_x_14"
  top: "gate_input_14"
  eltwise_param {
    operation: SUM
  }
}
layer {
  name: "lstm1_unit_14"
  type: "LSTMUnit"
  bottom: "c_13"
  bottom: "gate_input_14"
  bottom: "cont_14"
  top: "c_14"
  top: "h_14"
}
layer {
  name: "lstm1_h_conted_14"
  type: "Scalar"
  bottom: "h_14"
  bottom: "cont_15"
  top: "h_conted_14"
  scalar_param {
    axis: 0
  }
}
layer {
  name: "lstm1_transform_15"
  type: "InnerProduct"
  bottom: "h_conted_14"
  top: "W_hc_h_14"
  param {
    name: "W_hc"
  }
  inner_product_param {
    num_output: 4000
    bias_term: false
    weight_filler {
      type: "uniform"
      min: -0.08
      max: 0.08
    }
    axis: 2
  }
}
layer {
  name: "lstm1_gate_input_15"
  type: "Eltwise"
  bottom: "W_hc_h_14"
  bottom: "W_xc_x_15"
  top: "gate_input_15"
  eltwise_param {
    operation: SUM
  }
}
layer {
  name: "lstm1_unit_15"
  type: "LSTMUnit"
  bottom: "c_14"
  bottom: "gate_input_15"
  bottom: "cont_15"
  top: "c_15"
  top: "h_15"
}
layer {
  name: "lstm1_h_conted_15"
  type: "Scalar"
  bottom: "h_15"
  bottom: "cont_16"
  top: "h_conted_15"
  scalar_param {
    axis: 0
  }
}
layer {
  name: "lstm1_transform_16"
  type: "InnerProduct"
  bottom: "h_conted_15"
  top: "W_hc_h_15"
  param {
    name: "W_hc"
  }
  inner_product_param {
    num_output: 4000
    bias_term: false
    weight_filler {
      type: "uniform"
      min: -0.08
      max: 0.08
    }
    axis: 2
  }
}
layer {
  name: "lstm1_gate_input_16"
  type: "Eltwise"
  bottom: "W_hc_h_15"
  bottom: "W_xc_x_16"
  top: "gate_input_16"
  eltwise_param {
    operation: SUM
  }
}
layer {
  name: "lstm1_unit_16"
  type: "LSTMUnit"
  bottom: "c_15"
  bottom: "gate_input_16"
  bottom: "cont_16"
  top: "c_16"
  top: "h_16"
}
layer {
  name: "lstm1_h_conted_16"
  type: "Scalar"
  bottom: "h_16"
  bottom: "cont_17"
  top: "h_conted_16"
  scalar_param {
    axis: 0
  }
}
layer {
  name: "lstm1_transform_17"
  type: "InnerProduct"
  bottom: "h_conted_16"
  top: "W_hc_h_16"
  param {
    name: "W_hc"
  }
  inner_product_param {
    num_output: 4000
    bias_term: false
    weight_filler {
      type: "uniform"
      min: -0.08
      max: 0.08
    }
    axis: 2
  }
}
layer {
  name: "lstm1_gate_input_17"
  type: "Eltwise"
  bottom: "W_hc_h_16"
  bottom: "W_xc_x_17"
  top: "gate_input_17"
  eltwise_param {
    operation: SUM
  }
}
layer {
  name: "lstm1_unit_17"
  type: "LSTMUnit"
  bottom: "c_16"
  bottom: "gate_input_17"
  bottom: "cont_17"
  top: "c_17"
  top: "h_17"
}
layer {
  name: "lstm1_h_conted_17"
  type: "Scalar"
  bottom: "h_17"
  bottom: "cont_18"
  top: "h_conted_17"
  scalar_param {
    axis: 0
  }
}
layer {
  name: "lstm1_transform_18"
  type: "InnerProduct"
  bottom: "h_conted_17"
  top: "W_hc_h_17"
  param {
    name: "W_hc"
  }
  inner_product_param {
    num_output: 4000
    bias_term: false
    weight_filler {
      type: "uniform"
      min: -0.08
      max: 0.08
    }
    axis: 2
  }
}
layer {
  name: "lstm1_gate_input_18"
  type: "Eltwise"
  bottom: "W_hc_h_17"
  bottom: "W_xc_x_18"
  top: "gate_input_18"
  eltwise_param {
    operation: SUM
  }
}
layer {
  name: "lstm1_unit_18"
  type: "LSTMUnit"
  bottom: "c_17"
  bottom: "gate_input_18"
  bottom: "cont_18"
  top: "c_18"
  top: "h_18"
}
layer {
  name: "lstm1_h_conted_18"
  type: "Scalar"
  bottom: "h_18"
  bottom: "cont_19"
  top: "h_conted_18"
  scalar_param {
    axis: 0
  }
}
layer {
  name: "lstm1_transform_19"
  type: "InnerProduct"
  bottom: "h_conted_18"
  top: "W_hc_h_18"
  param {
    name: "W_hc"
  }
  inner_product_param {
    num_output: 4000
    bias_term: false
    weight_filler {
      type: "uniform"
      min: -0.08
      max: 0.08
    }
    axis: 2
  }
}
layer {
  name: "lstm1_gate_input_19"
  type: "Eltwise"
  bottom: "W_hc_h_18"
  bottom: "W_xc_x_19"
  top: "gate_input_19"
  eltwise_param {
    operation: SUM
  }
}
layer {
  name: "lstm1_unit_19"
  type: "LSTMUnit"
  bottom: "c_18"
  bottom: "gate_input_19"
  bottom: "cont_19"
  top: "c_19"
  top: "h_19"
}
layer {
  name: "lstm1_h_conted_19"
  type: "Scalar"
  bottom: "h_19"
  bottom: "cont_20"
  top: "h_conted_19"
  scalar_param {
    axis: 0
  }
}
layer {
  name: "lstm1_transform_20"
  type: "InnerProduct"
  bottom: "h_conted_19"
  top: "W_hc_h_19"
  param {
    name: "W_hc"
  }
  inner_product_param {
    num_output: 4000
    bias_term: false
    weight_filler {
      type: "uniform"
      min: -0.08
      max: 0.08
    }
    axis: 2
  }
}
layer {
  name: "lstm1_gate_input_20"
  type: "Eltwise"
  bottom: "W_hc_h_19"
  bottom: "W_xc_x_20"
  top: "gate_input_20"
  eltwise_param {
    operation: SUM
  }
}
layer {
  name: "lstm1_unit_20"
  type: "LSTMUnit"
  bottom: "c_19"
  bottom: "gate_input_20"
  bottom: "cont_20"
  top: "c_20"
  top: "h_20"
}
layer {
  name: "lstm1_h_conted_20"
  type: "Scalar"
  bottom: "h_20"
  bottom: "cont_21"
  top: "h_conted_20"
  scalar_param {
    axis: 0
  }
}
layer {
  name: "lstm1_transform_21"
  type: "InnerProduct"
  bottom: "h_conted_20"
  top: "W_hc_h_20"
  param {
    name: "W_hc"
  }
  inner_product_param {
    num_output: 4000
    bias_term: false
    weight_filler {
      type: "uniform"
      min: -0.08
      max: 0.08
    }
    axis: 2
  }
}
layer {
  name: "lstm1_gate_input_21"
  type: "Eltwise"
  bottom: "W_hc_h_20"
  bottom: "W_xc_x_21"
  top: "gate_input_21"
  eltwise_param {
    operation: SUM
  }
}
layer {
  name: "lstm1_unit_21"
  type: "LSTMUnit"
  bottom: "c_20"
  bottom: "gate_input_21"
  bottom: "cont_21"
  top: "c_21"
  top: "h_21"
}
layer {
  name: "lstm1_h_conted_21"
  type: "Scalar"
  bottom: "h_21"
  bottom: "cont_22"
  top: "h_conted_21"
  scalar_param {
    axis: 0
  }
}
layer {
  name: "lstm1_transform_22"
  type: "InnerProduct"
  bottom: "h_conted_21"
  top: "W_hc_h_21"
  param {
    name: "W_hc"
  }
  inner_product_param {
    num_output: 4000
    bias_term: false
    weight_filler {
      type: "uniform"
      min: -0.08
      max: 0.08
    }
    axis: 2
  }
}
layer {
  name: "lstm1_gate_input_22"
  type: "Eltwise"
  bottom: "W_hc_h_21"
  bottom: "W_xc_x_22"
  top: "gate_input_22"
  eltwise_param {
    operation: SUM
  }
}
layer {
  name: "lstm1_unit_22"
  type: "LSTMUnit"
  bottom: "c_21"
  bottom: "gate_input_22"
  bottom: "cont_22"
  top: "c_22"
  top: "h_22"
}
layer {
  name: "lstm1_h_conted_22"
  type: "Scalar"
  bottom: "h_22"
  bottom: "cont_23"
  top: "h_conted_22"
  scalar_param {
    axis: 0
  }
}
layer {
  name: "lstm1_transform_23"
  type: "InnerProduct"
  bottom: "h_conted_22"
  top: "W_hc_h_22"
  param {
    name: "W_hc"
  }
  inner_product_param {
    num_output: 4000
    bias_term: false
    weight_filler {
      type: "uniform"
      min: -0.08
      max: 0.08
    }
    axis: 2
  }
}
layer {
  name: "lstm1_gate_input_23"
  type: "Eltwise"
  bottom: "W_hc_h_22"
  bottom: "W_xc_x_23"
  top: "gate_input_23"
  eltwise_param {
    operation: SUM
  }
}
layer {
  name: "lstm1_unit_23"
  type: "LSTMUnit"
  bottom: "c_22"
  bottom: "gate_input_23"
  bottom: "cont_23"
  top: "c_23"
  top: "h_23"
}
layer {
  name: "lstm1_h_conted_23"
  type: "Scalar"
  bottom: "h_23"
  bottom: "cont_24"
  top: "h_conted_23"
  scalar_param {
    axis: 0
  }
}
layer {
  name: "lstm1_transform_24"
  type: "InnerProduct"
  bottom: "h_conted_23"
  top: "W_hc_h_23"
  param {
    name: "W_hc"
  }
  inner_product_param {
    num_output: 4000
    bias_term: false
    weight_filler {
      type: "uniform"
      min: -0.08
      max: 0.08
    }
    axis: 2
  }
}
layer {
  name: "lstm1_gate_input_24"
  type: "Eltwise"
  bottom: "W_hc_h_23"
  bottom: "W_xc_x_24"
  top: "gate_input_24"
  eltwise_param {
    operation: SUM
  }
}
layer {
  name: "lstm1_unit_24"
  type: "LSTMUnit"
  bottom: "c_23"
  bottom: "gate_input_24"
  bottom: "cont_24"
  top: "c_24"
  top: "h_24"
}
layer {
  name: "lstm1_h_conted_24"
  type: "Scalar"
  bottom: "h_24"
  bottom: "cont_25"
  top: "h_conted_24"
  scalar_param {
    axis: 0
  }
}
layer {
  name: "lstm1_transform_25"
  type: "InnerProduct"
  bottom: "h_conted_24"
  top: "W_hc_h_24"
  param {
    name: "W_hc"
  }
  inner_product_param {
    num_output: 4000
    bias_term: false
    weight_filler {
      type: "uniform"
      min: -0.08
      max: 0.08
    }
    axis: 2
  }
}
layer {
  name: "lstm1_gate_input_25"
  type: "Eltwise"
  bottom: "W_hc_h_24"
  bottom: "W_xc_x_25"
  top: "gate_input_25"
  eltwise_param {
    operation: SUM
  }
}
layer {
  name: "lstm1_unit_25"
  type: "LSTMUnit"
  bottom: "c_24"
  bottom: "gate_input_25"
  bottom: "cont_25"
  top: "c_25"
  top: "h_25"
}
layer {
  name: "lstm1_h_conted_25"
  type: "Scalar"
  bottom: "h_25"
  bottom: "cont_26"
  top: "h_conted_25"
  scalar_param {
    axis: 0
  }
}
layer {
  name: "lstm1_transform_26"
  type: "InnerProduct"
  bottom: "h_conted_25"
  top: "W_hc_h_25"
  param {
    name: "W_hc"
  }
  inner_product_param {
    num_output: 4000
    bias_term: false
    weight_filler {
      type: "uniform"
      min: -0.08
      max: 0.08
    }
    axis: 2
  }
}
layer {
  name: "lstm1_gate_input_26"
  type: "Eltwise"
  bottom: "W_hc_h_25"
  bottom: "W_xc_x_26"
  top: "gate_input_26"
  eltwise_param {
    operation: SUM
  }
}
layer {
  name: "lstm1_unit_26"
  type: "LSTMUnit"
  bottom: "c_25"
  bottom: "gate_input_26"
  bottom: "cont_26"
  top: "c_26"
  top: "h_26"
}
layer {
  name: "lstm1_h_conted_26"
  type: "Scalar"
  bottom: "h_26"
  bottom: "cont_27"
  top: "h_conted_26"
  scalar_param {
    axis: 0
  }
}
layer {
  name: "lstm1_transform_27"
  type: "InnerProduct"
  bottom: "h_conted_26"
  top: "W_hc_h_26"
  param {
    name: "W_hc"
  }
  inner_product_param {
    num_output: 4000
    bias_term: false
    weight_filler {
      type: "uniform"
      min: -0.08
      max: 0.08
    }
    axis: 2
  }
}
layer {
  name: "lstm1_gate_input_27"
  type: "Eltwise"
  bottom: "W_hc_h_26"
  bottom: "W_xc_x_27"
  top: "gate_input_27"
  eltwise_param {
    operation: SUM
  }
}
layer {
  name: "lstm1_unit_27"
  type: "LSTMUnit"
  bottom: "c_26"
  bottom: "gate_input_27"
  bottom: "cont_27"
  top: "c_27"
  top: "h_27"
}
layer {
  name: "lstm1_h_conted_27"
  type: "Scalar"
  bottom: "h_27"
  bottom: "cont_28"
  top: "h_conted_27"
  scalar_param {
    axis: 0
  }
}
layer {
  name: "lstm1_transform_28"
  type: "InnerProduct"
  bottom: "h_conted_27"
  top: "W_hc_h_27"
  param {
    name: "W_hc"
  }
  inner_product_param {
    num_output: 4000
    bias_term: false
    weight_filler {
      type: "uniform"
      min: -0.08
      max: 0.08
    }
    axis: 2
  }
}
layer {
  name: "lstm1_gate_input_28"
  type: "Eltwise"
  bottom: "W_hc_h_27"
  bottom: "W_xc_x_28"
  top: "gate_input_28"
  eltwise_param {
    operation: SUM
  }
}
layer {
  name: "lstm1_unit_28"
  type: "LSTMUnit"
  bottom: "c_27"
  bottom: "gate_input_28"
  bottom: "cont_28"
  top: "c_28"
  top: "h_28"
}
layer {
  name: "lstm1_h_conted_28"
  type: "Scalar"
  bottom: "h_28"
  bottom: "cont_29"
  top: "h_conted_28"
  scalar_param {
    axis: 0
  }
}
layer {
  name: "lstm1_transform_29"
  type: "InnerProduct"
  bottom: "h_conted_28"
  top: "W_hc_h_28"
  param {
    name: "W_hc"
  }
  inner_product_param {
    num_output: 4000
    bias_term: false
    weight_filler {
      type: "uniform"
      min: -0.08
      max: 0.08
    }
    axis: 2
  }
}
layer {
  name: "lstm1_gate_input_29"
  type: "Eltwise"
  bottom: "W_hc_h_28"
  bottom: "W_xc_x_29"
  top: "gate_input_29"
  eltwise_param {
    operation: SUM
  }
}
layer {
  name: "lstm1_unit_29"
  type: "LSTMUnit"
  bottom: "c_28"
  bottom: "gate_input_29"
  bottom: "cont_29"
  top: "c_29"
  top: "h_29"
}
layer {
  name: "lstm1_h_conted_29"
  type: "Scalar"
  bottom: "h_29"
  bottom: "cont_30"
  top: "h_conted_29"
  scalar_param {
    axis: 0
  }
}
layer {
  name: "lstm1_transform_30"
  type: "InnerProduct"
  bottom: "h_conted_29"
  top: "W_hc_h_29"
  param {
    name: "W_hc"
  }
  inner_product_param {
    num_output: 4000
    bias_term: false
    weight_filler {
      type: "uniform"
      min: -0.08
      max: 0.08
    }
    axis: 2
  }
}
layer {
  name: "lstm1_gate_input_30"
  type: "Eltwise"
  bottom: "W_hc_h_29"
  bottom: "W_xc_x_30"
  top: "gate_input_30"
  eltwise_param {
    operation: SUM
  }
}
layer {
  name: "lstm1_unit_30"
  type: "LSTMUnit"
  bottom: "c_29"
  bottom: "gate_input_30"
  bottom: "cont_30"
  top: "c_30"
  top: "h_30"
}
layer {
  name: "lstm1_h_conted_30"
  type: "Scalar"
  bottom: "h_30"
  bottom: "cont_31"
  top: "h_conted_30"
  scalar_param {
    axis: 0
  }
}
layer {
  name: "lstm1_transform_31"
  type: "InnerProduct"
  bottom: "h_conted_30"
  top: "W_hc_h_30"
  param {
    name: "W_hc"
  }
  inner_product_param {
    num_output: 4000
    bias_term: false
    weight_filler {
      type: "uniform"
      min: -0.08
      max: 0.08
    }
    axis: 2
  }
}
layer {
  name: "lstm1_gate_input_31"
  type: "Eltwise"
  bottom: "W_hc_h_30"
  bottom: "W_xc_x_31"
  top: "gate_input_31"
  eltwise_param {
    operation: SUM
  }
}
layer {
  name: "lstm1_unit_31"
  type: "LSTMUnit"
  bottom: "c_30"
  bottom: "gate_input_31"
  bottom: "cont_31"
  top: "c_31"
  top: "h_31"
}
layer {
  name: "lstm1_h_conted_31"
  type: "Scalar"
  bottom: "h_31"
  bottom: "cont_32"
  top: "h_conted_31"
  scalar_param {
    axis: 0
  }
}
layer {
  name: "lstm1_transform_32"
  type: "InnerProduct"
  bottom: "h_conted_31"
  top: "W_hc_h_31"
  param {
    name: "W_hc"
  }
  inner_product_param {
    num_output: 4000
    bias_term: false
    weight_filler {
      type: "uniform"
      min: -0.08
      max: 0.08
    }
    axis: 2
  }
}
layer {
  name: "lstm1_gate_input_32"
  type: "Eltwise"
  bottom: "W_hc_h_31"
  bottom: "W_xc_x_32"
  top: "gate_input_32"
  eltwise_param {
    operation: SUM
  }
}
layer {
  name: "lstm1_unit_32"
  type: "LSTMUnit"
  bottom: "c_31"
  bottom: "gate_input_32"
  bottom: "cont_32"
  top: "c_32"
  top: "h_32"
}
layer {
  name: "lstm1_h_conted_32"
  type: "Scalar"
  bottom: "h_32"
  bottom: "cont_33"
  top: "h_conted_32"
  scalar_param {
    axis: 0
  }
}
layer {
  name: "lstm1_transform_33"
  type: "InnerProduct"
  bottom: "h_conted_32"
  top: "W_hc_h_32"
  param {
    name: "W_hc"
  }
  inner_product_param {
    num_output: 4000
    bias_term: false
    weight_filler {
      type: "uniform"
      min: -0.08
      max: 0.08
    }
    axis: 2
  }
}
layer {
  name: "lstm1_gate_input_33"
  type: "Eltwise"
  bottom: "W_hc_h_32"
  bottom: "W_xc_x_33"
  top: "gate_input_33"
  eltwise_param {
    operation: SUM
  }
}
layer {
  name: "lstm1_unit_33"
  type: "LSTMUnit"
  bottom: "c_32"
  bottom: "gate_input_33"
  bottom: "cont_33"
  top: "c_33"
  top: "h_33"
}
layer {
  name: "lstm1_h_conted_33"
  type: "Scalar"
  bottom: "h_33"
  bottom: "cont_34"
  top: "h_conted_33"
  scalar_param {
    axis: 0
  }
}
layer {
  name: "lstm1_transform_34"
  type: "InnerProduct"
  bottom: "h_conted_33"
  top: "W_hc_h_33"
  param {
    name: "W_hc"
  }
  inner_product_param {
    num_output: 4000
    bias_term: false
    weight_filler {
      type: "uniform"
      min: -0.08
      max: 0.08
    }
    axis: 2
  }
}
layer {
  name: "lstm1_gate_input_34"
  type: "Eltwise"
  bottom: "W_hc_h_33"
  bottom: "W_xc_x_34"
  top: "gate_input_34"
  eltwise_param {
    operation: SUM
  }
}
layer {
  name: "lstm1_unit_34"
  type: "LSTMUnit"
  bottom: "c_33"
  bottom: "gate_input_34"
  bottom: "cont_34"
  top: "c_34"
  top: "h_34"
}
layer {
  name: "lstm1_h_conted_34"
  type: "Scalar"
  bottom: "h_34"
  bottom: "cont_35"
  top: "h_conted_34"
  scalar_param {
    axis: 0
  }
}
layer {
  name: "lstm1_transform_35"
  type: "InnerProduct"
  bottom: "h_conted_34"
  top: "W_hc_h_34"
  param {
    name: "W_hc"
  }
  inner_product_param {
    num_output: 4000
    bias_term: false
    weight_filler {
      type: "uniform"
      min: -0.08
      max: 0.08
    }
    axis: 2
  }
}
layer {
  name: "lstm1_gate_input_35"
  type: "Eltwise"
  bottom: "W_hc_h_34"
  bottom: "W_xc_x_35"
  top: "gate_input_35"
  eltwise_param {
    operation: SUM
  }
}
layer {
  name: "lstm1_unit_35"
  type: "LSTMUnit"
  bottom: "c_34"
  bottom: "gate_input_35"
  bottom: "cont_35"
  top: "c_35"
  top: "h_35"
}
layer {
  name: "lstm1_h_conted_35"
  type: "Scalar"
  bottom: "h_35"
  bottom: "cont_36"
  top: "h_conted_35"
  scalar_param {
    axis: 0
  }
}
layer {
  name: "lstm1_transform_36"
  type: "InnerProduct"
  bottom: "h_conted_35"
  top: "W_hc_h_35"
  param {
    name: "W_hc"
  }
  inner_product_param {
    num_output: 4000
    bias_term: false
    weight_filler {
      type: "uniform"
      min: -0.08
      max: 0.08
    }
    axis: 2
  }
}
layer {
  name: "lstm1_gate_input_36"
  type: "Eltwise"
  bottom: "W_hc_h_35"
  bottom: "W_xc_x_36"
  top: "gate_input_36"
  eltwise_param {
    operation: SUM
  }
}
layer {
  name: "lstm1_unit_36"
  type: "LSTMUnit"
  bottom: "c_35"
  bott
I0912 20:44:46.957690 27276 net.cpp:435] Input 0 -> x
I0912 20:44:46.957707 27276 net.cpp:435] Input 1 -> cont
I0912 20:44:46.957715 27276 net.cpp:435] Input 2 -> c_0
I0912 20:44:46.957721 27276 net.cpp:435] Input 3 -> h_0
I0912 20:44:46.957752 27276 layer_factory.hpp:76] Creating layer lstm1_cont_slice
I0912 20:44:46.957764 27276 net.cpp:110] Creating Layer lstm1_cont_slice
I0912 20:44:46.957772 27276 net.cpp:477] lstm1_cont_slice <- cont
…
I0912 20:44:46.958416 27276 net.cpp:433] lstm1_cont_slice -> cont_53
I0912 20:44:46.958428 27276 net.cpp:433] lstm1_cont_slice -> cont_54
I0912 20:44:46.958441 27276 net.cpp:433] lstm1_cont_slice -> cont_55
I0912 20:44:46.958453 27276 net.cpp:433] lstm1_cont_slice -> cont_56
I0912 20:44:46.958466 27276 net.cpp:433] lstm1_cont_slice -> cont_57
I0912 20:44:46.958477 27276 net.cpp:433] lstm1_cont_slice -> cont_58
I0912 20:44:46.958489 27276 net.cpp:433] lstm1_cont_slice -> cont_59
I0912 20:44:46.958501 27276 net.cpp:433] lstm1_cont_slice -> cont_60
I0912 20:44:46.958524 27276 net.cpp:155] Setting up lstm1_cont_slice
I0912 20:44:46.958533 27276 net.cpp:163] Top shape: 1 10 (10)
I0912 20:44:46.958539 27276 net.cpp:163] Top shape: 1 10 (10)
I0912 20:44:46.958545 27276 net.cpp:163] Top shape: 1 10 (10)
I0912 20:44:46.958551 27276 net.cpp:163] Top shape: 1 10 (10)
I0912 20:44:46.958557 27276 net.cpp:163] Top shape: 1 10 (10)
I0912 20:44:46.958564 27276 net.cpp:163] Top shape: 1 10 (10)
I0912 20:44:46.958570 27276 net.cpp:163] Top shape: 1 10 (10)
I0912 20:44:46.958576 27276 net.cpp:163] Top shape: 1 10 (10)
I0912 20:44:46.958582 27276 net.cpp:163] Top shape: 1 10 (10)
I0912 20:44:46.958587 27276 net.cpp:163] Top shape: 1 10 (10)
I0912 20:44:46.958596 27276 net.cpp:163] Top shape: 1 10 (10)
I0912 20:44:46.958606 27276 net.cpp:163] Top shape: 1 10 (10)
I0912 20:44:46.958614 27276 net.cpp:163] Top shape: 1 10 (10)
I0912 20:44:46.958626 27276 net.cpp:163] Top shape: 1 10 (10)
I0912 20:44:46.958636 27276 net.cpp:163] Top shape: 1 10 (10)
I0912 20:44:46.958642 27276 net.cpp:163] Top shape: 1 10 (10)
I0912 20:44:46.958648 27276 net.cpp:163] Top shape: 1 10 (10)
I0912 20:44:46.958654 27276 net.cpp:163] Top shape: 1 10 (10)
I0912 20:44:46.958662 27276 net.cpp:163] Top shape: 1 10 (10)
I0912 20:44:46.958673 27276 net.cpp:163] Top shape: 1 10 (10)
I0912 20:44:46.958683 27276 net.cpp:163] Top shape: 1 10 (10)
I0912 20:44:46.958694 27276 net.cpp:163] Top shape: 1 10 (10)
I0912 20:44:46.958701 27276 net.cpp:163] Top shape: 1 10 (10)
I0912 20:44:46.958708 27276 net.cpp:163] Top shape: 1 10 (10)
I0912 20:44:46.958715 27276 net.cpp:163] Top shape: 1 10 (10)
I0912 20:44:46.958725 27276 net.cpp:163] Top shape: 1 10 (10)
I0912 20:44:46.958736 27276 net.cpp:163] Top shape: 1 10 (10)
I0912 20:44:46.958747 27276 net.cpp:163] Top shape: 1 10 (10)
I0912 20:44:46.958755 27276 net.cpp:163] Top shape: 1 10 (10)
I0912 20:44:46.958760 27276 net.cpp:163] Top shape: 1 10 (10)
I0912 20:44:46.958766 27276 net.cpp:163] Top shape: 1 10 (10)
I0912 20:44:46.958772 27276 net.cpp:163] Top shape: 1 10 (10)
I0912 20:44:46.958778 27276 net.cpp:163] Top shape: 1 10 (10)
I0912 20:44:46.958784 27276 net.cpp:163] Top shape: 1 10 (10)
I0912 20:44:46.958791 27276 net.cpp:163] Top shape: 1 10 (10)
I0912 20:44:46.958801 27276 net.cpp:163] Top shape: 1 10 (10)
I0912 20:44:46.958811 27276 net.cpp:163] Top shape: 1 10 (10)
I0912 20:44:46.958817 27276 net.cpp:163] Top shape: 1 10 (10)
I0912 20:44:46.958824 27276 net.cpp:163] Top shape: 1 10 (10)
I0912 20:44:46.958829 27276 net.cpp:163] Top shape: 1 10 (10)
I0912 20:44:46.958840 27276 net.cpp:163] Top shape: 1 10 (10)
I0912 20:44:46.958845 27276 net.cpp:163] Top shape: 1 10 (10)
I0912 20:44:46.958850 27276 net.cpp:163] Top shape: 1 10 (10)
I0912 20:44:46.958854 27276 net.cpp:163] Top shape: 1 10 (10)
I0912 20:44:46.958861 27276 net.cpp:163] Top shape: 1 10 (10)
I0912 20:44:46.958866 27276 net.cpp:163] Top shape: 1 10 (10)
I0912 20:44:46.958871 27276 net.cpp:163] Top shape: 1 10 (10)
I0912 20:44:46.958879 27276 net.cpp:163] Top shape: 1 10 (10)
I0912 20:44:46.958889 27276 net.cpp:163] Top shape: 1 10 (10)
I0912 20:44:46.958900 27276 net.cpp:163] Top shape: 1 10 (10)
I0912 20:44:46.958910 27276 net.cpp:163] Top shape: 1 10 (10)
I0912 20:44:46.958921 27276 net.cpp:163] Top shape: 1 10 (10)
I0912 20:44:46.958931 27276 net.cpp:163] Top shape: 1 10 (10)
I0912 20:44:46.958938 27276 net.cpp:163] Top shape: 1 10 (10)
I0912 20:44:46.958945 27276 net.cpp:163] Top shape: 1 10 (10)
I0912 20:44:46.958950 27276 net.cpp:163] Top shape: 1 10 (10)
I0912 20:44:46.958955 27276 net.cpp:163] Top shape: 1 10 (10)
I0912 20:44:46.958959 27276 net.cpp:163] Top shape: 1 10 (10)
I0912 20:44:46.958964 27276 net.cpp:163] Top shape: 1 10 (10)
I0912 20:44:46.958968 27276 net.cpp:163] Top shape: 1 10 (10)
I0912 20:44:46.958973 27276 layer_factory.hpp:76] Creating layer cont_1_lstm1_cont_slice_0_split
I0912 20:44:46.958981 27276 net.cpp:110] Creating Layer cont_1_lstm1_cont_slice_0_split
I0912 20:44:46.958984 27276 net.cpp:477] cont_1_lstm1_cont_slice_0_split <- cont_1
I0912 20:44:46.958993 27276 net.cpp:433] cont_1_lstm1_cont_slice_0_split -> cont_1_lstm1_cont_slice_0_split_0
I0912 20:44:46.959005 27276 net.cpp:433] cont_1_lstm1_cont_slice_0_split -> cont_1_lstm1_cont_slice_0_split_1
I0912 20:44:46.959015 27276 net.cpp:155] Setting up cont_1_lstm1_cont_slice_0_split
I0912 20:44:46.959022 27276 net.cpp:163] Top shape: 1 10 (10)
I0912 20:44:46.959028 27276 net.cpp:163] Top shape: 1 10 (10)
I0912 20:44:46.959033 27276 layer_factory.hpp:76] Creating layer cont_2_lstm1_cont_slice_1_split
I0912 20:44:46.959043 27276 net.cpp:110] Creating Layer cont_2_lstm1_cont_slice_1_split
I0912 20:44:46.959051 27276 net.cpp:477] cont_2_lstm1_cont_slice_1_split <- cont_2
I0912 20:44:46.959064 27276 net.cpp:433] cont_2_lstm1_cont_slice_1_split -> cont_2_lstm1_cont_slice_1_split_0
I0912 20:44:46.959079 27276 net.cpp:433] cont_2_lstm1_cont_slice_1_split -> cont_2_lstm1_cont_slice_1_split_1
I0912 20:44:46.959095 27276 net.cpp:155] Setting up cont_2_lstm1_cont_slice_1_split
I0912 20:44:46.959106 27276 net.cpp:163] Top shape: 1 10 (10)
I0912 20:44:46.959117 27276 net.cpp:163] Top shape: 1 10 (10)
I0912 20:44:46.959128 27276 layer_factory.hpp:76] Creating layer cont_3_lstm1_cont_slice_2_split
I0912 20:44:46.959139 27276 net.cpp:110] Creating Layer cont_3_lstm1_cont_slice_2_split
I0912 20:44:46.959149 27276 net.cpp:477] cont_3_lstm1_cont_slice_2_split <- cont_3
I0912 20:44:46.959162 27276 net.cpp:433] cont_3_lstm1_cont_slice_2_split -> cont_3_lstm1_cont_slice_2_split_0
I0912 20:44:46.959177 27276 net.cpp:433] cont_3_lstm1_cont_slice_2_split -> cont_3_lstm1_cont_slice_2_split_1
I0912 20:44:46.959192 27276 net.cpp:155] Setting up cont_3_lstm1_cont_slice_2_split
I0912 20:44:46.959204 27276 net.cpp:163] Top shape: 1 10 (10)
I0912 20:44:46.959215 27276 net.cpp:163] Top shape: 1 10 (10)
I0912 20:44:46.959225 27276 layer_factory.hpp:76] Creating layer cont_4_lstm1_cont_slice_3_split
I0912 20:44:46.959238 27276 net.cpp:110] Creating Layer cont_4_lstm1_cont_slice_3_split
I0912 20:44:46.959254 27276 net.cpp:477] cont_4_lstm1_cont_slice_3_split <- cont_4
I0912 20:44:46.959266 27276 net.cpp:433] cont_4_lstm1_cont_slice_3_split -> cont_4_lstm1_cont_slice_3_split_0
I0912 20:44:46.959276 27276 net.cpp:433] cont_4_lstm1_cont_slice_3_split -> cont_4_lstm1_cont_slice_3_split_1
I0912 20:44:46.959285 27276 net.cpp:155] Setting up cont_4_lstm1_cont_slice_3_split
I0912 20:44:46.959292 27276 net.cpp:163] Top shape: 1 10 (10)
I0912 20:44:46.959298 27276 net.cpp:163] Top shape: 1 10 (10)
I0912 20:44:46.959305 27276 layer_factory.hpp:76] Creating layer cont_5_lstm1_cont_slice_4_split
I0912 20:44:46.959316 27276 net.cpp:110] Creating Layer cont_5_lstm1_cont_slice_4_split
I0912 20:44:46.959321 27276 net.cpp:477] cont_5_lstm1_cont_slice_4_split <- cont_5
I0912 20:44:46.959326 27276 net.cpp:433] cont_5_lstm1_cont_slice_4_split -> cont_5_lstm1_cont_slice_4_split_0
I0912 20:44:46.959336 27276 net.cpp:433] cont_5_lstm1_cont_slice_4_split -> cont_5_lstm1_cont_slice_4_split_1
I0912 20:44:46.959344 27276 net.cpp:155] Setting up cont_5_lstm1_cont_slice_4_split
I0912 20:44:46.959350 27276 net.cpp:163] Top shape: 1 10 (10)
I0912 20:44:46.959357 27276 net.cpp:163] Top shape: 1 10 (10)
I0912 20:44:46.959362 27276 layer_factory.hpp:76] Creating layer cont_6_lstm1_cont_slice_5_split
I0912 20:44:46.959367 27276 net.cpp:110] Creating Layer cont_6_lstm1_cont_slice_5_split
I0912 20:44:46.959372 27276 net.cpp:477] cont_6_lstm1_cont_slice_5_split <- cont_6
I0912 20:44:46.959378 27276 net.cpp:433] cont_6_lstm1_cont_slice_5_split -> cont_6_lstm1_cont_slice_5_split_0
I0912 20:44:46.959384 27276 net.cpp:433] cont_6_lstm1_cont_slice_5_split -> cont_6_lstm1_cont_slice_5_split_1
I0912 20:44:46.959393 27276 net.cpp:155] Setting up cont_6_lstm1_cont_slice_5_split
I0912 20:44:46.959400 27276 net.cpp:163] Top shape: 1 10 (10)
I0912 20:44:46.959405 27276 net.cpp:163] Top shape: 1 10 (10)
I0912 20:44:46.959409 27276 layer_factory.hpp:76] Creating layer cont_7_lstm1_cont_slice_6_split
I0912 20:44:46.959414 27276 net.cpp:110] Creating Layer cont_7_lstm1_cont_slice_6_split
I0912 20:44:46.959422 27276 net.cpp:477] cont_7_lstm1_cont_slice_6_split <- cont_7
I0912 20:44:46.959434 27276 net.cpp:433] cont_7_lstm1_cont_slice_6_split -> cont_7_lstm1_cont_slice_6_split_0
I0912 20:44:46.959449 27276 net.cpp:433] cont_7_lstm1_cont_slice_6_split -> cont_7_lstm1_cont_slice_6_split_1
I0912 20:44:46.959463 27276 net.cpp:155] Setting up cont_7_lstm1_cont_slice_6_split
I0912 20:44:46.959475 27276 net.cpp:163] Top shape: 1 10 (10)
I0912 20:44:46.959486 27276 net.cpp:163] Top shape: 1 10 (10)
I0912 20:44:46.959497 27276 layer_factory.hpp:76] Creating layer cont_8_lstm1_cont_slice_7_split
I0912 20:44:46.959511 27276 net.cpp:110] Creating Layer cont_8_lstm1_cont_slice_7_split
I0912 20:44:46.959520 27276 net.cpp:477] cont_8_lstm1_cont_slice_7_split <- cont_8
I0912 20:44:46.959533 27276 net.cpp:433] cont_8_lstm1_cont_slice_7_split -> cont_8_lstm1_cont_slice_7_split_0
I0912 20:44:46.959545 27276 net.cpp:433] cont_8_lstm1_cont_slice_7_split -> cont_8_lstm1_cont_slice_7_split_1
I0912 20:44:46.959554 27276 net.cpp:155] Setting up cont_8_lstm1_cont_slice_7_split
I0912 20:44:46.959560 27276 net.cpp:163] Top shape: 1 10 (10)
I0912 20:44:46.959565 27276 net.cpp:163] Top shape: 1 10 (10)
I0912 20:44:46.959574 27276 layer_factory.hpp:76] Creating layer cont_9_lstm1_cont_slice_8_split
I0912 20:44:46.959583 27276 net.cpp:110] Creating Layer cont_9_lstm1_cont_slice_8_split
I0912 20:44:46.959594 27276 net.cpp:477] cont_9_lstm1_cont_slice_8_split <- cont_9
I0912 20:44:46.959605 27276 net.cpp:433] cont_9_lstm1_cont_slice_8_split -> cont_9_lstm1_cont_slice_8_split_0
I0912 20:44:46.959614 27276 net.cpp:433] cont_9_lstm1_cont_slice_8_split -> cont_9_lstm1_cont_slice_8_split_1
I0912 20:44:46.959621 27276 net.cpp:155] Setting up cont_9_lstm1_cont_slice_8_split
I0912 20:44:46.959627 27276 net.cpp:163] Top shape: 1 10 (10)
I0912 20:44:46.959632 27276 net.cpp:163] Top shape: 1 10 (10)
I0912 20:44:46.959636 27276 layer_factory.hpp:76] Creating layer cont_10_lstm1_cont_slice_9_split
I0912 20:44:46.959645 27276 net.cpp:110] Creating Layer cont_10_lstm1_cont_slice_9_split
I0912 20:44:46.959651 27276 net.cpp:477] cont_10_lstm1_cont_slice_9_split <- cont_10
I0912 20:44:46.959662 27276 net.cpp:433] cont_10_lstm1_cont_slice_9_split -> cont_10_lstm1_cont_slice_9_split_0
I0912 20:44:46.959677 27276 net.cpp:433] cont_10_lstm1_cont_slice_9_split -> cont_10_lstm1_cont_slice_9_split_1
I0912 20:44:46.959694 27276 net.cpp:155] Setting up cont_10_lstm1_cont_slice_9_split
I0912 20:44:46.959707 27276 net.cpp:163] Top shape: 1 10 (10)
I0912 20:44:46.959717 27276 net.cpp:163] Top shape: 1 10 (10)
I0912 20:44:46.959733 27276 layer_factory.hpp:76] Creating layer cont_11_lstm1_cont_slice_10_split
I0912 20:44:46.959746 27276 net.cpp:110] Creating Layer cont_11_lstm1_cont_slice_10_split
I0912 20:44:46.959756 27276 net.cpp:477] cont_11_lstm1_cont_slice_10_split <- cont_11
I0912 20:44:46.959769 27276 net.cpp:433] cont_11_lstm1_cont_slice_10_split -> cont_11_lstm1_cont_slice_10_split_0
I0912 20:44:46.959777 27276 net.cpp:433] cont_11_lstm1_cont_slice_10_split -> cont_11_lstm1_cont_slice_10_split_1
I0912 20:44:46.959784 27276 net.cpp:155] Setting up cont_11_lstm1_cont_slice_10_split
I0912 20:44:46.959790 27276 net.cpp:163] Top shape: 1 10 (10)
I0912 20:44:46.959795 27276 net.cpp:163] Top shape: 1 10 (10)
I0912 20:44:46.959800 27276 layer_factory.hpp:76] Creating layer cont_12_lstm1_cont_slice_11_split
I0912 20:44:46.959806 27276 net.cpp:110] Creating Layer cont_12_lstm1_cont_slice_11_split
I0912 20:44:46.959810 27276 net.cpp:477] cont_12_lstm1_cont_slice_11_split <- cont_12
I0912 20:44:46.959816 27276 net.cpp:433] cont_12_lstm1_cont_slice_11_split -> cont_12_lstm1_cont_slice_11_split_0
I0912 20:44:46.959826 27276 net.cpp:433] cont_12_lstm1_cont_slice_11_split -> cont_12_lstm1_cont_slice_11_split_1
I0912 20:44:46.959835 27276 net.cpp:155] Setting up cont_12_lstm1_cont_slice_11_split
I0912 20:44:46.959844 27276 net.cpp:163] Top shape: 1 10 (10)
I0912 20:44:46.959851 27276 net.cpp:163] Top shape: 1 10 (10)
I0912 20:44:46.959856 27276 layer_factory.hpp:76] Creating layer cont_13_lstm1_cont_slice_12_split
I0912 20:44:46.959864 27276 net.cpp:110] Creating Layer cont_13_lstm1_cont_slice_12_split
I0912 20:44:46.959872 27276 net.cpp:477] cont_13_lstm1_cont_slice_12_split <- cont_13
I0912 20:44:46.959885 27276 net.cpp:433] cont_13_lstm1_cont_slice_12_split -> cont_13_lstm1_cont_slice_12_split_0
I0912 20:44:46.959900 27276 net.cpp:433] cont_13_lstm1_cont_slice_12_split -> cont_13_lstm1_cont_slice_12_split_1
I0912 20:44:46.959915 27276 net.cpp:155] Setting up cont_13_lstm1_cont_slice_12_split
I0912 20:44:46.959928 27276 net.cpp:163] Top shape: 1 10 (10)
I0912 20:44:46.959939 27276 net.cpp:163] Top shape: 1 10 (10)
I0912 20:44:46.959949 27276 layer_factory.hpp:76] Creating layer cont_14_lstm1_cont_slice_13_split
I0912 20:44:46.959964 27276 net.cpp:110] Creating Layer cont_14_lstm1_cont_slice_13_split
I0912 20:44:46.959974 27276 net.cpp:477] cont_14_lstm1_cont_slice_13_split <- cont_14
I0912 20:44:46.959986 27276 net.cpp:433] cont_14_lstm1_cont_slice_13_split -> cont_14_lstm1_cont_slice_13_split_0
I0912 20:44:46.959995 27276 net.cpp:433] cont_14_lstm1_cont_slice_13_split -> cont_14_lstm1_cont_slice_13_split_1
I0912 20:44:46.960005 27276 net.cpp:155] Setting up cont_14_lstm1_cont_slice_13_split
I0912 20:44:46.960013 27276 net.cpp:163] Top shape: 1 10 (10)
I0912 20:44:46.960019 27276 net.cpp:163] Top shape: 1 10 (10)
I0912 20:44:46.960024 27276 layer_factory.hpp:76] Creating layer cont_15_lstm1_cont_slice_14_split
I0912 20:44:46.960033 27276 net.cpp:110] Creating Layer cont_15_lstm1_cont_slice_14_split
I0912 20:44:46.960041 27276 net.cpp:477] cont_15_lstm1_cont_slice_14_split <- cont_15
I0912 20:44:46.960054 27276 net.cpp:433] cont_15_lstm1_cont_slice_14_split -> cont_15_lstm1_cont_slice_14_split_0
I0912 20:44:46.960069 27276 net.cpp:433] cont_15_lstm1_cont_slice_14_split -> cont_15_lstm1_cont_slice_14_split_1
I0912 20:44:46.960084 27276 net.cpp:155] Setting up cont_15_lstm1_cont_slice_14_split
I0912 20:44:46.960096 27276 net.cpp:163] Top shape: 1 10 (10)
I0912 20:44:46.960108 27276 net.cpp:163] Top shape: 1 10 (10)
I0912 20:44:46.960117 27276 layer_factory.hpp:76] Creating layer cont_16_lstm1_cont_slice_15_split
I0912 20:44:46.960134 27276 net.cpp:110] Creating Layer cont_16_lstm1_cont_slice_15_split
I0912 20:44:46.960142 27276 net.cpp:477] cont_16_lstm1_cont_slice_15_split <- cont_16
I0912 20:44:46.960155 27276 net.cpp:433] cont_16_lstm1_cont_slice_15_split -> cont_16_lstm1_cont_slice_15_split_0
I0912 20:44:46.960165 27276 net.cpp:433] cont_16_lstm1_cont_slice_15_split -> cont_16_lstm1_cont_slice_15_split_1
I0912 20:44:46.960180 27276 net.cpp:155] Setting up cont_16_lstm1_cont_slice_15_split
I0912 20:44:46.960186 27276 net.cpp:163] Top shape: 1 10 (10)
I0912 20:44:46.960192 27276 net.cpp:163] Top shape: 1 10 (10)
I0912 20:44:46.960198 27276 layer_factory.hpp:76] Creating layer cont_17_lstm1_cont_slice_16_split
I0912 20:44:46.960203 27276 net.cpp:110] Creating Layer cont_17_lstm1_cont_slice_16_split
I0912 20:44:46.960208 27276 net.cpp:477] cont_17_lstm1_cont_slice_16_split <- cont_17
I0912 20:44:46.960214 27276 net.cpp:433] cont_17_lstm1_cont_slice_16_split -> cont_17_lstm1_cont_slice_16_split_0
I0912 20:44:46.960222 27276 net.cpp:433] cont_17_lstm1_cont_slice_16_split -> cont_17_lstm1_cont_slice_16_split_1
I0912 20:44:46.960230 27276 net.cpp:155] Setting up cont_17_lstm1_cont_slice_16_split
I0912 20:44:46.960237 27276 net.cpp:163] Top shape: 1 10 (10)
I0912 20:44:46.960242 27276 net.cpp:163] Top shape: 1 10 (10)
I0912 20:44:46.960247 27276 layer_factory.hpp:76] Creating layer cont_18_lstm1_cont_slice_17_split
I0912 20:44:46.960254 27276 net.cpp:110] Creating Layer cont_18_lstm1_cont_slice_17_split
I0912 20:44:46.960260 27276 net.cpp:477] cont_18_lstm1_cont_slice_17_split <- cont_18
I0912 20:44:46.960266 27276 net.cpp:433] cont_18_lstm1_cont_slice_17_split -> cont_18_lstm1_cont_slice_17_split_0
I0912 20:44:46.960274 27276 net.cpp:433] cont_18_lstm1_cont_slice_17_split -> cont_18_lstm1_cont_slice_17_split_1
I0912 20:44:46.960283 27276 net.cpp:155] Setting up cont_18_lstm1_cont_slice_17_split
I0912 20:44:46.960292 27276 net.cpp:163] Top shape: 1 10 (10)
I0912 20:44:46.960299 27276 net.cpp:163] Top shape: 1 10 (10)
I0912 20:44:46.960304 27276 layer_factory.hpp:76] Creating layer cont_19_lstm1_cont_slice_18_split
I0912 20:44:46.960310 27276 net.cpp:110] Creating Layer cont_19_lstm1_cont_slice_18_split
I0912 20:44:46.960314 27276 net.cpp:477] cont_19_lstm1_cont_slice_18_split <- cont_19
I0912 20:44:46.960320 27276 net.cpp:433] cont_19_lstm1_cont_slice_18_split -> cont_19_lstm1_cont_slice_18_split_0
I0912 20:44:46.960327 27276 net.cpp:433] cont_19_lstm1_cont_slice_18_split -> cont_19_lstm1_cont_slice_18_split_1
I0912 20:44:46.960335 27276 net.cpp:155] Setting up cont_19_lstm1_cont_slice_18_split
I0912 20:44:46.960341 27276 net.cpp:163] Top shape: 1 10 (10)
I0912 20:44:46.960346 27276 net.cpp:163] Top shape: 1 10 (10)
I0912 20:44:46.960350 27276 layer_factory.hpp:76] Creating layer cont_20_lstm1_cont_slice_19_split
I0912 20:44:46.960356 27276 net.cpp:110] Creating Layer cont_20_lstm1_cont_slice_19_split
I0912 20:44:46.960362 27276 net.cpp:477] cont_20_lstm1_cont_slice_19_split <- cont_20
I0912 20:44:46.960368 27276 net.cpp:433] cont_20_lstm1_cont_slice_19_split -> cont_20_lstm1_cont_slice_19_split_0
I0912 20:44:46.960376 27276 net.cpp:433] cont_20_lstm1_cont_slice_19_split -> cont_20_lstm1_cont_slice_19_split_1
I0912 20:44:46.960384 27276 net.cpp:155] Setting up cont_20_lstm1_cont_slice_19_split
I0912 20:44:46.960392 27276 net.cpp:163] Top shape: 1 10 (10)
I0912 20:44:46.960399 27276 net.cpp:163] Top shape: 1 10 (10)
I0912 20:44:46.960404 27276 layer_factory.hpp:76] Creating layer cont_21_lstm1_cont_slice_20_split
I0912 20:44:46.960409 27276 net.cpp:110] Creating Layer cont_21_lstm1_cont_slice_20_split
I0912 20:44:46.960413 27276 net.cpp:477] cont_21_lstm1_cont_slice_20_split <- cont_21
I0912 20:44:46.960419 27276 net.cpp:433] cont_21_lstm1_cont_slice_20_split -> cont_21_lstm1_cont_slice_20_split_0
I0912 20:44:46.960428 27276 net.cpp:433] cont_21_lstm1_cont_slice_20_split -> cont_21_lstm1_cont_slice_20_split_1
I0912 20:44:46.960436 27276 net.cpp:155] Setting up cont_21_lstm1_cont_slice_20_split
I0912 20:44:46.960443 27276 net.cpp:163] Top shape: 1 10 (10)
I0912 20:44:46.960451 27276 net.cpp:163] Top shape: 1 10 (10)
I0912 20:44:46.960459 27276 layer_factory.hpp:76] Creating layer cont_22_lstm1_cont_slice_21_split
I0912 20:44:46.960474 27276 net.cpp:110] Creating Layer cont_22_lstm1_cont_slice_21_split
I0912 20:44:46.960484 27276 net.cpp:477] cont_22_lstm1_cont_slice_21_split <- cont_22
I0912 20:44:46.960496 27276 net.cpp:433] cont_22_lstm1_cont_slice_21_split -> cont_22_lstm1_cont_slice_21_split_0
I0912 20:44:46.960510 27276 net.cpp:433] cont_22_lstm1_cont_slice_21_split -> cont_22_lstm1_cont_slice_21_split_1
I0912 20:44:46.960520 27276 net.cpp:155] Setting up cont_22_lstm1_cont_slice_21_split
I0912 20:44:46.960526 27276 net.cpp:163] Top shape: 1 10 (10)
I0912 20:44:46.960533 27276 net.cpp:163] Top shape: 1 10 (10)
I0912 20:44:46.960538 27276 layer_factory.hpp:76] Creating layer cont_23_lstm1_cont_slice_22_split
I0912 20:44:46.960546 27276 net.cpp:110] Creating Layer cont_23_lstm1_cont_slice_22_split
I0912 20:44:46.960551 27276 net.cpp:477] cont_23_lstm1_cont_slice_22_split <- cont_23
I0912 20:44:46.960556 27276 net.cpp:433] cont_23_lstm1_cont_slice_22_split -> cont_23_lstm1_cont_slice_22_split_0
I0912 20:44:46.960564 27276 net.cpp:433] cont_23_lstm1_cont_slice_22_split -> cont_23_lstm1_cont_slice_22_split_1
I0912 20:44:46.960573 27276 net.cpp:155] Setting up cont_23_lstm1_cont_slice_22_split
I0912 20:44:46.960579 27276 net.cpp:163] Top shape: 1 10 (10)
I0912 20:44:46.960587 27276 net.cpp:163] Top shape: 1 10 (10)
I0912 20:44:46.960590 27276 layer_factory.hpp:76] Creating layer cont_24_lstm1_cont_slice_23_split
I0912 20:44:46.960597 27276 net.cpp:110] Creating Layer cont_24_lstm1_cont_slice_23_split
I0912 20:44:46.960602 27276 net.cpp:477] cont_24_lstm1_cont_slice_23_split <- cont_24
I0912 20:44:46.960608 27276 net.cpp:433] cont_24_lstm1_cont_slice_23_split -> cont_24_lstm1_cont_slice_23_split_0
I0912 20:44:46.960616 27276 net.cpp:433] cont_24_lstm1_cont_slice_23_split -> cont_24_lstm1_cont_slice_23_split_1
I0912 20:44:46.960624 27276 net.cpp:155] Setting up cont_24_lstm1_cont_slice_23_split
I0912 20:44:46.960630 27276 net.cpp:163] Top shape: 1 10 (10)
I0912 20:44:46.960635 27276 net.cpp:163] Top shape: 1 10 (10)
I0912 20:44:46.960639 27276 layer_factory.hpp:76] Creating layer cont_25_lstm1_cont_slice_24_split
I0912 20:44:46.960647 27276 net.cpp:110] Creating Layer cont_25_lstm1_cont_slice_24_split
I0912 20:44:46.960654 27276 net.cpp:477] cont_25_lstm1_cont_slice_24_split <- cont_25
I0912 20:44:46.960665 27276 net.cpp:433] cont_25_lstm1_cont_slice_24_split -> cont_25_lstm1_cont_slice_24_split_0
I0912 20:44:46.960680 27276 net.cpp:433] cont_25_lstm1_cont_slice_24_split -> cont_25_lstm1_cont_slice_24_split_1
I0912 20:44:46.960695 27276 net.cpp:155] Setting up cont_25_lstm1_cont_slice_24_split
I0912 20:44:46.960707 27276 net.cpp:163] Top shape: 1 10 (10)
I0912 20:44:46.960719 27276 net.cpp:163] Top shape: 1 10 (10)
I0912 20:44:46.960729 27276 layer_factory.hpp:76] Creating layer cont_26_lstm1_cont_slice_25_split
I0912 20:44:46.960743 27276 net.cpp:110] Creating Layer cont_26_lstm1_cont_slice_25_split
I0912 20:44:46.960753 27276 net.cpp:477] cont_26_lstm1_cont_slice_25_split <- cont_26
I0912 20:44:46.960765 27276 net.cpp:433] cont_26_lstm1_cont_slice_25_split -> cont_26_lstm1_cont_slice_25_split_0
I0912 20:44:46.960775 27276 net.cpp:433] cont_26_lstm1_cont_slice_25_split -> cont_26_lstm1_cont_slice_25_split_1
I0912 20:44:46.960784 27276 net.cpp:155] Setting up cont_26_lstm1_cont_slice_25_split
I0912 20:44:46.960791 27276 net.cpp:163] Top shape: 1 10 (10)
I0912 20:44:46.960798 27276 net.cpp:163] Top shape: 1 10 (10)
I0912 20:44:46.960803 27276 layer_factory.hpp:76] Creating layer cont_27_lstm1_cont_slice_26_split
I0912 20:44:46.960809 27276 net.cpp:110] Creating Layer cont_27_lstm1_cont_slice_26_split
I0912 20:44:46.960814 27276 net.cpp:477] cont_27_lstm1_cont_slice_26_split <- cont_27
I0912 20:44:46.960820 27276 net.cpp:433] cont_27_lstm1_cont_slice_26_split -> cont_27_lstm1_cont_slice_26_split_0
I0912 20:44:46.960827 27276 net.cpp:433] cont_27_lstm1_cont_slice_26_split -> cont_27_lstm1_cont_slice_26_split_1
I0912 20:44:46.960835 27276 net.cpp:155] Setting up cont_27_lstm1_cont_slice_26_split
I0912 20:44:46.960841 27276 net.cpp:163] Top shape: 1 10 (10)
I0912 20:44:46.960849 27276 net.cpp:163] Top shape: 1 10 (10)
I0912 20:44:46.960855 27276 layer_factory.hpp:76] Creating layer cont_28_lstm1_cont_slice_27_split
I0912 20:44:46.960865 27276 net.cpp:110] Creating Layer cont_28_lstm1_cont_slice_27_split
I0912 20:44:46.960877 27276 net.cpp:477] cont_28_lstm1_cont_slice_27_split <- cont_28
I0912 20:44:46.960891 27276 net.cpp:433] cont_28_lstm1_cont_slice_27_split -> cont_28_lstm1_cont_slice_27_split_0
I0912 20:44:46.960906 27276 net.cpp:433] cont_28_lstm1_cont_slice_27_split -> cont_28_lstm1_cont_slice_27_split_1
I0912 20:44:46.960921 27276 net.cpp:155] Setting up cont_28_lstm1_cont_slice_27_split
I0912 20:44:46.960933 27276 net.cpp:163] Top shape: 1 10 (10)
I0912 20:44:46.960944 27276 net.cpp:163] Top shape: 1 10 (10)
I0912 20:44:46.960955 27276 layer_factory.hpp:76] Creating layer cont_29_lstm1_cont_slice_28_split
I0912 20:44:46.960966 27276 net.cpp:110] Creating Layer cont_29_lstm1_cont_slice_28_split
I0912 20:44:46.960978 27276 net.cpp:477] cont_29_lstm1_cont_slice_28_split <- cont_29
I0912 20:44:46.960989 27276 net.cpp:433] cont_29_lstm1_cont_slice_28_split -> cont_29_lstm1_cont_slice_28_split_0
I0912 20:44:46.960999 27276 net.cpp:433] cont_29_lstm1_cont_slice_28_split -> cont_29_lstm1_cont_slice_28_split_1
I0912 20:44:46.961009 27276 net.cpp:155] Setting up cont_29_lstm1_cont_slice_28_split
I0912 20:44:46.961014 27276 net.cpp:163] Top shape: 1 10 (10)
I0912 20:44:46.961021 27276 net.cpp:163] Top shape: 1 10 (10)
I0912 20:44:46.961026 27276 layer_factory.hpp:76] Creating layer cont_30_lstm1_cont_slice_29_split
I0912 20:44:46.961032 27276 net.cpp:110] Creating Layer cont_30_lstm1_cont_slice_29_split
I0912 20:44:46.961037 27276 net.cpp:477] cont_30_lstm1_cont_slice_29_split <- cont_30
I0912 20:44:46.961050 27276 net.cpp:433] cont_30_lstm1_cont_slice_29_split -> cont_30_lstm1_cont_slice_29_split_0
I0912 20:44:46.961066 27276 net.cpp:433] cont_30_lstm1_cont_slice_29_split -> cont_30_lstm1_cont_slice_29_split_1
I0912 20:44:46.961081 27276 net.cpp:155] Setting up cont_30_lstm1_cont_slice_29_split
I0912 20:44:46.961092 27276 net.cpp:163] Top shape: 1 10 (10)
I0912 20:44:46.961103 27276 net.cpp:163] Top shape: 1 10 (10)
I0912 20:44:46.961113 27276 layer_factory.hpp:76] Creating layer cont_31_lstm1_cont_slice_30_split
I0912 20:44:46.961125 27276 net.cpp:110] Creating Layer cont_31_lstm1_cont_slice_30_split
I0912 20:44:46.961135 27276 net.cpp:477] cont_31_lstm1_cont_slice_30_split <- cont_31
I0912 20:44:46.961148 27276 net.cpp:433] cont_31_lstm1_cont_slice_30_split -> cont_31_lstm1_cont_slice_30_split_0
I0912 20:44:46.961158 27276 net.cpp:433] cont_31_lstm1_cont_slice_30_split -> cont_31_lstm1_cont_slice_30_split_1
I0912 20:44:46.961166 27276 net.cpp:155] Setting up cont_31_lstm1_cont_slice_30_split
I0912 20:44:46.961172 27276 net.cpp:163] Top shape: 1 10 (10)
I0912 20:44:46.961179 27276 net.cpp:163] Top shape: 1 10 (10)
I0912 20:44:46.961184 27276 layer_factory.hpp:76] Creating layer cont_32_lstm1_cont_slice_31_split
I0912 20:44:46.961197 27276 net.cpp:110] Creating Layer cont_32_lstm1_cont_slice_31_split
I0912 20:44:46.961208 27276 net.cpp:477] cont_32_lstm1_cont_slice_31_split <- cont_32
I0912 20:44:46.961220 27276 net.cpp:433] cont_32_lstm1_cont_slice_31_split -> cont_32_lstm1_cont_slice_31_split_0
I0912 20:44:46.961230 27276 net.cpp:433] cont_32_lstm1_cont_slice_31_split -> cont_32_lstm1_cont_slice_31_split_1
I0912 20:44:46.961240 27276 net.cpp:155] Setting up cont_32_lstm1_cont_slice_31_split
I0912 20:44:46.961246 27276 net.cpp:163] Top shape: 1 10 (10)
I0912 20:44:46.961249 27276 net.cpp:163] Top shape: 1 10 (10)
I0912 20:44:46.961254 27276 layer_factory.hpp:76] Creating layer cont_33_lstm1_cont_slice_32_split
I0912 20:44:46.961262 27276 net.cpp:110] Creating Layer cont_33_lstm1_cont_slice_32_split
I0912 20:44:46.961271 27276 net.cpp:477] cont_33_lstm1_cont_slice_32_split <- cont_33
I0912 20:44:46.961280 27276 net.cpp:433] cont_33_lstm1_cont_slice_32_split -> cont_33_lstm1_cont_slice_32_split_0
I0912 20:44:46.961302 27276 net.cpp:433] cont_33_lstm1_cont_slice_32_split -> cont_33_lstm1_cont_slice_32_split_1
I0912 20:44:46.961313 27276 net.cpp:155] Setting up cont_33_lstm1_cont_slice_32_split
I0912 20:44:46.961320 27276 net.cpp:163] Top shape: 1 10 (10)
I0912 20:44:46.961326 27276 net.cpp:163] Top shape: 1 10 (10)
I0912 20:44:46.961336 27276 layer_factory.hpp:76] Creating layer cont_34_lstm1_cont_slice_33_split
I0912 20:44:46.961344 27276 net.cpp:110] Creating Layer cont_34_lstm1_cont_slice_33_split
I0912 20:44:46.961349 27276 net.cpp:477] cont_34_lstm1_cont_slice_33_split <- cont_34
I0912 20:44:46.961356 27276 net.cpp:433] cont_34_lstm1_cont_slice_33_split -> cont_34_lstm1_cont_slice_33_split_0
I0912 20:44:46.961364 27276 net.cpp:433] cont_34_lstm1_cont_slice_33_split -> cont_34_lstm1_cont_slice_33_split_1
I0912 20:44:46.961374 27276 net.cpp:155] Setting up cont_34_lstm1_cont_slice_33_split
I0912 20:44:46.961381 27276 net.cpp:163] Top shape: 1 10 (10)
I0912 20:44:46.961387 27276 net.cpp:163] Top shape: 1 10 (10)
I0912 20:44:46.961392 27276 layer_factory.hpp:76] Creating layer cont_35_lstm1_cont_slice_34_split
I0912 20:44:46.961400 27276 net.cpp:110] Creating Layer cont_35_lstm1_cont_slice_34_split
I0912 20:44:46.961403 27276 net.cpp:477] cont_35_lstm1_cont_slice_34_split <- cont_35
I0912 20:44:46.961410 27276 net.cpp:433] cont_35_lstm1_cont_slice_34_split -> cont_35_lstm1_cont_slice_34_split_0
I0912 20:44:46.961416 27276 net.cpp:433] cont_35_lstm1_cont_slice_34_split -> cont_35_lstm1_cont_slice_34_split_1
I0912 20:44:46.961424 27276 net.cpp:155] Setting up cont_35_lstm1_cont_slice_34_split
I0912 20:44:46.961431 27276 net.cpp:163] Top shape: 1 10 (10)
I0912 20:44:46.961434 27276 net.cpp:163] Top shape: 1 10 (10)
I0912 20:44:46.961441 27276 layer_factory.hpp:76] Creating layer cont_36_lstm1_cont_slice_35_split
I0912 20:44:46.961446 27276 net.cpp:110] Creating Layer cont_36_lstm1_cont_slice_35_split
I0912 20:44:46.961451 27276 net.cpp:477] cont_36_lstm1_cont_slice_35_split <- cont_36
I0912 20:44:46.961457 27276 net.cpp:433] cont_36_lstm1_cont_slice_35_split -> cont_36_lstm1_cont_slice_35_split_0
I0912 20:44:46.961467 27276 net.cpp:433] cont_36_lstm1_cont_slice_35_split -> cont_36_lstm1_cont_slice_35_split_1
I0912 20:44:46.961477 27276 net.cpp:155] Setting up cont_36_lstm1_cont_slice_35_split
I0912 20:44:46.961483 27276 net.cpp:163] Top shape: 1 10 (10)
I0912 20:44:46.961488 27276 net.cpp:163] Top shape: 1 10 (10)
I0912 20:44:46.961494 27276 layer_factory.hpp:76] Creating layer cont_37_lstm1_cont_slice_36_split
I0912 20:44:46.961499 27276 net.cpp:110] Creating Layer cont_37_lstm1_cont_slice_36_split
I0912 20:44:46.961504 27276 net.cpp:477] cont_37_lstm1_cont_slice_36_split <- cont_37
I0912 20:44:46.961510 27276 net.cpp:433] cont_37_lstm1_cont_slice_36_split -> cont_37_lstm1_cont_slice_36_split_0
I0912 20:44:46.961519 27276 net.cpp:433] cont_37_lstm1_cont_slice_36_split -> cont_37_lstm1_cont_slice_36_split_1
I0912 20:44:46.961527 27276 net.cpp:155] Setting up cont_37_lstm1_cont_slice_36_split
I0912 20:44:46.961534 27276 net.cpp:163] Top shape: 1 10 (10)
I0912 20:44:46.961542 27276 net.cpp:163] Top shape: 1 10 (10)
I0912 20:44:46.961550 27276 layer_factory.hpp:76] Creating layer cont_38_lstm1_cont_slice_37_split
I0912 20:44:46.961562 27276 net.cpp:110] Creating Layer cont_38_lstm1_cont_slice_37_split
I0912 20:44:46.961572 27276 net.cpp:477] cont_38_lstm1_cont_slice_37_split <- cont_38
I0912 20:44:46.961585 27276 net.cpp:433] cont_38_lstm1_cont_slice_37_split -> cont_38_lstm1_cont_slice_37_split_0
I0912 20:44:46.961596 27276 net.cpp:433] cont_38_lstm1_cont_slice_37_split -> cont_38_lstm1_cont_slice_37_split_1
I0912 20:44:46.961606 27276 net.cpp:155] Setting up cont_38_lstm1_cont_slice_37_split
I0912 20:44:46.961612 27276 net.cpp:163] Top shape: 1 10 (10)
I0912 20:44:46.961618 27276 net.cpp:163] Top shape: 1 10 (10)
I0912 20:44:46.961626 27276 layer_factory.hpp:76] Creating layer cont_39_lstm1_cont_slice_38_split
I0912 20:44:46.961635 27276 net.cpp:110] Creating Layer cont_39_lstm1_cont_slice_38_split
I0912 20:44:46.961645 27276 net.cpp:477] cont_39_lstm1_cont_slice_38_split <- cont_39
I0912 20:44:46.961658 27276 net.cpp:433] cont_39_lstm1_cont_slice_38_split -> cont_39_lstm1_cont_slice_38_split_0
I0912 20:44:46.961673 27276 net.cpp:433] cont_39_lstm1_cont_slice_38_split -> cont_39_lstm1_cont_slice_38_split_1
I0912 20:44:46.961693 27276 net.cpp:155] Setting up cont_39_lstm1_cont_slice_38_split
I0912 20:44:46.961705 27276 net.cpp:163] Top shape: 1 10 (10)
I0912 20:44:46.961712 27276 net.cpp:163] Top shape: 1 10 (10)
I0912 20:44:46.961719 27276 layer_factory.hpp:76] Creating layer cont_40_lstm1_cont_slice_39_split
I0912 20:44:46.961725 27276 net.cpp:110] Creating Layer cont_40_lstm1_cont_slice_39_split
I0912 20:44:46.961731 27276 net.cpp:477] cont_40_lstm1_cont_slice_39_split <- cont_40
I0912 20:44:46.961737 27276 net.cpp:433] cont_40_lstm1_cont_slice_39_split -> cont_40_lstm1_cont_slice_39_split_0
I0912 20:44:46.961746 27276 net.cpp:433] cont_40_lstm1_cont_slice_39_split -> cont_40_lstm1_cont_slice_39_split_1
I0912 20:44:46.961755 27276 net.cpp:155] Setting up cont_40_lstm1_cont_slice_39_split
I0912 20:44:46.961761 27276 net.cpp:163] Top shape: 1 10 (10)
I0912 20:44:46.961767 27276 net.cpp:163] Top shape: 1 10 (10)
I0912 20:44:46.961773 27276 layer_factory.hpp:76] Creating layer cont_41_lstm1_cont_slice_40_split
I0912 20:44:46.961783 27276 net.cpp:110] Creating Layer cont_41_lstm1_cont_slice_40_split
I0912 20:44:46.961794 27276 net.cpp:477] cont_41_lstm1_cont_slice_40_split <- cont_41
I0912 20:44:46.961803 27276 net.cpp:433] cont_41_lstm1_cont_slice_40_split -> cont_41_lstm1_cont_slice_40_split_0
I0912 20:44:46.961812 27276 net.cpp:433] cont_41_lstm1_cont_slice_40_split -> cont_41_lstm1_cont_slice_40_split_1
I0912 20:44:46.961820 27276 net.cpp:155] Setting up cont_41_lstm1_cont_slice_40_split
I0912 20:44:46.961827 27276 net.cpp:163] Top shape: 1 10 (10)
I0912 20:44:46.961833 27276 net.cpp:163] Top shape: 1 10 (10)
I0912 20:44:46.961839 27276 layer_factory.hpp:76] Creating layer cont_42_lstm1_cont_slice_41_split
I0912 20:44:46.961846 27276 net.cpp:110] Creating Layer cont_42_lstm1_cont_slice_41_split
I0912 20:44:46.961851 27276 net.cpp:477] cont_42_lstm1_cont_slice_41_split <- cont_42
I0912 20:44:46.961858 27276 net.cpp:433] cont_42_lstm1_cont_slice_41_split -> cont_42_lstm1_cont_slice_41_split_0
I0912 20:44:46.961866 27276 net.cpp:433] cont_42_lstm1_cont_slice_41_split -> cont_42_lstm1_cont_slice_41_split_1
I0912 20:44:46.961874 27276 net.cpp:155] Setting up cont_42_lstm1_cont_slice_41_split
I0912 20:44:46.961880 27276 net.cpp:163] Top shape: 1 10 (10)
I0912 20:44:46.961887 27276 net.cpp:163] Top shape: 1 10 (10)
I0912 20:44:46.961892 27276 layer_factory.hpp:76] Creating layer cont_43_lstm1_cont_slice_42_split
I0912 20:44:46.961901 27276 net.cpp:110] Creating Layer cont_43_lstm1_cont_slice_42_split
I0912 20:44:46.961905 27276 net.cpp:477] cont_43_lstm1_cont_slice_42_split <- cont_43
I0912 20:44:46.961911 27276 net.cpp:433] cont_43_lstm1_cont_slice_42_split -> cont_43_lstm1_cont_slice_42_split_0
I0912 20:44:46.961918 27276 net.cpp:433] cont_43_lstm1_cont_slice_42_split -> cont_43_lstm1_cont_slice_42_split_1
I0912 20:44:46.961927 27276 net.cpp:155] Setting up cont_43_lstm1_cont_slice_42_split
I0912 20:44:46.961935 27276 net.cpp:163] Top shape: 1 10 (10)
I0912 20:44:46.961940 27276 net.cpp:163] Top shape: 1 10 (10)
I0912 20:44:46.961943 27276 layer_factory.hpp:76] Creating layer cont_44_lstm1_cont_slice_43_split
I0912 20:44:46.961948 27276 net.cpp:110] Creating Layer cont_44_lstm1_cont_slice_43_split
I0912 20:44:46.961953 27276 net.cpp:477] cont_44_lstm1_cont_slice_43_split <- cont_44
I0912 20:44:46.961959 27276 net.cpp:433] cont_44_lstm1_cont_slice_43_split -> cont_44_lstm1_cont_slice_43_split_0
I0912 20:44:46.961967 27276 net.cpp:433] cont_44_lstm1_cont_slice_43_split -> cont_44_lstm1_cont_slice_43_split_1
I0912 20:44:46.961976 27276 net.cpp:155] Setting up cont_44_lstm1_cont_slice_43_split
I0912 20:44:46.961982 27276 net.cpp:163] Top shape: 1 10 (10)
I0912 20:44:46.961987 27276 net.cpp:163] Top shape: 1 10 (10)
I0912 20:44:46.961992 27276 layer_factory.hpp:76] Creating layer cont_45_lstm1_cont_slice_44_split
I0912 20:44:46.962004 27276 net.cpp:110] Creating Layer cont_45_lstm1_cont_slice_44_split
I0912 20:44:46.962016 27276 net.cpp:477] cont_45_lstm1_cont_slice_44_split <- cont_45
I0912 20:44:46.962025 27276 net.cpp:433] cont_45_lstm1_cont_slice_44_split -> cont_45_lstm1_cont_slice_44_split_0
I0912 20:44:46.962040 27276 net.cpp:433] cont_45_lstm1_cont_slice_44_split -> cont_45_lstm1_cont_slice_44_split_1
I0912 20:44:46.962050 27276 net.cpp:155] Setting up cont_45_lstm1_cont_slice_44_split
I0912 20:44:46.962057 27276 net.cpp:163] Top shape: 1 10 (10)
I0912 20:44:46.962064 27276 net.cpp:163] Top shape: 1 10 (10)
I0912 20:44:46.962069 27276 layer_factory.hpp:76] Creating layer cont_46_lstm1_cont_slice_45_split
I0912 20:44:46.962080 27276 net.cpp:110] Creating Layer cont_46_lstm1_cont_slice_45_split
I0912 20:44:46.962087 27276 net.cpp:477] cont_46_lstm1_cont_slice_45_split <- cont_46
I0912 20:44:46.962101 27276 net.cpp:433] cont_46_lstm1_cont_slice_45_split -> cont_46_lstm1_cont_slice_45_split_0
I0912 20:44:46.962117 27276 net.cpp:433] cont_46_lstm1_cont_slice_45_split -> cont_46_lstm1_cont_slice_45_split_1
I0912 20:44:46.962134 27276 net.cpp:155] Setting up cont_46_lstm1_cont_slice_45_split
I0912 20:44:46.962151 27276 net.cpp:163] Top shape: 1 10 (10)
I0912 20:44:46.962162 27276 net.cpp:163] Top shape: 1 10 (10)
I0912 20:44:46.962168 27276 layer_factory.hpp:76] Creating layer cont_47_lstm1_cont_slice_46_split
I0912 20:44:46.962177 27276 net.cpp:110] Creating Layer cont_47_lstm1_cont_slice_46_split
I0912 20:44:46.962184 27276 net.cpp:477] cont_47_lstm1_cont_slice_46_split <- cont_47
I0912 20:44:46.962194 27276 net.cpp:433] cont_47_lstm1_cont_slice_46_split -> cont_47_lstm1_cont_slice_46_split_0
I0912 20:44:46.962210 27276 net.cpp:433] cont_47_lstm1_cont_slice_46_split -> cont_47_lstm1_cont_slice_46_split_1
I0912 20:44:46.962220 27276 net.cpp:155] Setting up cont_47_lstm1_cont_slice_46_split
I0912 20:44:46.962229 27276 net.cpp:163] Top shape: 1 10 (10)
I0912 20:44:46.962234 27276 net.cpp:163] Top shape: 1 10 (10)
I0912 20:44:46.962239 27276 layer_factory.hpp:76] Creating layer cont_48_lstm1_cont_slice_47_split
I0912 20:44:46.962244 27276 net.cpp:110] Creating Layer cont_48_lstm1_cont_slice_47_split
I0912 20:44:46.962254 27276 net.cpp:477] cont_48_lstm1_cont_slice_47_split <- cont_48
I0912 20:44:46.962265 27276 net.cpp:433] cont_48_lstm1_cont_slice_47_split -> cont_48_lstm1_cont_slice_47_split_0
I0912 20:44:46.962280 27276 net.cpp:433] cont_48_lstm1_cont_slice_47_split -> cont_48_lstm1_cont_slice_47_split_1
I0912 20:44:46.962297 27276 net.cpp:155] Setting up cont_48_lstm1_cont_slice_47_split
I0912 20:44:46.962309 27276 net.cpp:163] Top shape: 1 10 (10)
I0912 20:44:46.962321 27276 net.cpp:163] Top shape: 1 10 (10)
I0912 20:44:46.962332 27276 layer_factory.hpp:76] Creating layer cont_49_lstm1_cont_slice_48_split
I0912 20:44:46.962359 27276 net.cpp:110] Creating Layer cont_49_lstm1_cont_slice_48_split
I0912 20:44:46.962369 27276 net.cpp:477] cont_49_lstm1_cont_slice_48_split <- cont_49
I0912 20:44:46.962383 27276 net.cpp:433] cont_49_lstm1_cont_slice_48_split -> cont_49_lstm1_cont_slice_48_split_0
I0912 20:44:46.962398 27276 net.cpp:433] cont_49_lstm1_cont_slice_48_split -> cont_49_lstm1_cont_slice_48_split_1
I0912 20:44:46.962415 27276 net.cpp:155] Setting up cont_49_lstm1_cont_slice_48_split
I0912 20:44:46.962430 27276 net.cpp:163] Top shape: 1 10 (10)
I0912 20:44:46.962441 27276 net.cpp:163] Top shape: 1 10 (10)
I0912 20:44:46.962452 27276 layer_factory.hpp:76] Creating layer cont_50_lstm1_cont_slice_49_split
I0912 20:44:46.962465 27276 net.cpp:110] Creating Layer cont_50_lstm1_cont_slice_49_split
I0912 20:44:46.962476 27276 net.cpp:477] cont_50_lstm1_cont_slice_49_split <- cont_50
I0912 20:44:46.962489 27276 net.cpp:433] cont_50_lstm1_cont_slice_49_split -> cont_50_lstm1_cont_slice_49_split_0
I0912 20:44:46.962499 27276 net.cpp:433] cont_50_lstm1_cont_slice_49_split -> cont_50_lstm1_cont_slice_49_split_1
I0912 20:44:46.962510 27276 net.cpp:155] Setting up cont_50_lstm1_cont_slice_49_split
I0912 20:44:46.962518 27276 net.cpp:163] Top shape: 1 10 (10)
I0912 20:44:46.962525 27276 net.cpp:163] Top shape: 1 10 (10)
I0912 20:44:46.962532 27276 layer_factory.hpp:76] Creating layer cont_51_lstm1_cont_slice_50_split
I0912 20:44:46.962538 27276 net.cpp:110] Creating Layer cont_51_lstm1_cont_slice_50_split
I0912 20:44:46.962554 27276 net.cpp:477] cont_51_lstm1_cont_slice_50_split <- cont_51
I0912 20:44:46.962563 27276 net.cpp:433] cont_51_lstm1_cont_slice_50_split -> cont_51_lstm1_cont_slice_50_split_0
I0912 20:44:46.962579 27276 net.cpp:433] cont_51_lstm1_cont_slice_50_split -> cont_51_lstm1_cont_slice_50_split_1
I0912 20:44:46.962591 27276 net.cpp:155] Setting up cont_51_lstm1_cont_slice_50_split
I0912 20:44:46.962599 27276 net.cpp:163] Top shape: 1 10 (10)
I0912 20:44:46.962605 27276 net.cpp:163] Top shape: 1 10 (10)
I0912 20:44:46.962610 27276 layer_factory.hpp:76] Creating layer cont_52_lstm1_cont_slice_51_split
I0912 20:44:46.962617 27276 net.cpp:110] Creating Layer cont_52_lstm1_cont_slice_51_split
I0912 20:44:46.962623 27276 net.cpp:477] cont_52_lstm1_cont_slice_51_split <- cont_52
I0912 20:44:46.962630 27276 net.cpp:433] cont_52_lstm1_cont_slice_51_split -> cont_52_lstm1_cont_slice_51_split_0
I0912 20:44:46.962638 27276 net.cpp:433] cont_52_lstm1_cont_slice_51_split -> cont_52_lstm1_cont_slice_51_split_1
I0912 20:44:46.962647 27276 net.cpp:155] Setting up cont_52_lstm1_cont_slice_51_split
I0912 20:44:46.962653 27276 net.cpp:163] Top shape: 1 10 (10)
I0912 20:44:46.962661 27276 net.cpp:163] Top shape: 1 10 (10)
I0912 20:44:46.962664 27276 layer_factory.hpp:76] Creating layer cont_53_lstm1_cont_slice_52_split
I0912 20:44:46.962673 27276 net.cpp:110] Creating Layer cont_53_lstm1_cont_slice_52_split
I0912 20:44:46.962679 27276 net.cpp:477] cont_53_lstm1_cont_slice_52_split <- cont_53
I0912 20:44:46.962685 27276 net.cpp:433] cont_53_lstm1_cont_slice_52_split -> cont_53_lstm1_cont_slice_52_split_0
I0912 20:44:46.962694 27276 net.cpp:433] cont_53_lstm1_cont_slice_52_split -> cont_53_lstm1_cont_slice_52_split_1
I0912 20:44:46.962703 27276 net.cpp:155] Setting up cont_53_lstm1_cont_slice_52_split
I0912 20:44:46.962709 27276 net.cpp:163] Top shape: 1 10 (10)
I0912 20:44:46.962716 27276 net.cpp:163] Top shape: 1 10 (10)
I0912 20:44:46.962721 27276 layer_factory.hpp:76] Creating layer cont_54_lstm1_cont_slice_53_split
I0912 20:44:46.962728 27276 net.cpp:110] Creating Layer cont_54_lstm1_cont_slice_53_split
I0912 20:44:46.962733 27276 net.cpp:477] cont_54_lstm1_cont_slice_53_split <- cont_54
I0912 20:44:46.962741 27276 net.cpp:433] cont_54_lstm1_cont_slice_53_split -> cont_54_lstm1_cont_slice_53_split_0
I0912 20:44:46.962749 27276 net.cpp:433] cont_54_lstm1_cont_slice_53_split -> cont_54_lstm1_cont_slice_53_split_1
I0912 20:44:46.962759 27276 net.cpp:155] Setting up cont_54_lstm1_cont_slice_53_split
I0912 20:44:46.962765 27276 net.cpp:163] Top shape: 1 10 (10)
I0912 20:44:46.962772 27276 net.cpp:163] Top shape: 1 10 (10)
I0912 20:44:46.962776 27276 layer_factory.hpp:76] Creating layer cont_55_lstm1_cont_slice_54_split
I0912 20:44:46.962785 27276 net.cpp:110] Creating Layer cont_55_lstm1_cont_slice_54_split
I0912 20:44:46.962791 27276 net.cpp:477] cont_55_lstm1_cont_slice_54_split <- cont_55
I0912 20:44:46.962797 27276 net.cpp:433] cont_55_lstm1_cont_slice_54_split -> cont_55_lstm1_cont_slice_54_split_0
I0912 20:44:46.962805 27276 net.cpp:433] cont_55_lstm1_cont_slice_54_split -> cont_55_lstm1_cont_slice_54_split_1
I0912 20:44:46.962815 27276 net.cpp:155] Setting up cont_55_lstm1_cont_slice_54_split
I0912 20:44:46.962821 27276 net.cpp:163] Top shape: 1 10 (10)
I0912 20:44:46.962827 27276 net.cpp:163] Top shape: 1 10 (10)
I0912 20:44:46.962832 27276 layer_factory.hpp:76] Creating layer cont_56_lstm1_cont_slice_55_split
I0912 20:44:46.962838 27276 net.cpp:110] Creating Layer cont_56_lstm1_cont_slice_55_split
I0912 20:44:46.962844 27276 net.cpp:477] cont_56_lstm1_cont_slice_55_split <- cont_56
I0912 20:44:46.962853 27276 net.cpp:433] cont_56_lstm1_cont_slice_55_split -> cont_56_lstm1_cont_slice_55_split_0
I0912 20:44:46.962862 27276 net.cpp:433] cont_56_lstm1_cont_slice_55_split -> cont_56_lstm1_cont_slice_55_split_1
I0912 20:44:46.962870 27276 net.cpp:155] Setting up cont_56_lstm1_cont_slice_55_split
I0912 20:44:46.962877 27276 net.cpp:163] Top shape: 1 10 (10)
I0912 20:44:46.962883 27276 net.cpp:163] Top shape: 1 10 (10)
I0912 20:44:46.962893 27276 layer_factory.hpp:76] Creating layer cont_57_lstm1_cont_slice_56_split
I0912 20:44:46.962903 27276 net.cpp:110] Creating Layer cont_57_lstm1_cont_slice_56_split
I0912 20:44:46.962908 27276 net.cpp:477] cont_57_lstm1_cont_slice_56_split <- cont_57
I0912 20:44:46.962915 27276 net.cpp:433] cont_57_lstm1_cont_slice_56_split -> cont_57_lstm1_cont_slice_56_split_0
I0912 20:44:46.962925 27276 net.cpp:433] cont_57_lstm1_cont_slice_56_split -> cont_57_lstm1_cont_slice_56_split_1
I0912 20:44:46.962934 27276 net.cpp:155] Setting up cont_57_lstm1_cont_slice_56_split
I0912 20:44:46.962940 27276 net.cpp:163] Top shape: 1 10 (10)
I0912 20:44:46.962947 27276 net.cpp:163] Top shape: 1 10 (10)
I0912 20:44:46.962951 27276 layer_factory.hpp:76] Creating layer cont_58_lstm1_cont_slice_57_split
I0912 20:44:46.962959 27276 net.cpp:110] Creating Layer cont_58_lstm1_cont_slice_57_split
I0912 20:44:46.962965 27276 net.cpp:477] cont_58_lstm1_cont_slice_57_split <- cont_58
I0912 20:44:46.962970 27276 net.cpp:433] cont_58_lstm1_cont_slice_57_split -> cont_58_lstm1_cont_slice_57_split_0
I0912 20:44:46.962978 27276 net.cpp:433] cont_58_lstm1_cont_slice_57_split -> cont_58_lstm1_cont_slice_57_split_1
I0912 20:44:46.962987 27276 net.cpp:155] Setting up cont_58_lstm1_cont_slice_57_split
I0912 20:44:46.962995 27276 net.cpp:163] Top shape: 1 10 (10)
I0912 20:44:46.963001 27276 net.cpp:163] Top shape: 1 10 (10)
I0912 20:44:46.963006 27276 layer_factory.hpp:76] Creating layer cont_59_lstm1_cont_slice_58_split
I0912 20:44:46.963013 27276 net.cpp:110] Creating Layer cont_59_lstm1_cont_slice_58_split
I0912 20:44:46.963019 27276 net.cpp:477] cont_59_lstm1_cont_slice_58_split <- cont_59
I0912 20:44:46.963027 27276 net.cpp:433] cont_59_lstm1_cont_slice_58_split -> cont_59_lstm1_cont_slice_58_split_0
I0912 20:44:46.963037 27276 net.cpp:433] cont_59_lstm1_cont_slice_58_split -> cont_59_lstm1_cont_slice_58_split_1
I0912 20:44:46.963044 27276 net.cpp:155] Setting up cont_59_lstm1_cont_slice_58_split
I0912 20:44:46.963052 27276 net.cpp:163] Top shape: 1 10 (10)
I0912 20:44:46.963058 27276 net.cpp:163] Top shape: 1 10 (10)
I0912 20:44:46.963063 27276 layer_factory.hpp:76] Creating layer cont_60_lstm1_cont_slice_59_split
I0912 20:44:46.963071 27276 net.cpp:110] Creating Layer cont_60_lstm1_cont_slice_59_split
I0912 20:44:46.963078 27276 net.cpp:477] cont_60_lstm1_cont_slice_59_split <- cont_60
I0912 20:44:46.963085 27276 net.cpp:433] cont_60_lstm1_cont_slice_59_split -> cont_60_lstm1_cont_slice_59_split_0
I0912 20:44:46.963094 27276 net.cpp:433] cont_60_lstm1_cont_slice_59_split -> cont_60_lstm1_cont_slice_59_split_1
I0912 20:44:46.963102 27276 net.cpp:155] Setting up cont_60_lstm1_cont_slice_59_split
I0912 20:44:46.963109 27276 net.cpp:163] Top shape: 1 10 (10)
I0912 20:44:46.963115 27276 net.cpp:163] Top shape: 1 10 (10)
I0912 20:44:46.963120 27276 layer_factory.hpp:76] Creating layer lstm1_x_transform
I0912 20:44:46.963135 27276 net.cpp:110] Creating Layer lstm1_x_transform
I0912 20:44:46.963141 27276 net.cpp:477] lstm1_x_transform <- x
I0912 20:44:46.963151 27276 net.cpp:433] lstm1_x_transform -> W_xc_x
I0912 20:44:46.963748 27276 net.cpp:155] Setting up lstm1_x_transform
I0912 20:44:46.963762 27276 net.cpp:163] Top shape: 60 10 4000 (2400000)
I0912 20:44:46.963779 27276 layer_factory.hpp:76] Creating layer lstm1_W_xc_x_slice
I0912 20:44:46.963795 27276 net.cpp:110] Creating Layer lstm1_W_xc_x_slice
I0912 20:44:46.963801 27276 net.cpp:477] lstm1_W_xc_x_slice <- W_xc_x
I0912 20:44:46.963812 27276 net.cpp:433] lstm1_W_xc_x_slice -> W_xc_x_1
I0912 20:44:46.963826 27276 net.cpp:433] lstm1_W_xc_x_slice -> W_xc_x_2
I0912 20:44:46.963840 27276 net.cpp:433] lstm1_W_xc_x_slice -> W_xc_x_3
…
I0912 20:44:46.964478 27276 net.cpp:433] lstm1_W_xc_x_slice -> W_xc_x_54
I0912 20:44:46.964490 27276 net.cpp:433] lstm1_W_xc_x_slice -> W_xc_x_55
I0912 20:44:46.964503 27276 net.cpp:433] lstm1_W_xc_x_slice -> W_xc_x_56
I0912 20:44:46.964515 27276 net.cpp:433] lstm1_W_xc_x_slice -> W_xc_x_57
I0912 20:44:46.964529 27276 net.cpp:433] lstm1_W_xc_x_slice -> W_xc_x_58
I0912 20:44:46.964540 27276 net.cpp:433] lstm1_W_xc_x_slice -> W_xc_x_59
I0912 20:44:46.964553 27276 net.cpp:433] lstm1_W_xc_x_slice -> W_xc_x_60
I0912 20:44:46.964577 27276 net.cpp:155] Setting up lstm1_W_xc_x_slice
I0912 20:44:46.964586 27276 net.cpp:163] Top shape: 1 10 4000 (40000)
I0912 20:44:46.964591 27276 net.cpp:163] Top shape: 1 10 4000 (40000)
I0912 20:44:46.964597 27276 net.cpp:163] Top shape: 1 10 4000 (40000)
I0912 20:44:46.964607 27276 net.cpp:163] Top shape: 1 10 4000 (40000)
I0912 20:44:46.964613 27276 net.cpp:163] Top shape: 1 10 4000 (40000)
I0912 20:44:46.964619 27276 net.cpp:163] Top shape: 1 10 4000 (40000)
I0912 20:44:46.964625 27276 net.cpp:163] Top shape: 1 10 4000 (40000)
I0912 20:44:46.964632 27276 net.cpp:163] Top shape: 1 10 4000 (40000)
I0912 20:44:46.964637 27276 net.cpp:163] Top shape: 1 10 4000 (40000)
I0912 20:44:46.964643 27276 net.cpp:163] Top shape: 1 10 4000 (40000)
I0912 20:44:46.964649 27276 net.cpp:163] Top shape: 1 10 4000 (40000)
I0912 20:44:46.964655 27276 net.cpp:163] Top shape: 1 10 4000 (40000)
I0912 20:44:46.964661 27276 net.cpp:163] Top shape: 1 10 4000 (40000)
I0912 20:44:46.964668 27276 net.cpp:163] Top shape: 1 10 4000 (40000)
I0912 20:44:46.964673 27276 net.cpp:163] Top shape: 1 10 4000 (40000)
I0912 20:44:46.964679 27276 net.cpp:163] Top shape: 1 10 4000 (40000)
I0912 20:44:46.964685 27276 net.cpp:163] Top shape: 1 10 4000 (40000)
I0912 20:44:46.964691 27276 net.cpp:163] Top shape: 1 10 4000 (40000)
I0912 20:44:46.964697 27276 net.cpp:163] Top shape: 1 10 4000 (40000)
I0912 20:44:46.964704 27276 net.cpp:163] Top shape: 1 10 4000 (40000)
I0912 20:44:46.964709 27276 net.cpp:163] Top shape: 1 10 4000 (40000)
I0912 20:44:46.964715 27276 net.cpp:163] Top shape: 1 10 4000 (40000)
I0912 20:44:46.964721 27276 net.cpp:163] Top shape: 1 10 4000 (40000)
I0912 20:44:46.964727 27276 net.cpp:163] Top shape: 1 10 4000 (40000)
I0912 20:44:46.964733 27276 net.cpp:163] Top shape: 1 10 4000 (40000)
I0912 20:44:46.964740 27276 net.cpp:163] Top shape: 1 10 4000 (40000)
I0912 20:44:46.964745 27276 net.cpp:163] Top shape: 1 10 4000 (40000)
I0912 20:44:46.964751 27276 net.cpp:163] Top shape: 1 10 4000 (40000)
I0912 20:44:46.964757 27276 net.cpp:163] Top shape: 1 10 4000 (40000)
I0912 20:44:46.964763 27276 net.cpp:163] Top shape: 1 10 4000 (40000)
I0912 20:44:46.964769 27276 net.cpp:163] Top shape: 1 10 4000 (40000)
I0912 20:44:46.964776 27276 net.cpp:163] Top shape: 1 10 4000 (40000)
I0912 20:44:46.964781 27276 net.cpp:163] Top shape: 1 10 4000 (40000)
I0912 20:44:46.964787 27276 net.cpp:163] Top shape: 1 10 4000 (40000)
I0912 20:44:46.964793 27276 net.cpp:163] Top shape: 1 10 4000 (40000)
I0912 20:44:46.964798 27276 net.cpp:163] Top shape: 1 10 4000 (40000)
I0912 20:44:46.964805 27276 net.cpp:163] Top shape: 1 10 4000 (40000)
I0912 20:44:46.964810 27276 net.cpp:163] Top shape: 1 10 4000 (40000)
I0912 20:44:46.964815 27276 net.cpp:163] Top shape: 1 10 4000 (40000)
I0912 20:44:46.964823 27276 net.cpp:163] Top shape: 1 10 4000 (40000)
I0912 20:44:46.964828 27276 net.cpp:163] Top shape: 1 10 4000 (40000)
I0912 20:44:46.964833 27276 net.cpp:163] Top shape: 1 10 4000 (40000)
I0912 20:44:46.964836 27276 net.cpp:163] Top shape: 1 10 4000 (40000)
I0912 20:44:46.964841 27276 net.cpp:163] Top shape: 1 10 4000 (40000)
I0912 20:44:46.964846 27276 net.cpp:163] Top shape: 1 10 4000 (40000)
I0912 20:44:46.964850 27276 net.cpp:163] Top shape: 1 10 4000 (40000)
I0912 20:44:46.964855 27276 net.cpp:163] Top shape: 1 10 4000 (40000)
I0912 20:44:46.964860 27276 net.cpp:163] Top shape: 1 10 4000 (40000)
I0912 20:44:46.964865 27276 net.cpp:163] Top shape: 1 10 4000 (40000)
I0912 20:44:46.964871 27276 net.cpp:163] Top shape: 1 10 4000 (40000)
I0912 20:44:46.964876 27276 net.cpp:163] Top shape: 1 10 4000 (40000)
I0912 20:44:46.964882 27276 net.cpp:163] Top shape: 1 10 4000 (40000)
I0912 20:44:46.964889 27276 net.cpp:163] Top shape: 1 10 4000 (40000)
I0912 20:44:46.964893 27276 net.cpp:163] Top shape: 1 10 4000 (40000)
I0912 20:44:46.964898 27276 net.cpp:163] Top shape: 1 10 4000 (40000)
I0912 20:44:46.964905 27276 net.cpp:163] Top shape: 1 10 4000 (40000)
I0912 20:44:46.964910 27276 net.cpp:163] Top shape: 1 10 4000 (40000)
I0912 20:44:46.964915 27276 net.cpp:163] Top shape: 1 10 4000 (40000)
I0912 20:44:46.964920 27276 net.cpp:163] Top shape: 1 10 4000 (40000)
I0912 20:44:46.964926 27276 net.cpp:163] Top shape: 1 10 4000 (40000)
I0912 20:44:46.964929 27276 layer_factory.hpp:76] Creating layer lstm1_h_conted_0
I0912 20:44:46.964942 27276 net.cpp:110] Creating Layer lstm1_h_conted_0
I0912 20:44:46.964947 27276 net.cpp:477] lstm1_h_conted_0 <- h_0
I0912 20:44:46.964954 27276 net.cpp:477] lstm1_h_conted_0 <- cont_1_lstm1_cont_slice_0_split_0
I0912 20:44:46.964963 27276 net.cpp:433] lstm1_h_conted_0 -> h_conted_0
I0912 20:44:46.964993 27276 net.cpp:155] Setting up lstm1_h_conted_0
I0912 20:44:46.965001 27276 net.cpp:163] Top shape: 1 10 1000 (10000)
I0912 20:44:46.965008 27276 layer_factory.hpp:76] Creating layer lstm1_transform_1
I0912 20:44:46.965019 27276 net.cpp:110] Creating Layer lstm1_transform_1
I0912 20:44:46.965025 27276 net.cpp:477] lstm1_transform_1 <- h_conted_0
I0912 20:44:46.965034 27276 net.cpp:433] lstm1_transform_1 -> W_hc_h_0
I0912 20:44:46.989970 27276 net.cpp:155] Setting up lstm1_transform_1
I0912 20:44:46.990006 27276 net.cpp:163] Top shape: 1 10 4000 (40000)
I0912 20:44:46.990023 27276 layer_factory.hpp:76] Creating layer lstm1_gate_input_1
I0912 20:44:46.990046 27276 net.cpp:110] Creating Layer lstm1_gate_input_1
I0912 20:44:46.990053 27276 net.cpp:477] lstm1_gate_input_1 <- W_hc_h_0
I0912 20:44:46.990061 27276 net.cpp:477] lstm1_gate_input_1 <- W_xc_x_1
I0912 20:44:46.990072 27276 net.cpp:433] lstm1_gate_input_1 -> gate_input_1
I0912 20:44:46.990089 27276 net.cpp:155] Setting up lstm1_gate_input_1
I0912 20:44:46.990097 27276 net.cpp:163] Top shape: 1 10 4000 (40000)
I0912 20:44:46.990103 27276 layer_factory.hpp:76] Creating layer lstm1_unit_1
I0912 20:44:46.990110 27276 net.cpp:110] Creating Layer lstm1_unit_1
I0912 20:44:46.990116 27276 net.cpp:477] lstm1_unit_1 <- c_0
I0912 20:44:46.990123 27276 net.cpp:477] lstm1_unit_1 <- gate_input_1
I0912 20:44:46.990129 27276 net.cpp:477] lstm1_unit_1 <- cont_1_lstm1_cont_slice_0_split_1
I0912 20:44:46.990135 27276 net.cpp:433] lstm1_unit_1 -> c_1
I0912 20:44:46.990144 27276 net.cpp:433] lstm1_unit_1 -> h_1
I0912 20:44:46.990154 27276 net.cpp:155] Setting up lstm1_unit_1
I0912 20:44:46.990161 27276 net.cpp:163] Top shape: 1 10 1000 (10000)
I0912 20:44:46.990169 27276 net.cpp:163] Top shape: 1 10 1000 (10000)
I0912 20:44:46.990175 27276 layer_factory.hpp:76] Creating layer h_1_lstm1_unit_1_1_split
I0912 20:44:46.990183 27276 net.cpp:110] Creating Layer h_1_lstm1_unit_1_1_split
I0912 20:44:46.990188 27276 net.cpp:477] h_1_lstm1_unit_1_1_split <- h_1
I0912 20:44:46.990195 27276 net.cpp:433] h_1_lstm1_unit_1_1_split -> h_1_lstm1_unit_1_1_split_0
I0912 20:44:46.990201 27276 net.cpp:433] h_1_lstm1_unit_1_1_split -> h_1_lstm1_unit_1_1_split_1
I0912 20:44:46.990209 27276 net.cpp:155] Setting up h_1_lstm1_unit_1_1_split
I0912 20:44:46.990214 27276 net.cpp:163] Top shape: 1 10 1000 (10000)
I0912 20:44:46.990219 27276 net.cpp:163] Top shape: 1 10 1000 (10000)
I0912 20:44:46.990226 27276 layer_factory.hpp:76] Creating layer lstm1_h_conted_1
I0912 20:44:46.990233 27276 net.cpp:110] Creating Layer lstm1_h_conted_1
I0912 20:44:46.990238 27276 net.cpp:477] lstm1_h_conted_1 <- h_1_lstm1_unit_1_1_split_0
I0912 20:44:46.990247 27276 net.cpp:477] lstm1_h_conted_1 <- cont_2_lstm1_cont_slice_1_split_0
I0912 20:44:46.990254 27276 net.cpp:433] lstm1_h_conted_1 -> h_conted_1
I0912 20:44:46.990310 27276 net.cpp:155] Setting up lstm1_h_conted_1
I0912 20:44:46.990319 27276 net.cpp:163] Top shape: 1 10 1000 (10000)
I0912 20:44:46.990324 27276 layer_factory.hpp:76] Creating layer lstm1_transform_2
I0912 20:44:46.990334 27276 net.cpp:110] Creating Layer lstm1_transform_2
I0912 20:44:46.990339 27276 net.cpp:477] lstm1_transform_2 <- h_conted_1
I0912 20:44:46.990348 27276 net.cpp:433] lstm1_transform_2 -> W_hc_h_1
I0912 20:44:47.019824 27276 net.cpp:155] Setting up lstm1_transform_2
I0912 20:44:47.019860 27276 net.cpp:163] Top shape: 1 10 4000 (40000)
I0912 20:44:47.019868 27276 net.cpp:537] Sharing parameters 'W_hc' owned by layer 'lstm1_transform_1', param index 0
I0912 20:44:47.019876 27276 layer_factory.hpp:76] Creating layer lstm1_gate_input_2
I0912 20:44:47.019888 27276 net.cpp:110] Creating Layer lstm1_gate_input_2
I0912 20:44:47.019897 27276 net.cpp:477] lstm1_gate_input_2 <- W_hc_h_1
I0912 20:44:47.019924 27276 net.cpp:477] lstm1_gate_input_2 <- W_xc_x_2
I0912 20:44:47.019939 27276 net.cpp:433] lstm1_gate_input_2 -> gate_input_2
I0912 20:44:47.019963 27276 net.cpp:155] Setting up lstm1_gate_input_2
I0912 20:44:47.019974 27276 net.cpp:163] Top shape: 1 10 4000 (40000)
I0912 20:44:47.019985 27276 layer_factory.hpp:76] Creating layer lstm1_unit_2
I0912 20:44:47.019996 27276 net.cpp:110] Creating Layer lstm1_unit_2
I0912 20:44:47.020004 27276 net.cpp:477] lstm1_unit_2 <- c_1
I0912 20:44:47.020009 27276 net.cpp:477] lstm1_unit_2 <- gate_input_2
I0912 20:44:47.020016 27276 net.cpp:477] lstm1_unit_2 <- cont_2_lstm1_cont_slice_1_split_1
I0912 20:44:47.020025 27276 net.cpp:433] lstm1_unit_2 -> c_2
I0912 20:44:47.020035 27276 net.cpp:433] lstm1_unit_2 -> h_2
I0912 20:44:47.020066 27276 net.cpp:155] Setting up lstm1_unit_2
I0912 20:44:47.020074 27276 net.cpp:163] Top shape: 1 10 1000 (10000)
I0912 20:44:47.020079 27276 net.cpp:163] Top shape: 1 10 1000 (10000)
I0912 20:44:47.020084 27276 layer_factory.hpp:76] Creating layer h_2_lstm1_unit_2_1_split
I0912 20:44:47.020092 27276 net.cpp:110] Creating Layer h_2_lstm1_unit_2_1_split
I0912 20:44:47.020097 27276 net.cpp:477] h_2_lstm1_unit_2_1_split <- h_2
I0912 20:44:47.020103 27276 net.cpp:433] h_2_lstm1_unit_2_1_split -> h_2_lstm1_unit_2_1_split_0
I0912 20:44:47.020110 27276 net.cpp:433] h_2_lstm1_unit_2_1_split -> h_2_lstm1_unit_2_1_split_1
I0912 20:44:47.020119 27276 net.cpp:155] Setting up h_2_lstm1_unit_2_1_split
I0912 20:44:47.020125 27276 net.cpp:163] Top shape: 1 10 1000 (10000)
I0912 20:44:47.020129 27276 net.cpp:163] Top shape: 1 10 1000 (10000)
I0912 20:44:47.020138 27276 layer_factory.hpp:76] Creating layer lstm1_h_conted_2
I0912 20:44:47.020150 27276 net.cpp:110] Creating Layer lstm1_h_conted_2
I0912 20:44:47.020161 27276 net.cpp:477] lstm1_h_conted_2 <- h_2_lstm1_unit_2_1_split_0
I0912 20:44:47.020174 27276 net.cpp:477] lstm1_h_conted_2 <- cont_3_lstm1_cont_slice_2_split_0
I0912 20:44:47.020186 27276 net.cpp:433] lstm1_h_conted_2 -> h_conted_2
I0912 20:44:47.020256 27276 net.cpp:155] Setting up lstm1_h_conted_2
I0912 20:44:47.020267 27276 net.cpp:163] Top shape: 1 10 1000 (10000)
I0912 20:44:47.020277 27276 layer_factory.hpp:76] Creating layer lstm1_transform_3
I0912 20:44:47.020288 27276 net.cpp:110] Creating Layer lstm1_transform_3
I0912 20:44:47.020292 27276 net.cpp:477] lstm1_transform_3 <- h_conted_2
I0912 20:44:47.020299 27276 net.cpp:433] lstm1_transform_3 -> W_hc_h_2
I0912 20:44:47.044332 27276 net.cpp:155] Setting up lstm1_transform_3
I0912 20:44:47.044375 27276 net.cpp:163] Top shape: 1 10 4000 (40000)
I0912 20:44:47.044391 27276 net.cpp:537] Sharing parameters 'W_hc' owned by layer 'lstm1_transform_1', param index 0
I0912 20:44:47.044401 27276 layer_factory.hpp:76] Creating layer lstm1_gate_input_3
I0912 20:44:47.044435 27276 net.cpp:110] Creating Layer lstm1_gate_input_3
I0912 20:44:47.044450 27276 net.cpp:477] lstm1_gate_input_3 <- W_hc_h_2
I0912 20:44:47.044474 27276 net.cpp:477] lstm1_gate_input_3 <- W_xc_x_3
I0912 20:44:47.044497 27276 net.cpp:433] lstm1_gate_input_3 -> gate_input_3
I0912 20:44:47.044518 27276 net.cpp:155] Setting up lstm1_gate_input_3
I0912 20:44:47.044530 27276 net.cpp:163] Top shape: 1 10 4000 (40000)
I0912 20:44:47.044540 27276 layer_factory.hpp:76] Creating layer lstm1_unit_3
I0912 20:44:47.044554 27276 net.cpp:110] Creating Layer lstm1_unit_3
I0912 20:44:47.044567 27276 net.cpp:477] lstm1_unit_3 <- c_2
I0912 20:44:47.044579 27276 net.cpp:477] lstm1_unit_3 <- gate_input_3
I0912 20:44:47.044594 27276 net.cpp:477] lstm1_unit_3 <- cont_3_lstm1_cont_slice_2_split_1
I0912 20:44:47.044606 27276 net.cpp:433] lstm1_unit_3 -> c_3
I0912 20:44:47.044622 27276 net.cpp:433] lstm1_unit_3 -> h_3
I0912 20:44:47.044638 27276 net.cpp:155] Setting up lstm1_unit_3
I0912 20:44:47.044649 27276 net.cpp:163] Top shape: 1 10 1000 (10000)
I0912 20:44:47.044661 27276 net.cpp:163] Top shape: 1 10 1000 (10000)
I0912 20:44:47.044672 27276 layer_factory.hpp:76] Creating layer h_3_lstm1_unit_3_1_split
I0912 20:44:47.044685 27276 net.cpp:110] Creating Layer h_3_lstm1_unit_3_1_split
I0912 20:44:47.044709 27276 net.cpp:477] h_3_lstm1_unit_3_1_split <- h_3
I0912 20:44:47.044726 27276 net.cpp:433] h_3_lstm1_unit_3_1_split -> h_3_lstm1_unit_3_1_split_0
I0912 20:44:47.044740 27276 net.cpp:433] h_3_lstm1_unit_3_1_split -> h_3_lstm1_unit_3_1_split_1
I0912 20:44:47.044756 27276 net.cpp:155] Setting up h_3_lstm1_unit_3_1_split
I0912 20:44:47.044769 27276 net.cpp:163] Top shape: 1 10 1000 (10000)
I0912 20:44:47.044780 27276 net.cpp:163] Top shape: 1 10 1000 (10000)
I0912 20:44:47.044790 27276 layer_factory.hpp:76] Creating layer lstm1_h_conted_3
I0912 20:44:47.044805 27276 net.cpp:110] Creating Layer lstm1_h_conted_3
I0912 20:44:47.044813 27276 net.cpp:477] lstm1_h_conted_3 <- h_3_lstm1_unit_3_1_split_0
I0912 20:44:47.044826 27276 net.cpp:477] lstm1_h_conted_3 <- cont_4_lstm1_cont_slice_3_split_0
I0912 20:44:47.044842 27276 net.cpp:433] lstm1_h_conted_3 -> h_conted_3
I0912 20:44:47.044905 27276 net.cpp:155] Setting up lstm1_h_conted_3
I0912 20:44:47.044917 27276 net.cpp:163] Top shape: 1 10 1000 (10000)
I0912 20:44:47.044929 27276 layer_factory.hpp:76] Creating layer lstm1_transform_4
I0912 20:44:47.044944 27276 net.cpp:110] Creating Layer lstm1_transform_4
I0912 20:44:47.044952 27276 net.cpp:477] lstm1_transform_4 <- h_conted_3
I0912 20:44:47.044966 27276 net.cpp:433] lstm1_transform_4 -> W_hc_h_3
I0912 20:44:47.068706 27276 net.cpp:155] Setting up lstm1_transform_4
I0912 20:44:47.068745 27276 net.cpp:163] Top shape: 1 10 4000 (40000)
I0912 20:44:47.068758 27276 net.cpp:537] Sharing parameters 'W_hc' owned by layer 'lstm1_transform_1', param index 0
I0912 20:44:47.068768 27276 layer_factory.hpp:76] Creating layer lstm1_gate_input_4
I0912 20:44:47.068786 27276 net.cpp:110] Creating Layer lstm1_gate_input_4
I0912 20:44:47.068794 27276 net.cpp:477] lstm1_gate_input_4 <- W_hc_h_3
I0912 20:44:47.068804 27276 net.cpp:477] lstm1_gate_input_4 <- W_xc_x_4
I0912 20:44:47.068814 27276 net.cpp:433] lstm1_gate_input_4 -> gate_input_4
I0912 20:44:47.068835 27276 net.cpp:155] Setting up lstm1_gate_input_4
I0912 20:44:47.068840 27276 net.cpp:163] Top shape: 1 10 4000 (40000)
I0912 20:44:47.068845 27276 layer_factory.hpp:76] Creating layer lstm1_unit_4
I0912 20:44:47.068853 27276 net.cpp:110] Creating Layer lstm1_unit_4
I0912 20:44:47.068861 27276 net.cpp:477] lstm1_unit_4 <- c_3
I0912 20:44:47.068866 27276 net.cpp:477] lstm1_unit_4 <- gate_input_4
I0912 20:44:47.068876 27276 net.cpp:477] lstm1_unit_4 <- cont_4_lstm1_cont_slice_3_split_1
I0912 20:44:47.068882 27276 net.cpp:433] lstm1_unit_4 -> c_4
I0912 20:44:47.068891 27276 net.cpp:433] lstm1_unit_4 -> h_4
I0912 20:44:47.068899 27276 net.cpp:155] Setting up lstm1_unit_4
I0912 20:44:47.068905 27276 net.cpp:163] Top shape: 1 10 1000 (10000)
I0912 20:44:47.068910 27276 net.cpp:163] Top shape: 1 10 1000 (10000)
I0912 20:44:47.068914 27276 layer_factory.hpp:76] Creating layer h_4_lstm1_unit_4_1_split
I0912 20:44:47.068922 27276 net.cpp:110] Creating Layer h_4_lstm1_unit_4_1_split
I0912 20:44:47.068927 27276 net.cpp:477] h_4_lstm1_unit_4_1_split <- h_4
I0912 20:44:47.068933 27276 net.cpp:433] h_4_lstm1_unit_4_1_split -> h_4_lstm1_unit_4_1_split_0
I0912 20:44:47.068939 27276 net.cpp:433] h_4_lstm1_unit_4_1_split -> h_4_lstm1_unit_4_1_split_1
I0912 20:44:47.068948 27276 net.cpp:155] Setting up h_4_lstm1_unit_4_1_split
I0912 20:44:47.068953 27276 net.cpp:163] Top shape: 1 10 1000 (10000)
I0912 20:44:47.068958 27276 net.cpp:163] Top shape: 1 10 1000 (10000)
I0912 20:44:47.068964 27276 layer_factory.hpp:76] Creating layer lstm1_h_conted_4
I0912 20:44:47.068974 27276 net.cpp:110] Creating Layer lstm1_h_conted_4
I0912 20:44:47.068979 27276 net.cpp:477] lstm1_h_conted_4 <- h_4_lstm1_unit_4_1_split_0
I0912 20:44:47.068985 27276 net.cpp:477] lstm1_h_conted_4 <- cont_5_lstm1_cont_slice_4_split_0
I0912 20:44:47.068992 27276 net.cpp:433] lstm1_h_conted_4 -> h_conted_4
I0912 20:44:47.069046 27276 net.cpp:155] Setting up lstm1_h_conted_4
I0912 20:44:47.069053 27276 net.cpp:163] Top shape: 1 10 1000 (10000)
I0912 20:44:47.069058 27276 layer_factory.hpp:76] Creating layer lstm1_transform_5
I0912 20:44:47.069077 27276 net.cpp:110] Creating Layer lstm1_transform_5
I0912 20:44:47.069082 27276 net.cpp:477] lstm1_transform_5 <- h_conted_4
I0912 20:44:47.069094 27276 net.cpp:433] lstm1_transform_5 -> W_hc_h_4
I0912 20:44:47.092319 27276 net.cpp:155] Setting up lstm1_transform_5
I0912 20:44:47.092358 27276 net.cpp:163] Top shape: 1 10 4000 (40000)
I0912 20:44:47.092371 27276 net.cpp:537] Sharing parameters 'W_hc' owned by layer 'lstm1_transform_1', param index 0
I0912 20:44:47.092382 27276 layer_factory.hpp:76] Creating layer lstm1_gate_input_5
I0912 20:44:47.092424 27276 net.cpp:110] Creating Layer lstm1_gate_input_5
I0912 20:44:47.092438 27276 net.cpp:477] lstm1_gate_input_5 <- W_hc_h_4
I0912 20:44:47.092464 27276 net.cpp:477] lstm1_gate_input_5 <- W_xc_x_5
I0912 20:44:47.092480 27276 net.cpp:433] lstm1_gate_input_5 -> gate_input_5
I0912 20:44:47.092505 27276 net.cpp:155] Setting up lstm1_gate_input_5
I0912 20:44:47.092516 27276 net.cpp:163] Top shape: 1 10 4000 (40000)
I0912 20:44:47.092538 27276 layer_factory.hpp:76] Creating layer lstm1_unit_5
I0912 20:44:47.092551 27276 net.cpp:110] Creating Layer lstm1_unit_5
I0912 20:44:47.092579 27276 net.cpp:477] lstm1_unit_5 <- c_4
I0912 20:44:47.092592 27276 net.cpp:477] lstm1_unit_5 <- gate_input_5
I0912 20:44:47.092607 27276 net.cpp:477] lstm1_unit_5 <- cont_5_lstm1_cont_slice_4_split_1
I0912 20:44:47.092620 27276 net.cpp:433] lstm1_unit_5 -> c_5
I0912 20:44:47.092638 27276 net.cpp:433] lstm1_unit_5 -> h_5
I0912 20:44:47.092653 27276 net.cpp:155] Setting up lstm1_unit_5
I0912 20:44:47.092666 27276 net.cpp:163] Top shape: 1 10 1000 (10000)
I0912 20:44:47.092677 27276 net.cpp:163] Top shape: 1 10 1000 (10000)
I0912 20:44:47.092689 27276 layer_factory.hpp:76] Creating layer h_5_lstm1_unit_5_1_split
I0912 20:44:47.092705 27276 net.cpp:110] Creating Layer h_5_lstm1_unit_5_1_split
I0912 20:44:47.092713 27276 net.cpp:477] h_5_lstm1_unit_5_1_split <- h_5
I0912 20:44:47.092727 27276 net.cpp:433] h_5_lstm1_unit_5_1_split -> h_5_lstm1_unit_5_1_split_0
I0912 20:44:47.092742 27276 net.cpp:433] h_5_lstm1_unit_5_1_split -> h_5_lstm1_unit_5_1_split_1
I0912 20:44:47.092757 27276 net.cpp:155] Setting up h_5_lstm1_unit_5_1_split
I0912 20:44:47.092769 27276 net.cpp:163] Top shape: 1 10 1000 (10000)
I0912 20:44:47.092782 27276 net.cpp:163] Top shape: 1 10 1000 (10000)
I0912 20:44:47.092792 27276 layer_factory.hpp:76] Creating layer lstm1_h_conted_5
I0912 20:44:47.092806 27276 net.cpp:110] Creating Layer lstm1_h_conted_5
I0912 20:44:47.092816 27276 net.cpp:477] lstm1_h_conted_5 <- h_5_lstm1_unit_5_1_split_0
I0912 20:44:47.092829 27276 net.cpp:477] lstm1_h_conted_5 <- cont_6_lstm1_cont_slice_5_split_0
I0912 20:44:47.092844 27276 net.cpp:433] lstm1_h_conted_5 -> h_conted_5
I0912 20:44:47.092912 27276 net.cpp:155] Setting up lstm1_h_conted_5
I0912 20:44:47.092924 27276 net.cpp:163] Top shape: 1 10 1000 (10000)
I0912 20:44:47.092936 27276 layer_factory.hpp:76] Creating layer lstm1_transform_6
I0912 20:44:47.092952 27276 net.cpp:110] Creating Layer lstm1_transform_6
I0912 20:44:47.092960 27276 net.cpp:477] lstm1_transform_6 <- h_conted_5
I0912 20:44:47.092974 27276 net.cpp:433] lstm1_transform_6 -> W_hc_h_5
I0912 20:44:47.116747 27276 net.cpp:155] Setting up lstm1_transform_6
I0912 20:44:47.116782 27276 net.cpp:163] Top shape: 1 10 4000 (40000)
I0912 20:44:47.116796 27276 net.cpp:537] Sharing parameters 'W_hc' owned by layer 'lstm1_transform_1', param index 0
I0912 20:44:47.116806 27276 layer_factory.hpp:76] Creating layer lstm1_gate_input_6
I0912 20:44:47.116823 27276 net.cpp:110] Creating Layer lstm1_gate_input_6
I0912 20:44:47.116833 27276 net.cpp:477] lstm1_gate_input_6 <- W_hc_h_5
I0912 20:44:47.116843 27276 net.cpp:477] lstm1_gate_input_6 <- W_xc_x_6
I0912 20:44:47.116854 27276 net.cpp:433] lstm1_gate_input_6 -> gate_input_6
I0912 20:44:47.116876 27276 net.cpp:155] Setting up lstm1_gate_input_6
I0912 20:44:47.116888 27276 net.cpp:163] Top shape: 1 10 4000 (40000)
I0912 20:44:47.116899 27276 layer_factory.hpp:76] Creating layer lstm1_unit_6
I0912 20:44:47.116907 27276 net.cpp:110] Creating Layer lstm1_unit_6
I0912 20:44:47.116920 27276 net.cpp:477] lstm1_unit_6 <- c_5
I0912 20:44:47.116927 27276 net.cpp:477] lstm1_unit_6 <- gate_input_6
I0912 20:44:47.116933 27276 net.cpp:477] lstm1_unit_6 <- cont_6_lstm1_cont_slice_5_split_1
I0912 20:44:47.116940 27276 net.cpp:433] lstm1_unit_6 -> c_6
I0912 20:44:47.116950 27276 net.cpp:433] lstm1_unit_6 -> h_6
I0912 20:44:47.116963 27276 net.cpp:155] Setting up lstm1_unit_6
I0912 20:44:47.116978 27276 net.cpp:163] Top shape: 1 10 1000 (10000)
I0912 20:44:47.116991 27276 net.cpp:163] Top shape: 1 10 1000 (10000)
I0912 20:44:47.117002 27276 layer_factory.hpp:76] Creating layer h_6_lstm1_unit_6_1_split
I0912 20:44:47.117012 27276 net.cpp:110] Creating Layer h_6_lstm1_unit_6_1_split
I0912 20:44:47.117022 27276 net.cpp:477] h_6_lstm1_unit_6_1_split <- h_6
I0912 20:44:47.117033 27276 net.cpp:433] h_6_lstm1_unit_6_1_split -> h_6_lstm1_unit_6_1_split_0
I0912 20:44:47.117049 27276 net.cpp:433] h_6_lstm1_unit_6_1_split -> h_6_lstm1_unit_6_1_split_1
I0912 20:44:47.117065 27276 net.cpp:155] Setting up h_6_lstm1_unit_6_1_split
I0912 20:44:47.117077 27276 net.cpp:163] Top shape: 1 10 1000 (10000)
I0912 20:44:47.117089 27276 net.cpp:163] Top shape: 1 10 1000 (10000)
I0912 20:44:47.117100 27276 layer_factory.hpp:76] Creating layer lstm1_h_conted_6
I0912 20:44:47.117112 27276 net.cpp:110] Creating Layer lstm1_h_conted_6
I0912 20:44:47.117118 27276 net.cpp:477] lstm1_h_conted_6 <- h_6_lstm1_unit_6_1_split_0
I0912 20:44:47.117125 27276 net.cpp:477] lstm1_h_conted_6 <- cont_7_lstm1_cont_slice_6_split_0
I0912 20:44:47.117131 27276 net.cpp:433] lstm1_h_conted_6 -> h_conted_6
I0912 20:44:47.117187 27276 net.cpp:155] Setting up lstm1_h_conted_6
I0912 20:44:47.117197 27276 net.cpp:163] Top shape: 1 10 1000 (10000)
I0912 20:44:47.117202 27276 layer_factory.hpp:76] Creating layer lstm1_transform_7
I0912 20:44:47.117211 27276 net.cpp:110] Creating Layer lstm1_transform_7
I0912 20:44:47.117216 27276 net.cpp:477] lstm1_transform_7 <- h_conted_6
I0912 20:44:47.117223 27276 net.cpp:433] lstm1_transform_7 -> W_hc_h_6
I0912 20:44:47.140709 27276 net.cpp:155] Setting up lstm1_transform_7
I0912 20:44:47.140744 27276 net.cpp:163] Top shape: 1 10 4000 (40000)
I0912 20:44:47.140761 27276 net.cpp:537] Sharing parameters 'W_hc' owned by layer 'lstm1_transform_1', param index 0
I0912 20:44:47.140771 27276 layer_factory.hpp:76] Creating layer lstm1_gate_input_7
I0912 20:44:47.140784 27276 net.cpp:110] Creating Layer lstm1_gate_input_7
I0912 20:44:47.140794 27276 net.cpp:477] lstm1_gate_input_7 <- W_hc_h_6
I0912 20:44:47.140804 27276 net.cpp:477] lstm1_gate_input_7 <- W_xc_x_7
I0912 20:44:47.140816 27276 net.cpp:433] lstm1_gate_input_7 -> gate_input_7
I0912 20:44:47.140832 27276 net.cpp:155] Setting up lstm1_gate_input_7
I0912 20:44:47.140841 27276 net.cpp:163] Top shape: 1 10 4000 (40000)
I0912 20:44:47.140844 27276 layer_factory.hpp:76] Creating layer lstm1_unit_7
I0912 20:44:47.140852 27276 net.cpp:110] Creating Layer lstm1_unit_7
I0912 20:44:47.140859 27276 net.cpp:477] lstm1_unit_7 <- c_6
I0912 20:44:47.140869 27276 net.cpp:477] lstm1_unit_7 <- gate_input_7
I0912 20:44:47.140875 27276 net.cpp:477] lstm1_unit_7 <- cont_7_lstm1_cont_slice_6_split_1
I0912 20:44:47.140882 27276 net.cpp:433] lstm1_unit_7 -> c_7
I0912 20:44:47.140890 27276 net.cpp:433] lstm1_unit_7 -> h_7
I0912 20:44:47.140900 27276 net.cpp:155] Setting up lstm1_unit_7
I0912 20:44:47.140908 27276 net.cpp:163] Top shape: 1 10 1000 (10000)
I0912 20:44:47.140913 27276 net.cpp:163] Top shape: 1 10 1000 (10000)
I0912 20:44:47.140916 27276 layer_factory.hpp:76] Creating layer h_7_lstm1_unit_7_1_split
I0912 20:44:47.140924 27276 net.cpp:110] Creating Layer h_7_lstm1_unit_7_1_split
I0912 20:44:47.140928 27276 net.cpp:477] h_7_lstm1_unit_7_1_split <- h_7
I0912 20:44:47.140934 27276 net.cpp:433] h_7_lstm1_unit_7_1_split -> h_7_lstm1_unit_7_1_split_0
I0912 20:44:47.140941 27276 net.cpp:433] h_7_lstm1_unit_7_1_split -> h_7_lstm1_unit_7_1_split_1
I0912 20:44:47.140950 27276 net.cpp:155] Setting up h_7_lstm1_unit_7_1_split
I0912 20:44:47.140980 27276 net.cpp:163] Top shape: 1 10 1000 (10000)
I0912 20:44:47.140990 27276 net.cpp:163] Top shape: 1 10 1000 (10000)
I0912 20:44:47.140997 27276 layer_factory.hpp:76] Creating layer lstm1_h_conted_7
I0912 20:44:47.141011 27276 net.cpp:110] Creating Layer lstm1_h_conted_7
I0912 20:44:47.141022 27276 net.cpp:477] lstm1_h_conted_7 <- h_7_lstm1_unit_7_1_split_0
I0912 20:44:47.141033 27276 net.cpp:477] lstm1_h_conted_7 <- cont_8_lstm1_cont_slice_7_split_0
I0912 20:44:47.141048 27276 net.cpp:433] lstm1_h_conted_7 -> h_conted_7
I0912 20:44:47.141114 27276 net.cpp:155] Setting up lstm1_h_conted_7
I0912 20:44:47.141127 27276 net.cpp:163] Top shape: 1 10 1000 (10000)
I0912 20:44:47.141139 27276 layer_factory.hpp:76] Creating layer lstm1_transform_8
I0912 20:44:47.141155 27276 net.cpp:110] Creating Layer lstm1_transform_8
I0912 20:44:47.141166 27276 net.cpp:477] lstm1_transform_8 <- h_conted_7
I0912 20:44:47.141180 27276 net.cpp:433] lstm1_transform_8 -> W_hc_h_7
I0912 20:44:47.165706 27276 net.cpp:155] Setting up lstm1_transform_8
I0912 20:44:47.165748 27276 net.cpp:163] Top shape: 1 10 4000 (40000)
I0912 20:44:47.165763 27276 net.cpp:537] Sharing parameters 'W_hc' owned by layer 'lstm1_transform_1', param index 0
I0912 20:44:47.165776 27276 layer_factory.hpp:76] Creating layer lstm1_gate_input_8
I0912 20:44:47.165824 27276 net.cpp:110] Creating Layer lstm1_gate_input_8
I0912 20:44:47.165840 27276 net.cpp:477] lstm1_gate_input_8 <- W_hc_h_7
I0912 20:44:47.165858 27276 net.cpp:477] lstm1_gate_input_8 <- W_xc_x_8
I0912 20:44:47.165875 27276 net.cpp:433] lstm1_gate_input_8 -> gate_input_8
I0912 20:44:47.165900 27276 net.cpp:155] Setting up lstm1_gate_input_8
I0912 20:44:47.165920 27276 net.cpp:163] Top shape: 1 10 4000 (40000)
I0912 20:44:47.165943 27276 layer_factory.hpp:76] Creating layer lstm1_unit_8
I0912 20:44:47.165957 27276 net.cpp:110] Creating Layer lstm1_unit_8
I0912 20:44:47.165971 27276 net.cpp:477] lstm1_unit_8 <- c_7
I0912 20:44:47.165987 27276 net.cpp:477] lstm1_unit_8 <- gate_input_8
I0912 20:44:47.165998 27276 net.cpp:477] lstm1_unit_8 <- cont_8_lstm1_cont_slice_7_split_1
I0912 20:44:47.166013 27276 net.cpp:433] lstm1_unit_8 -> c_8
I0912 20:44:47.166031 27276 net.cpp:433] lstm1_unit_8 -> h_8
I0912 20:44:47.166049 27276 net.cpp:155] Setting up lstm1_unit_8
I0912 20:44:47.166060 27276 net.cpp:163] Top shape: 1 10 1000 (10000)
I0912 20:44:47.166072 27276 net.cpp:163] Top shape: 1 10 1000 (10000)
I0912 20:44:47.166084 27276 layer_factory.hpp:76] Creating layer h_8_lstm1_unit_8_1_split
I0912 20:44:47.166100 27276 net.cpp:110] Creating Layer h_8_lstm1_unit_8_1_split
I0912 20:44:47.166108 27276 net.cpp:477] h_8_lstm1_unit_8_1_split <- h_8
I0912 20:44:47.166132 27276 net.cpp:433] h_8_lstm1_unit_8_1_split -> h_8_lstm1_unit_8_1_split_0
I0912 20:44:47.166146 27276 net.cpp:433] h_8_lstm1_unit_8_1_split -> h_8_lstm1_unit_8_1_split_1
I0912 20:44:47.166163 27276 net.cpp:155] Setting up h_8_lstm1_unit_8_1_split
I0912 20:44:47.166175 27276 net.cpp:163] Top shape: 1 10 1000 (10000)
I0912 20:44:47.166187 27276 net.cpp:163] Top shape: 1 10 1000 (10000)
I0912 20:44:47.166198 27276 layer_factory.hpp:76] Creating layer lstm1_h_conted_8
I0912 20:44:47.166213 27276 net.cpp:110] Creating Layer lstm1_h_conted_8
I0912 20:44:47.166221 27276 net.cpp:477] lstm1_h_conted_8 <- h_8_lstm1_unit_8_1_split_0
I0912 20:44:47.166242 27276 net.cpp:477] lstm1_h_conted_8 <- cont_9_lstm1_cont_slice_8_split_0
I0912 20:44:47.166256 27276 net.cpp:433] lstm1_h_conted_8 -> h_conted_8
I0912 20:44:47.166327 27276 net.cpp:155] Setting up lstm1_h_conted_8
I0912 20:44:47.166339 27276 net.cpp:163] Top shape: 1 10 1000 (10000)
I0912 20:44:47.166359 27276 layer_factory.hpp:76] Creating layer lstm1_transform_9
I0912 20:44:47.166374 27276 net.cpp:110] Creating Layer lstm1_transform_9
I0912 20:44:47.166385 27276 net.cpp:477] lstm1_transform_9 <- h_conted_8
I0912 20:44:47.166401 27276 net.cpp:433] lstm1_transform_9 -> W_hc_h_8
I0912 20:44:47.189967 27276 net.cpp:155] Setting up lstm1_transform_9
I0912 20:44:47.190006 27276 net.cpp:163] Top shape: 1 10 4000 (40000)
I0912 20:44:47.190032 27276 net.cpp:537] Sharing parameters 'W_hc' owned by layer 'lstm1_transform_1', param index 0
I0912 20:44:47.190043 27276 layer_factory.hpp:76] Creating layer lstm1_gate_input_9
I0912 20:44:47.190062 27276 net.cpp:110] Creating Layer lstm1_gate_input_9
I0912 20:44:47.190073 27276 net.cpp:477] lstm1_gate_input_9 <- W_hc_h_8
I0912 20:44:47.190083 27276 net.cpp:477] lstm1_gate_input_9 <- W_xc_x_9
I0912 20:44:47.190095 27276 net.cpp:433] lstm1_gate_input_9 -> gate_input_9
I0912 20:44:47.190115 27276 net.cpp:155] Setting up lstm1_gate_input_9
I0912 20:44:47.190122 27276 net.cpp:163] Top shape: 1 10 4000 (40000)
I0912 20:44:47.190126 27276 layer_factory.hpp:76] Creating layer lstm1_unit_9
I0912 20:44:47.190134 27276 net.cpp:110] Creating Layer lstm1_unit_9
I0912 20:44:47.190138 27276 net.cpp:477] lstm1_unit_9 <- c_8
I0912 20:44:47.190145 27276 net.cpp:477] lstm1_unit_9 <- gate_input_9
I0912 20:44:47.190153 27276 net.cpp:477] lstm1_unit_9 <- cont_9_lstm1_cont_slice_8_split_1
I0912 20:44:47.190160 27276 net.cpp:433] lstm1_unit_9 -> c_9
I0912 20:44:47.190171 27276 net.cpp:433] lstm1_unit_9 -> h_9
I0912 20:44:47.190179 27276 net.cpp:155] Setting up lstm1_unit_9
I0912 20:44:47.190186 27276 net.cpp:163] Top shape: 1 10 1000 (10000)
I0912 20:44:47.190191 27276 net.cpp:163] Top shape: 1 10 1000 (10000)
I0912 20:44:47.190197 27276 layer_factory.hpp:76] Creating layer h_9_lstm1_unit_9_1_split
I0912 20:44:47.190204 27276 net.cpp:110] Creating Layer h_9_lstm1_unit_9_1_split
I0912 20:44:47.190208 27276 net.cpp:477] h_9_lstm1_unit_9_1_split <- h_9
I0912 20:44:47.190214 27276 net.cpp:433] h_9_lstm1_unit_9_1_split -> h_9_lstm1_unit_9_1_split_0
I0912 20:44:47.190223 27276 net.cpp:433] h_9_lstm1_unit_9_1_split -> h_9_lstm1_unit_9_1_split_1
I0912 20:44:47.190232 27276 net.cpp:155] Setting up h_9_lstm1_unit_9_1_split
I0912 20:44:47.190237 27276 net.cpp:163] Top shape: 1 10 1000 (10000)
I0912 20:44:47.190243 27276 net.cpp:163] Top shape: 1 10 1000 (10000)
I0912 20:44:47.190248 27276 layer_factory.hpp:76] Creating layer lstm1_h_conted_9
I0912 20:44:47.190256 27276 net.cpp:110] Creating Layer lstm1_h_conted_9
I0912 20:44:47.190260 27276 net.cpp:477] lstm1_h_conted_9 <- h_9_lstm1_unit_9_1_split_0
I0912 20:44:47.190266 27276 net.cpp:477] lstm1_h_conted_9 <- cont_10_lstm1_cont_slice_9_split_0
I0912 20:44:47.190274 27276 net.cpp:433] lstm1_h_conted_9 -> h_conted_9
I0912 20:44:47.190330 27276 net.cpp:155] Setting up lstm1_h_conted_9
I0912 20:44:47.190340 27276 net.cpp:163] Top shape: 1 10 1000 (10000)
I0912 20:44:47.190343 27276 layer_factory.hpp:76] Creating layer lstm1_transform_10
I0912 20:44:47.190353 27276 net.cpp:110] Creating Layer lstm1_transform_10
I0912 20:44:47.190358 27276 net.cpp:477] lstm1_transform_10 <- h_conted_9
I0912 20:44:47.190366 27276 net.cpp:433] lstm1_transform_10 -> W_hc_h_9
I0912 20:44:47.213259 27276 net.cpp:155] Setting up lstm1_transform_10
I0912 20:44:47.213299 27276 net.cpp:163] Top shape: 1 10 4000 (40000)
I0912 20:44:47.213313 27276 net.cpp:537] Sharing parameters 'W_hc' owned by layer 'lstm1_transform_1', param index 0
I0912 20:44:47.213325 27276 layer_factory.hpp:76] Creating layer lstm1_gate_input_10
I0912 20:44:47.213364 27276 net.cpp:110] Creating Layer lstm1_gate_input_10
I0912 20:44:47.213379 27276 net.cpp:477] lstm1_gate_input_10 <- W_hc_h_9
I0912 20:44:47.213409 27276 net.cpp:477] lstm1_gate_input_10 <- W_xc_x_10
I0912 20:44:47.213428 27276 net.cpp:433] lstm1_gate_input_10 -> gate_input_10
I0912 20:44:47.213454 27276 net.cpp:155] Setting up lstm1_gate_input_10
I0912 20:44:47.213465 27276 net.cpp:163] Top shape: 1 10 4000 (40000)
I0912 20:44:47.213488 27276 layer_factory.hpp:76] Creating layer lstm1_unit_10
I0912 20:44:47.213501 27276 net.cpp:110] Creating Layer lstm1_unit_10
I0912 20:44:47.213515 27276 net.cpp:477] lstm1_unit_10 <- c_9
I0912 20:44:47.213527 27276 net.cpp:477] lstm1_unit_10 <- gate_input_10
I0912 20:44:47.213541 27276 net.cpp:477] lstm1_unit_10 <- cont_10_lstm1_cont_slice_9_split_1
I0912 20:44:47.213560 27276 net.cpp:433] lstm1_unit_10 -> c_10
I0912 20:44:47.213577 27276 net.cpp:433] lstm1_unit_10 -> h_10
I0912 20:44:47.213604 27276 net.cpp:155] Setting up lstm1_unit_10
I0912 20:44:47.213616 27276 net.cpp:163] Top shape: 1 10 1000 (10000)
I0912 20:44:47.213629 27276 net.cpp:163] Top shape: 1 10 1000 (10000)
I0912 20:44:47.213639 27276 layer_factory.hpp:76] Creating layer h_10_lstm1_unit_10_1_split
I0912 20:44:47.213654 27276 net.cpp:110] Creating Layer h_10_lstm1_unit_10_1_split
I0912 20:44:47.213663 27276 net.cpp:477] h_10_lstm1_unit_10_1_split <- h_10
I0912 20:44:47.213677 27276 net.cpp:433] h_10_lstm1_unit_10_1_split -> h_10_lstm1_unit_10_1_split_0
I0912 20:44:47.213691 27276 net.cpp:433] h_10_lstm1_unit_10_1_split -> h_10_lstm1_unit_10_1_split_1
I0912 20:44:47.213707 27276 net.cpp:155] Setting up h_10_lstm1_unit_10_1_split
I0912 20:44:47.213719 27276 net.cpp:163] Top shape: 1 10 1000 (10000)
I0912 20:44:47.213732 27276 net.cpp:163] Top shape: 1 10 1000 (10000)
I0912 20:44:47.213742 27276 layer_factory.hpp:76] Creating layer lstm1_h_conted_10
I0912 20:44:47.213758 27276 net.cpp:110] Creating Layer lstm1_h_conted_10
I0912 20:44:47.213768 27276 net.cpp:477] lstm1_h_conted_10 <- h_10_lstm1_unit_10_1_split_0
I0912 20:44:47.213790 27276 net.cpp:477] lstm1_h_conted_10 <- cont_11_lstm1_cont_slice_10_split_0
I0912 20:44:47.213809 27276 net.cpp:433] lstm1_h_conted_10 -> h_conted_10
I0912 20:44:47.213877 27276 net.cpp:155] Setting up lstm1_h_conted_10
I0912 20:44:47.213891 27276 net.cpp:163] Top shape: 1 10 1000 (10000)
I0912 20:44:47.213901 27276 layer_factory.hpp:76] Creating layer lstm1_transform_11
I0912 20:44:47.213917 27276 net.cpp:110] Creating Layer lstm1_transform_11
I0912 20:44:47.213927 27276 net.cpp:477] lstm1_transform_11 <- h_conted_10
I0912 20:44:47.213953 27276 net.cpp:433] lstm1_transform_11 -> W_hc_h_10
I0912 20:44:47.237371 27276 net.cpp:155] Setting up lstm1_transform_11
I0912 20:44:47.237408 27276 net.cpp:163] Top shape: 1 10 4000 (40000)
I0912 20:44:47.237423 27276 net.cpp:537] Sharing parameters 'W_hc' owned by layer 'lstm1_transform_1', param index 0
I0912 20:44:47.237434 27276 layer_factory.hpp:76] Creating layer lstm1_gate_input_11
I0912 20:44:47.237463 27276 net.cpp:110] Creating Layer lstm1_gate_input_11
I0912 20:44:47.237473 27276 net.cpp:477] lstm1_gate_input_11 <- W_hc_h_10
I0912 20:44:47.237483 27276 net.cpp:477] lstm1_gate_input_11 <- W_xc_x_11
I0912 20:44:47.237491 27276 net.cpp:433] lstm1_gate_input_11 -> gate_input_11
I0912 20:44:47.237510 27276 net.cpp:155] Setting up lstm1_gate_input_11
I0912 20:44:47.237517 27276 net.cpp:163] Top shape: 1 10 4000 (40000)
I0912 20:44:47.237522 27276 layer_factory.hpp:76] Creating layer lstm1_unit_11
I0912 20:44:47.237529 27276 net.cpp:110] Creating Layer lstm1_unit_11
I0912 20:44:47.237536 27276 net.cpp:477] lstm1_unit_11 <- c_10
I0912 20:44:47.237542 27276 net.cpp:477] lstm1_unit_11 <- gate_input_11
I0912 20:44:47.237550 27276 net.cpp:477] lstm1_unit_11 <- cont_11_lstm1_cont_slice_10_split_1
I0912 20:44:47.237557 27276 net.cpp:433] lstm1_unit_11 -> c_11
I0912 20:44:47.237566 27276 net.cpp:433] lstm1_unit_11 -> h_11
I0912 20:44:47.237576 27276 net.cpp:155] Setting up lstm1_unit_11
I0912 20:44:47.237582 27276 net.cpp:163] Top shape: 1 10 1000 (10000)
I0912 20:44:47.237587 27276 net.cpp:163] Top shape: 1 10 1000 (10000)
I0912 20:44:47.237592 27276 layer_factory.hpp:76] Creating layer h_11_lstm1_unit_11_1_split
I0912 20:44:47.237602 27276 net.cpp:110] Creating Layer h_11_lstm1_unit_11_1_split
I0912 20:44:47.237607 27276 net.cpp:477] h_11_lstm1_unit_11_1_split <- h_11
I0912 20:44:47.237613 27276 net.cpp:433] h_11_lstm1_unit_11_1_split -> h_11_lstm1_unit_11_1_split_0
I0912 20:44:47.237622 27276 net.cpp:433] h_11_lstm1_unit_11_1_split -> h_11_lstm1_unit_11_1_split_1
I0912 20:44:47.237629 27276 net.cpp:155] Setting up h_11_lstm1_unit_11_1_split
I0912 20:44:47.237635 27276 net.cpp:163] Top shape: 1 10 1000 (10000)
I0912 20:44:47.237640 27276 net.cpp:163] Top shape: 1 10 1000 (10000)
I0912 20:44:47.237648 27276 layer_factory.hpp:76] Creating layer lstm1_h_conted_11
I0912 20:44:47.237655 27276 net.cpp:110] Creating Layer lstm1_h_conted_11
I0912 20:44:47.237673 27276 net.cpp:477] lstm1_h_conted_11 <- h_11_lstm1_unit_11_1_split_0
I0912 20:44:47.237679 27276 net.cpp:477] lstm1_h_conted_11 <- cont_12_lstm1_cont_slice_11_split_0
I0912 20:44:47.237689 27276 net.cpp:433] lstm1_h_conted_11 -> h_conted_11
I0912 20:44:47.237748 27276 net.cpp:155] Setting up lstm1_h_conted_11
I0912 20:44:47.237757 27276 net.cpp:163] Top shape: 1 10 1000 (10000)
I0912 20:44:47.237762 27276 layer_factory.hpp:76] Creating layer lstm1_transform_12
I0912 20:44:47.237771 27276 net.cpp:110] Creating Layer lstm1_transform_12
I0912 20:44:47.237776 27276 net.cpp:477] lstm1_transform_12 <- h_conted_11
I0912 20:44:47.237784 27276 net.cpp:433] lstm1_transform_12 -> W_hc_h_11
I0912 20:44:47.261010 27276 net.cpp:155] Setting up lstm1_transform_12
I0912 20:44:47.261051 27276 net.cpp:163] Top shape: 1 10 4000 (40000)
I0912 20:44:47.261066 27276 net.cpp:537] Sharing parameters 'W_hc' owned by layer 'lstm1_transform_1', param index 0
I0912 20:44:47.261078 27276 layer_factory.hpp:76] Creating layer lstm1_gate_input_12
I0912 20:44:47.261129 27276 net.cpp:110] Creating Layer lstm1_gate_input_12
I0912 20:44:47.261144 27276 net.cpp:477] lstm1_gate_input_12 <- W_hc_h_11
I0912 20:44:47.261173 27276 net.cpp:477] lstm1_gate_input_12 <- W_xc_x_12
I0912 20:44:47.261191 27276 net.cpp:433] lstm1_gate_input_12 -> gate_input_12
I0912 20:44:47.261219 27276 net.cpp:155] Setting up lstm1_gate_input_12
I0912 20:44:47.261230 27276 net.cpp:163] Top shape: 1 10 4000 (40000)
I0912 20:44:47.261253 27276 layer_factory.hpp:76] Creating layer lstm1_unit_12
I0912 20:44:47.261267 27276 net.cpp:110] Creating Layer lstm1_unit_12
I0912 20:44:47.261281 27276 net.cpp:477] lstm1_unit_12 <- c_11
I0912 20:44:47.261296 27276 net.cpp:477] lstm1_unit_12 <- gate_input_12
I0912 20:44:47.261309 27276 net.cpp:477] lstm1_unit_12 <- cont_12_lstm1_cont_slice_11_split_1
I0912 20:44:47.261324 27276 net.cpp:433] lstm1_unit_12 -> c_12
I0912 20:44:47.261342 27276 net.cpp:433] lstm1_unit_12 -> h_12
I0912 20:44:47.261359 27276 net.cpp:155] Setting up lstm1_unit_12
I0912 20:44:47.261370 27276 net.cpp:163] Top shape: 1 10 1000 (10000)
I0912 20:44:47.261384 27276 net.cpp:163] Top shape: 1 10 1000 (10000)
I0912 20:44:47.261394 27276 layer_factory.hpp:76] Creating layer h_12_lstm1_unit_12_1_split
I0912 20:44:47.261407 27276 net.cpp:110] Creating Layer h_12_lstm1_unit_12_1_split
I0912 20:44:47.261417 27276 net.cpp:477] h_12_lstm1_unit_12_1_split <- h_12
I0912 20:44:47.261435 27276 net.cpp:433] h_12_lstm1_unit_12_1_split -> h_12_lstm1_unit_12_1_split_0
I0912 20:44:47.261448 27276 net.cpp:433] h_12_lstm1_unit_12_1_split -> h_12_lstm1_unit_12_1_split_1
I0912 20:44:47.261466 27276 net.cpp:155] Setting up h_12_lstm1_unit_12_1_split
I0912 20:44:47.261477 27276 net.cpp:163] Top shape: 1 10 1000 (10000)
I0912 20:44:47.261488 27276 net.cpp:163] Top shape: 1 10 1000 (10000)
I0912 20:44:47.261499 27276 layer_factory.hpp:76] Creating layer lstm1_h_conted_12
I0912 20:44:47.261513 27276 net.cpp:110] Creating Layer lstm1_h_conted_12
I0912 20:44:47.261523 27276 net.cpp:477] lstm1_h_conted_12 <- h_12_lstm1_unit_12_1_split_0
I0912 20:44:47.261546 27276 net.cpp:477] lstm1_h_conted_12 <- cont_13_lstm1_cont_slice_12_split_0
I0912 20:44:47.261560 27276 net.cpp:433] lstm1_h_conted_12 -> h_conted_12
I0912 20:44:47.261633 27276 net.cpp:155] Setting up lstm1_h_conted_12
I0912 20:44:47.261646 27276 net.cpp:163] Top shape: 1 10 1000 (10000)
I0912 20:44:47.261665 27276 layer_factory.hpp:76] Creating layer lstm1_transform_13
I0912 20:44:47.261680 27276 net.cpp:110] Creating Layer lstm1_transform_13
I0912 20:44:47.261692 27276 net.cpp:477] lstm1_transform_13 <- h_conted_12
I0912 20:44:47.261706 27276 net.cpp:433] lstm1_transform_13 -> W_hc_h_12
I0912 20:44:47.285275 27276 net.cpp:155] Setting up lstm1_transform_13
I0912 20:44:47.285315 27276 net.cpp:163] Top shape: 1 10 4000 (40000)
I0912 20:44:47.285328 27276 net.cpp:537] Sharing parameters 'W_hc' owned by layer 'lstm1_transform_1', param index 0
I0912 20:44:47.285339 27276 layer_factory.hpp:76] Creating layer lstm1_gate_input_13
I0912 20:44:47.285373 27276 net.cpp:110] Creating Layer lstm1_gate_input_13
I0912 20:44:47.285388 27276 net.cpp:477] lstm1_gate_input_13 <- W_hc_h_12
I0912 20:44:47.285403 27276 net.cpp:477] lstm1_gate_input_13 <- W_xc_x_13
I0912 20:44:47.285423 27276 net.cpp:433] lstm1_gate_input_13 -> gate_input_13
I0912 20:44:47.285441 27276 net.cpp:155] Setting up lstm1_gate_input_13
I0912 20:44:47.285449 27276 net.cpp:163] Top shape: 1 10 4000 (40000)
I0912 20:44:47.285454 27276 layer_factory.hpp:76] Creating layer lstm1_unit_13
I0912 20:44:47.285464 27276 net.cpp:110] Creating Layer lstm1_unit_13
I0912 20:44:47.285475 27276 net.cpp:477] lstm1_unit_13 <- c_12
I0912 20:44:47.285490 27276 net.cpp:477] lstm1_unit_13 <- gate_input_13
I0912 20:44:47.285497 27276 net.cpp:477] lstm1_unit_13 <- cont_13_lstm1_cont_slice_12_split_1
I0912 20:44:47.285506 27276 net.cpp:433] lstm1_unit_13 -> c_13
I0912 20:44:47.285514 27276 net.cpp:433] lstm1_unit_13 -> h_13
I0912 20:44:47.285523 27276 net.cpp:155] Setting up lstm1_unit_13
I0912 20:44:47.285532 27276 net.cpp:163] Top shape: 1 10 1000 (10000)
I0912 20:44:47.285537 27276 net.cpp:163] Top shape: 1 10 1000 (10000)
I0912 20:44:47.285542 27276 layer_factory.hpp:76] Creating layer h_13_lstm1_unit_13_1_split
I0912 20:44:47.285548 27276 net.cpp:110] Creating Layer h_13_lstm1_unit_13_1_split
I0912 20:44:47.285554 27276 net.cpp:477] h_13_lstm1_unit_13_1_split <- h_13
I0912 20:44:47.285559 27276 net.cpp:433] h_13_lstm1_unit_13_1_split -> h_13_lstm1_unit_13_1_split_0
I0912 20:44:47.285567 27276 net.cpp:433] h_13_lstm1_unit_13_1_split -> h_13_lstm1_unit_13_1_split_1
I0912 20:44:47.285575 27276 net.cpp:155] Setting up h_13_lstm1_unit_13_1_split
I0912 20:44:47.285583 27276 net.cpp:163] Top shape: 1 10 1000 (10000)
I0912 20:44:47.285588 27276 net.cpp:163] Top shape: 1 10 1000 (10000)
I0912 20:44:47.285591 27276 layer_factory.hpp:76] Creating layer lstm1_h_conted_13
I0912 20:44:47.285619 27276 net.cpp:110] Creating Layer lstm1_h_conted_13
I0912 20:44:47.285626 27276 net.cpp:477] lstm1_h_conted_13 <- h_13_lstm1_unit_13_1_split_0
I0912 20:44:47.285634 27276 net.cpp:477] lstm1_h_conted_13 <- cont_14_lstm1_cont_slice_13_split_0
I0912 20:44:47.285641 27276 net.cpp:433] lstm1_h_conted_13 -> h_conted_13
I0912 20:44:47.285706 27276 net.cpp:155] Setting up lstm1_h_conted_13
I0912 20:44:47.285715 27276 net.cpp:163] Top shape: 1 10 1000 (10000)
I0912 20:44:47.285720 27276 layer_factory.hpp:76] Creating layer lstm1_transform_14
I0912 20:44:47.285732 27276 net.cpp:110] Creating Layer lstm1_transform_14
I0912 20:44:47.285737 27276 net.cpp:477] lstm1_transform_14 <- h_conted_13
I0912 20:44:47.285747 27276 net.cpp:433] lstm1_transform_14 -> W_hc_h_13
I0912 20:44:47.309562 27276 net.cpp:155] Setting up lstm1_transform_14
I0912 20:44:47.309603 27276 net.cpp:163] Top shape: 1 10 4000 (40000)
I0912 20:44:47.309615 27276 net.cpp:537] Sharing parameters 'W_hc' owned by layer 'lstm1_transform_1', param index 0
I0912 20:44:47.309623 27276 layer_factory.hpp:76] Creating layer lstm1_gate_input_14
I0912 20:44:47.309645 27276 net.cpp:110] Creating Layer lstm1_gate_input_14
I0912 20:44:47.309658 27276 net.cpp:477] lstm1_gate_input_14 <- W_hc_h_13
I0912 20:44:47.309665 27276 net.cpp:477] lstm1_gate_input_14 <- W_xc_x_14
I0912 20:44:47.309676 27276 net.cpp:433] lstm1_gate_input_14 -> gate_input_14
I0912 20:44:47.309694 27276 net.cpp:155] Setting up lstm1_gate_input_14
I0912 20:44:47.309703 27276 net.cpp:163] Top shape: 1 10 4000 (40000)
I0912 20:44:47.309711 27276 layer_factory.hpp:76] Creating layer lstm1_unit_14
I0912 20:44:47.309723 27276 net.cpp:110] Creating Layer lstm1_unit_14
I0912 20:44:47.309737 27276 net.cpp:477] lstm1_unit_14 <- c_13
I0912 20:44:47.309746 27276 net.cpp:477] lstm1_unit_14 <- gate_input_14
I0912 20:44:47.309756 27276 net.cpp:477] lstm1_unit_14 <- cont_14_lstm1_cont_slice_13_split_1
I0912 20:44:47.309763 27276 net.cpp:433] lstm1_unit_14 -> c_14
I0912 20:44:47.309774 27276 net.cpp:433] lstm1_unit_14 -> h_14
I0912 20:44:47.309787 27276 net.cpp:155] Setting up lstm1_unit_14
I0912 20:44:47.309793 27276 net.cpp:163] Top shape: 1 10 1000 (10000)
I0912 20:44:47.309813 27276 net.cpp:163] Top shape: 1 10 1000 (10000)
I0912 20:44:47.309819 27276 layer_factory.hpp:76] Creating layer h_14_lstm1_unit_14_1_split
I0912 20:44:47.309834 27276 net.cpp:110] Creating Layer h_14_lstm1_unit_14_1_split
I0912 20:44:47.309844 27276 net.cpp:477] h_14_lstm1_unit_14_1_split <- h_14
I0912 20:44:47.309855 27276 net.cpp:433] h_14_lstm1_unit_14_1_split -> h_14_lstm1_unit_14_1_split_0
I0912 20:44:47.309871 27276 net.cpp:433] h_14_lstm1_unit_14_1_split -> h_14_lstm1_unit_14_1_split_1
I0912 20:44:47.309887 27276 net.cpp:155] Setting up h_14_lstm1_unit_14_1_split
I0912 20:44:47.309901 27276 net.cpp:163] Top shape: 1 10 1000 (10000)
I0912 20:44:47.309913 27276 net.cpp:163] Top shape: 1 10 1000 (10000)
I0912 20:44:47.309921 27276 layer_factory.hpp:76] Creating layer lstm1_h_conted_14
I0912 20:44:47.309931 27276 net.cpp:110] Creating Layer lstm1_h_conted_14
I0912 20:44:47.309942 27276 net.cpp:477] lstm1_h_conted_14 <- h_14_lstm1_unit_14_1_split_0
I0912 20:44:47.309954 27276 net.cpp:477] lstm1_h_conted_14 <- cont_15_lstm1_cont_slice_14_split_0
I0912 20:44:47.309965 27276 net.cpp:433] lstm1_h_conted_14 -> h_conted_14
I0912 20:44:47.310037 27276 net.cpp:155] Setting up lstm1_h_conted_14
I0912 20:44:47.310047 27276 net.cpp:163] Top shape: 1 10 1000 (10000)
I0912 20:44:47.310053 27276 layer_factory.hpp:76] Creating layer lstm1_transform_15
I0912 20:44:47.310062 27276 net.cpp:110] Creating Layer lstm1_transform_15
I0912 20:44:47.310068 27276 net.cpp:477] lstm1_transform_15 <- h_conted_14
I0912 20:44:47.310075 27276 net.cpp:433] lstm1_transform_15 -> W_hc_h_14
I0912 20:44:47.333662 27276 net.cpp:155] Setting up lstm1_transform_15
I0912 20:44:47.333703 27276 net.cpp:163] Top shape: 1 10 4000 (40000)
I0912 20:44:47.333724 27276 net.cpp:537] Sharing parameters 'W_hc' owned by layer 'lstm1_transform_1', param index 0
I0912 20:44:47.333760 27276 layer_factory.hpp:76] Creating layer lstm1_gate_input_15
I0912 20:44:47.333778 27276 net.cpp:110] Creating Layer lstm1_gate_input_15
I0912 20:44:47.333794 27276 net.cpp:477] lstm1_gate_input_15 <- W_hc_h_14
I0912 20:44:47.333822 27276 net.cpp:477] lstm1_gate_input_15 <- W_xc_x_15
I0912 20:44:47.333842 27276 net.cpp:433] lstm1_gate_input_15 -> gate_input_15
I0912 20:44:47.333868 27276 net.cpp:155] Setting up lstm1_gate_input_15
I0912 20:44:47.333880 27276 net.cpp:163] Top shape: 1 10 4000 (40000)
I0912 20:44:47.333902 27276 layer_factory.hpp:76] Creating layer lstm1_unit_15
I0912 20:44:47.333915 27276 net.cpp:110] Creating Layer lstm1_unit_15
I0912 20:44:47.333928 27276 net.cpp:477] lstm1_unit_15 <- c_14
I0912 20:44:47.333941 27276 net.cpp:477] lstm1_unit_15 <- gate_input_15
I0912 20:44:47.333956 27276 net.cpp:477] lstm1_unit_15 <- cont_15_lstm1_cont_slice_14_split_1
I0912 20:44:47.333973 27276 net.cpp:433] lstm1_unit_15 -> c_15
I0912 20:44:47.333991 27276 net.cpp:433] lstm1_unit_15 -> h_15
I0912 20:44:47.334007 27276 net.cpp:155] Setting up lstm1_unit_15
I0912 20:44:47.334019 27276 net.cpp:163] Top shape: 1 10 1000 (10000)
I0912 20:44:47.334031 27276 net.cpp:163] Top shape: 1 10 1000 (10000)
I0912 20:44:47.334041 27276 layer_factory.hpp:76] Creating layer h_15_lstm1_unit_15_1_split
I0912 20:44:47.334055 27276 net.cpp:110] Creating Layer h_15_lstm1_unit_15_1_split
I0912 20:44:47.334065 27276 net.cpp:477] h_15_lstm1_unit_15_1_split <- h_15
I0912 20:44:47.334080 27276 net.cpp:433] h_15_lstm1_unit_15_1_split -> h_15_lstm1_unit_15_1_split_0
I0912 20:44:47.334095 27276 net.cpp:433] h_15_lstm1_unit_15_1_split -> h_15_lstm1_unit_15_1_split_1
I0912 20:44:47.334111 27276 net.cpp:155] Setting up h_15_lstm1_unit_15_1_split
I0912 20:44:47.334123 27276 net.cpp:163] Top shape: 1 10 1000 (10000)
I0912 20:44:47.334136 27276 net.cpp:163] Top shape: 1 10 1000 (10000)
I0912 20:44:47.334146 27276 layer_factory.hpp:76] Creating layer lstm1_h_conted_15
I0912 20:44:47.334159 27276 net.cpp:110] Creating Layer lstm1_h_conted_15
I0912 20:44:47.334168 27276 net.cpp:477] lstm1_h_conted_15 <- h_15_lstm1_unit_15_1_split_0
I0912 20:44:47.334202 27276 net.cpp:477] lstm1_h_conted_15 <- cont_16_lstm1_cont_slice_15_split_0
I0912 20:44:47.334224 27276 net.cpp:433] lstm1_h_conted_15 -> h_conted_15
I0912 20:44:47.334298 27276 net.cpp:155] Setting up lstm1_h_conted_15
I0912 20:44:47.334311 27276 net.cpp:163] Top shape: 1 10 1000 (10000)
I0912 20:44:47.334331 27276 layer_factory.hpp:76] Creating layer lstm1_transform_16
I0912 20:44:47.334349 27276 net.cpp:110] Creating Layer lstm1_transform_16
I0912 20:44:47.334359 27276 net.cpp:477] lstm1_transform_16 <- h_conted_15
I0912 20:44:47.334383 27276 net.cpp:433] lstm1_transform_16 -> W_hc_h_15
I0912 20:44:47.357830 27276 net.cpp:155] Setting up lstm1_transform_16
I0912 20:44:47.357867 27276 net.cpp:163] Top shape: 1 10 4000 (40000)
I0912 20:44:47.357880 27276 net.cpp:537] Sharing parameters 'W_hc' owned by layer 'lstm1_transform_1', param index 0
I0912 20:44:47.357890 27276 layer_factory.hpp:76] Creating layer lstm1_gate_input_16
I0912 20:44:47.357911 27276 net.cpp:110] Creating Layer lstm1_gate_input_16
I0912 20:44:47.357921 27276 net.cpp:477] lstm1_gate_input_16 <- W_hc_h_15
I0912 20:44:47.357929 27276 net.cpp:477] lstm1_gate_input_16 <- W_xc_x_16
I0912 20:44:47.357939 27276 net.cpp:433] lstm1_gate_input_16 -> gate_input_16
I0912 20:44:47.357960 27276 net.cpp:155] Setting up lstm1_gate_input_16
I0912 20:44:47.357966 27276 net.cpp:163] Top shape: 1 10 4000 (40000)
I0912 20:44:47.357971 27276 layer_factory.hpp:76] Creating layer lstm1_unit_16
I0912 20:44:47.357978 27276 net.cpp:110] Creating Layer lstm1_unit_16
I0912 20:44:47.357985 27276 net.cpp:477] lstm1_unit_16 <- c_15
I0912 20:44:47.357991 27276 net.cpp:477] lstm1_unit_16 <- gate_input_16
I0912 20:44:47.358000 27276 net.cpp:477] lstm1_unit_16 <- cont_16_lstm1_cont_slice_15_split_1
I0912 20:44:47.358010 27276 net.cpp:433] lstm1_unit_16 -> c_16
I0912 20:44:47.358019 27276 net.cpp:433] lstm1_unit_16 -> h_16
I0912 20:44:47.358031 27276 net.cpp:155] Setting up lstm1_unit_16
I0912 20:44:47.358037 27276 net.cpp:163] Top shape: 1 10 1000 (10000)
I0912 20:44:47.358044 27276 net.cpp:163] Top shape: 1 10 1000 (10000)
I0912 20:44:47.358048 27276 layer_factory.hpp:76] Creating layer h_16_lstm1_unit_16_1_split
I0912 20:44:47.358054 27276 net.cpp:110] Creating Layer h_16_lstm1_unit_16_1_split
I0912 20:44:47.358058 27276 net.cpp:477] h_16_lstm1_unit_16_1_split <- h_16
I0912 20:44:47.358064 27276 net.cpp:433] h_16_lstm1_unit_16_1_split -> h_16_lstm1_unit_16_1_split_0
I0912 20:44:47.358072 27276 net.cpp:433] h_16_lstm1_unit_16_1_split -> h_16_lstm1_unit_16_1_split_1
I0912 20:44:47.358079 27276 net.cpp:155] Setting up h_16_lstm1_unit_16_1_split
I0912 20:44:47.358088 27276 net.cpp:163] Top shape: 1 10 1000 (10000)
I0912 20:44:47.358096 27276 net.cpp:163] Top shape: 1 10 1000 (10000)
I0912 20:44:47.358100 27276 layer_factory.hpp:76] Creating layer lstm1_h_conted_16
I0912 20:44:47.358108 27276 net.cpp:110] Creating Layer lstm1_h_conted_16
I0912 20:44:47.358114 27276 net.cpp:477] lstm1_h_conted_16 <- h_16_lstm1_unit_16_1_split_0
I0912 20:44:47.358120 27276 net.cpp:477] lstm1_h_conted_16 <- cont_17_lstm1_cont_slice_16_split_0
I0912 20:44:47.358131 27276 net.cpp:433] lstm1_h_conted_16 -> h_conted_16
I0912 20:44:47.358192 27276 net.cpp:155] Setting up lstm1_h_conted_16
I0912 20:44:47.358201 27276 net.cpp:163] Top shape: 1 10 1000 (10000)
I0912 20:44:47.358207 27276 layer_factory.hpp:76] Creating layer lstm1_transform_17
I0912 20:44:47.358216 27276 net.cpp:110] Creating Layer lstm1_transform_17
I0912 20:44:47.358220 27276 net.cpp:477] lstm1_transform_17 <- h_conted_16
I0912 20:44:47.358228 27276 net.cpp:433] lstm1_transform_17 -> W_hc_h_16
I0912 20:44:47.381500 27276 net.cpp:155] Setting up lstm1_transform_17
I0912 20:44:47.381541 27276 net.cpp:163] Top shape: 1 10 4000 (40000)
I0912 20:44:47.381554 27276 net.cpp:537] Sharing parameters 'W_hc' owned by layer 'lstm1_transform_1', param index 0
I0912 20:44:47.381564 27276 layer_factory.hpp:76] Creating layer lstm1_gate_input_17
I0912 20:44:47.381609 27276 net.cpp:110] Creating Layer lstm1_gate_input_17
I0912 20:44:47.381623 27276 net.cpp:477] lstm1_gate_input_17 <- W_hc_h_16
I0912 20:44:47.381651 27276 net.cpp:477] lstm1_gate_input_17 <- W_xc_x_17
I0912 20:44:47.381669 27276 net.cpp:433] lstm1_gate_input_17 -> gate_input_17
I0912 20:44:47.381692 27276 net.cpp:155] Setting up lstm1_gate_input_17
I0912 20:44:47.381705 27276 net.cpp:163] Top shape: 1 10 4000 (40000)
I0912 20:44:47.381727 27276 layer_factory.hpp:76] Creating layer lstm1_unit_17
I0912 20:44:47.381741 27276 net.cpp:110] Creating Layer lstm1_unit_17
I0912 20:44:47.381764 27276 net.cpp:477] lstm1_unit_17 <- c_16
I0912 20:44:47.381777 27276 net.cpp:477] lstm1_unit_17 <- gate_input_17
I0912 20:44:47.381800 27276 net.cpp:477] lstm1_unit_17 <- cont_17_lstm1_cont_slice_16_split_1
I0912 20:44:47.381814 27276 net.cpp:433] lstm1_unit_17 -> c_17
I0912 20:44:47.381839 27276 net.cpp:433] lstm1_unit_17 -> h_17
I0912 20:44:47.381855 27276 net.cpp:155] Setting up lstm1_unit_17
I0912 20:44:47.381868 27276 net.cpp:163] Top shape: 1 10 1000 (10000)
I0912 20:44:47.381881 27276 net.cpp:163] Top shape: 1 10 1000 (10000)
I0912 20:44:47.381891 27276 layer_factory.hpp:76] Creating layer h_17_lstm1_unit_17_1_split
I0912 20:44:47.381907 27276 net.cpp:110] Creating Layer h_17_lstm1_unit_17_1_split
I0912 20:44:47.381916 27276 net.cpp:477] h_17_lstm1_unit_17_1_split <- h_17
I0912 20:44:47.381939 27276 net.cpp:433] h_17_lstm1_unit_17_1_split -> h_17_lstm1_unit_17_1_split_0
I0912 20:44:47.381953 27276 net.cpp:433] h_17_lstm1_unit_17_1_split -> h_17_lstm1_unit_17_1_split_1
I0912 20:44:47.381970 27276 net.cpp:155] Setting up h_17_lstm1_unit_17_1_split
I0912 20:44:47.381981 27276 net.cpp:163] Top shape: 1 10 1000 (10000)
I0912 20:44:47.381994 27276 net.cpp:163] Top shape: 1 10 1000 (10000)
I0912 20:44:47.382004 27276 layer_factory.hpp:76] Creating layer lstm1_h_conted_17
I0912 20:44:47.382026 27276 net.cpp:110] Creating Layer lstm1_h_conted_17
I0912 20:44:47.382035 27276 net.cpp:477] lstm1_h_conted_17 <- h_17_lstm1_unit_17_1_split_0
I0912 20:44:47.382047 27276 net.cpp:477] lstm1_h_conted_17 <- cont_18_lstm1_cont_slice_17_split_0
I0912 20:44:47.382062 27276 net.cpp:433] lstm1_h_conted_17 -> h_conted_17
I0912 20:44:47.382130 27276 net.cpp:155] Setting up lstm1_h_conted_17
I0912 20:44:47.382143 27276 net.cpp:163] Top shape: 1 10 1000 (10000)
I0912 20:44:47.382164 27276 layer_factory.hpp:76] Creating layer lstm1_transform_18
I0912 20:44:47.382179 27276 net.cpp:110] Creating Layer lstm1_transform_18
I0912 20:44:47.382189 27276 net.cpp:477] lstm1_transform_18 <- h_conted_17
I0912 20:44:47.382203 27276 net.cpp:433] lstm1_transform_18 -> W_hc_h_17
I0912 20:44:47.405488 27276 net.cpp:155] Setting up lstm1_transform_18
I0912 20:44:47.405525 27276 net.cpp:163] Top shape: 1 10 4000 (40000)
I0912 20:44:47.405537 27276 net.cpp:537] Sharing parameters 'W_hc' owned by layer 'lstm1_transform_1', param index 0
I0912 20:44:47.405547 27276 layer_factory.hpp:76] Creating layer lstm1_gate_input_18
I0912 20:44:47.405565 27276 net.cpp:110] Creating Layer lstm1_gate_input_18
I0912 20:44:47.405575 27276 net.cpp:477] lstm1_gate_input_18 <- W_hc_h_17
I0912 20:44:47.405585 27276 net.cpp:477] lstm1_gate_input_18 <- W_xc_x_18
I0912 20:44:47.405594 27276 net.cpp:433] lstm1_gate_input_18 -> gate_input_18
I0912 20:44:47.405611 27276 net.cpp:155] Setting up lstm1_gate_input_18
I0912 20:44:47.405617 27276 net.cpp:163] Top shape: 1 10 4000 (40000)
I0912 20:44:47.405622 27276 layer_factory.hpp:76] Creating layer lstm1_unit_18
I0912 20:44:47.405632 27276 net.cpp:110] Creating Layer lstm1_unit_18
I0912 20:44:47.405639 27276 net.cpp:477] lstm1_unit_18 <- c_17
I0912 20:44:47.405645 27276 net.cpp:477] lstm1_unit_18 <- gate_input_18
I0912 20:44:47.405652 27276 net.cpp:477] lstm1_unit_18 <- cont_18_lstm1_cont_slice_17_split_1
I0912 20:44:47.405659 27276 net.cpp:433] lstm1_unit_18 -> c_18
I0912 20:44:47.405668 27276 net.cpp:433] lstm1_unit_18 -> h_18
I0912 20:44:47.405678 27276 net.cpp:155] Setting up lstm1_unit_18
I0912 20:44:47.405685 27276 net.cpp:163] Top shape: 1 10 1000 (10000)
I0912 20:44:47.405691 27276 net.cpp:163] Top shape: 1 10 1000 (10000)
I0912 20:44:47.405695 27276 layer_factory.hpp:76] Creating layer h_18_lstm1_unit_18_1_split
I0912 20:44:47.405711 27276 net.cpp:110] Creating Layer h_18_lstm1_unit_18_1_split
I0912 20:44:47.405716 27276 net.cpp:477] h_18_lstm1_unit_18_1_split <- h_18
I0912 20:44:47.405722 27276 net.cpp:433] h_18_lstm1_unit_18_1_split -> h_18_lstm1_unit_18_1_split_0
I0912 20:44:47.405730 27276 net.cpp:433] h_18_lstm1_unit_18_1_split -> h_18_lstm1_unit_18_1_split_1
I0912 20:44:47.405737 27276 net.cpp:155] Setting up h_18_lstm1_unit_18_1_split
I0912 20:44:47.405745 27276 net.cpp:163] Top shape: 1 10 1000 (10000)
I0912 20:44:47.405750 27276 net.cpp:163] Top shape: 1 10 1000 (10000)
I0912 20:44:47.405755 27276 layer_factory.hpp:76] Creating layer lstm1_h_conted_18
I0912 20:44:47.405763 27276 net.cpp:110] Creating Layer lstm1_h_conted_18
I0912 20:44:47.405768 27276 net.cpp:477] lstm1_h_conted_18 <- h_18_lstm1_unit_18_1_split_0
I0912 20:44:47.405774 27276 net.cpp:477] lstm1_h_conted_18 <- cont_19_lstm1_cont_slice_18_split_0
I0912 20:44:47.405781 27276 net.cpp:433] lstm1_h_conted_18 -> h_conted_18
I0912 20:44:47.405843 27276 net.cpp:155] Setting up lstm1_h_conted_18
I0912 20:44:47.405851 27276 net.cpp:163] Top shape: 1 10 1000 (10000)
I0912 20:44:47.405856 27276 layer_factory.hpp:76] Creating layer lstm1_transform_19
I0912 20:44:47.405866 27276 net.cpp:110] Creating Layer lstm1_transform_19
I0912 20:44:47.405872 27276 net.cpp:477] lstm1_transform_19 <- h_conted_18
I0912 20:44:47.405880 27276 net.cpp:433] lstm1_transform_19 -> W_hc_h_18
I0912 20:44:47.432288 27276 net.cpp:155] Setting up lstm1_transform_19
I0912 20:44:47.432324 27276 net.cpp:163] Top shape: 1 10 4000 (40000)
I0912 20:44:47.432334 27276 net.cpp:537] Sharing parameters 'W_hc' owned by layer 'lstm1_transform_1', param index 0
I0912 20:44:47.432342 27276 layer_factory.hpp:76] Creating layer lstm1_gate_input_19
I0912 20:44:47.432354 27276 net.cpp:110] Creating Layer lstm1_gate_input_19
I0912 20:44:47.432363 27276 net.cpp:477] lstm1_gate_input_19 <- W_hc_h_18
I0912 20:44:47.432371 27276 net.cpp:477] lstm1_gate_input_19 <- W_xc_x_19
I0912 20:44:47.432381 27276 net.cpp:433] lstm1_gate_input_19 -> gate_input_19
I0912 20:44:47.432404 27276 net.cpp:155] Setting up lstm1_gate_input_19
I0912 20:44:47.432416 27276 net.cpp:163] Top shape: 1 10 4000 (40000)
I0912 20:44:47.432421 27276 layer_factory.hpp:76] Creating layer lstm1_unit_19
I0912 20:44:47.432428 27276 net.cpp:110] Creating Layer lstm1_unit_19
I0912 20:44:47.432435 27276 net.cpp:477] lstm1_unit_19 <- c_18
I0912 20:44:47.432442 27276 net.cpp:477] lstm1_unit_19 <- gate_input_19
I0912 20:44:47.432448 27276 net.cpp:477] lstm1_unit_19 <- cont_19_lstm1_cont_slice_18_split_1
I0912 20:44:47.432461 27276 net.cpp:433] lstm1_unit_19 -> c_19
I0912 20:44:47.432471 27276 net.cpp:433] lstm1_unit_19 -> h_19
I0912 20:44:47.432482 27276 net.cpp:155] Setting up lstm1_unit_19
I0912 20:44:47.432487 27276 net.cpp:163] Top shape: 1 10 1000 (10000)
I0912 20:44:47.432492 27276 net.cpp:163] Top shape: 1 10 1000 (10000)
I0912 20:44:47.432497 27276 layer_factory.hpp:76] Creating layer h_19_lstm1_unit_19_1_split
I0912 20:44:47.432503 27276 net.cpp:110] Creating Layer h_19_lstm1_unit_19_1_split
I0912 20:44:47.432510 27276 net.cpp:477] h_19_lstm1_unit_19_1_split <- h_19
I0912 20:44:47.432521 27276 net.cpp:433] h_19_lstm1_unit_19_1_split -> h_19_lstm1_unit_19_1_split_0
I0912 20:44:47.432536 27276 net.cpp:433] h_19_lstm1_unit_19_1_split -> h_19_lstm1_unit_19_1_split_1
I0912 20:44:47.432553 27276 net.cpp:155] Setting up h_19_lstm1_unit_19_1_split
I0912 20:44:47.432564 27276 net.cpp:163] Top shape: 1 10 1000 (10000)
I0912 20:44:47.432584 27276 net.cpp:163] Top shape: 1 10 1000 (10000)
I0912 20:44:47.432593 27276 layer_factory.hpp:76] Creating layer lstm1_h_conted_19
I0912 20:44:47.432601 27276 net.cpp:110] Creating Layer lstm1_h_conted_19
I0912 20:44:47.432608 27276 net.cpp:477] lstm1_h_conted_19 <- h_19_lstm1_unit_19_1_split_0
I0912 20:44:47.432615 27276 net.cpp:477] lstm1_h_conted_19 <- cont_20_lstm1_cont_slice_19_split_0
I0912 20:44:47.432626 27276 net.cpp:433] lstm1_h_conted_19 -> h_conted_19
I0912 20:44:47.432687 27276 net.cpp:155] Setting up lstm1_h_conted_19
I0912 20:44:47.432705 27276 net.cpp:163] Top shape: 1 10 1000 (10000)
I0912 20:44:47.432713 27276 layer_factory.hpp:76] Creating layer lstm1_transform_20
I0912 20:44:47.432721 27276 net.cpp:110] Creating Layer lstm1_transform_20
I0912 20:44:47.432725 27276 net.cpp:477] lstm1_transform_20 <- h_conted_19
I0912 20:44:47.432734 27276 net.cpp:433] lstm1_transform_20 -> W_hc_h_19
I0912 20:44:47.456480 27276 net.cpp:155] Setting up lstm1_transform_20
I0912 20:44:47.456517 27276 net.cpp:163] Top shape: 1 10 4000 (40000)
I0912 20:44:47.456532 27276 net.cpp:537] Sharing parameters 'W_hc' owned by layer 'lstm1_transform_1', param index 0
I0912 20:44:47.456542 27276 layer_factory.hpp:76] Creating layer lstm1_gate_input_20
I0912 20:44:47.456583 27276 net.cpp:110] Creating Layer lstm1_gate_input_20
I0912 20:44:47.456596 27276 net.cpp:477] lstm1_gate_input_20 <- W_hc_h_19
I0912 20:44:47.456622 27276 net.cpp:477] lstm1_gate_input_20 <- W_xc_x_20
I0912 20:44:47.456640 27276 net.cpp:433] lstm1_gate_input_20 -> gate_input_20
I0912 20:44:47.456665 27276 net.cpp:155] Setting up lstm1_gate_input_20
I0912 20:44:47.456676 27276 net.cpp:163] Top shape: 1 10 4000 (40000)
I0912 20:44:47.456697 27276 layer_factory.hpp:76] Creating layer lstm1_unit_20
I0912 20:44:47.456711 27276 net.cpp:110] Creating Layer lstm1_unit_20
I0912 20:44:47.456733 27276 net.cpp:477] lstm1_unit_20 <- c_19
I0912 20:44:47.456745 27276 net.cpp:477] lstm1_unit_20 <- gate_input_20
I0912 20:44:47.456758 27276 net.cpp:477] lstm1_unit_20 <- cont_20_lstm1_cont_slice_19_split_1
I0912 20:44:47.456773 27276 net.cpp:433] lstm1_unit_20 -> c_20
I0912 20:44:47.456790 27276 net.cpp:433] lstm1_unit_20 -> h_20
I0912 20:44:47.456807 27276 net.cpp:155] Setting up lstm1_unit_20
I0912 20:44:47.456818 27276 net.cpp:163] Top shape: 1 10 1000 (10000)
I0912 20:44:47.456830 27276 net.cpp:163] Top shape: 1 10 1000 (10000)
I0912 20:44:47.456841 27276 layer_factory.hpp:76] Creating layer h_20_lstm1_unit_20_1_split
I0912 20:44:47.456856 27276 net.cpp:110] Creating Layer h_20_lstm1_unit_20_1_split
I0912 20:44:47.456866 27276 net.cpp:477] h_20_lstm1_unit_20_1_split <- h_20
I0912 20:44:47.456881 27276 net.cpp:433] h_20_lstm1_unit_20_1_split -> h_20_lstm1_unit_20_1_split_0
I0912 20:44:47.456897 27276 net.cpp:433] h_20_lstm1_unit_20_1_split -> h_20_lstm1_unit_20_1_split_1
I0912 20:44:47.456912 27276 net.cpp:155] Setting up h_20_lstm1_unit_20_1_split
I0912 20:44:47.456923 27276 net.cpp:163] Top shape: 1 10 1000 (10000)
I0912 20:44:47.456935 27276 net.cpp:163] Top shape: 1 10 1000 (10000)
I0912 20:44:47.456945 27276 layer_factory.hpp:76] Creating layer lstm1_h_conted_20
I0912 20:44:47.456960 27276 net.cpp:110] Creating Layer lstm1_h_conted_20
I0912 20:44:47.456969 27276 net.cpp:477] lstm1_h_conted_20 <- h_20_lstm1_unit_20_1_split_0
I0912 20:44:47.456991 27276 net.cpp:477] lstm1_h_conted_20 <- cont_21_lstm1_cont_slice_20_split_0
I0912 20:44:47.457005 27276 net.cpp:433] lstm1_h_conted_20 -> h_conted_20
I0912 20:44:47.457077 27276 net.cpp:155] Setting up lstm1_h_conted_20
I0912 20:44:47.457089 27276 net.cpp:163] Top shape: 1 10 1000 (10000)
I0912 20:44:47.457109 27276 layer_factory.hpp:76] Creating layer lstm1_transform_21
I0912 20:44:47.457123 27276 net.cpp:110] Creating Layer lstm1_transform_21
I0912 20:44:47.457134 27276 net.cpp:477] lstm1_transform_21 <- h_conted_20
I0912 20:44:47.457149 27276 net.cpp:433] lstm1_transform_21 -> W_hc_h_20
I0912 20:44:47.480557 27276 net.cpp:155] Setting up lstm1_transform_21
I0912 20:44:47.480597 27276 net.cpp:163] Top shape: 1 10 4000 (40000)
I0912 20:44:47.480609 27276 net.cpp:537] Sharing parameters 'W_hc' owned by layer 'lstm1_transform_1', param index 0
I0912 20:44:47.480619 27276 layer_factory.hpp:76] Creating layer lstm1_gate_input_21
I0912 20:44:47.480639 27276 net.cpp:110] Creating Layer lstm1_gate_input_21
I0912 20:44:47.480650 27276 net.cpp:477] lstm1_gate_input_21 <- W_hc_h_20
I0912 20:44:47.480659 27276 net.cpp:477] lstm1_gate_input_21 <- W_xc_x_21
I0912 20:44:47.480669 27276 net.cpp:433] lstm1_gate_input_21 -> gate_input_21
I0912 20:44:47.480702 27276 net.cpp:155] Setting up lstm1_gate_input_21
I0912 20:44:47.480715 27276 net.cpp:163] Top shape: 1 10 4000 (40000)
I0912 20:44:47.480725 27276 layer_factory.hpp:76] Creating layer lstm1_unit_21
I0912 20:44:47.480734 27276 net.cpp:110] Creating Layer lstm1_unit_21
I0912 20:44:47.480744 27276 net.cpp:477] lstm1_unit_21 <- c_20
I0912 20:44:47.480758 27276 net.cpp:477] lstm1_unit_21 <- gate_input_21
I0912 20:44:47.480765 27276 net.cpp:477] lstm1_unit_21 <- cont_21_lstm1_cont_slice_20_split_1
I0912 20:44:47.480773 27276 net.cpp:433] lstm1_unit_21 -> c_21
I0912 20:44:47.480782 27276 net.cpp:433] lstm1_unit_21 -> h_21
I0912 20:44:47.480792 27276 net.cpp:155] Setting up lstm1_unit_21
I0912 20:44:47.480803 27276 net.cpp:163] Top shape: 1 10 1000 (10000)
I0912 20:44:47.480813 27276 net.cpp:163] Top shape: 1 10 1000 (10000)
I0912 20:44:47.480823 27276 layer_factory.hpp:76] Creating layer h_21_lstm1_unit_21_1_split
I0912 20:44:47.480836 27276 net.cpp:110] Creating Layer h_21_lstm1_unit_21_1_split
I0912 20:44:47.480842 27276 net.cpp:477] h_21_lstm1_unit_21_1_split <- h_21
I0912 20:44:47.480849 27276 net.cpp:433] h_21_lstm1_unit_21_1_split -> h_21_lstm1_unit_21_1_split_0
I0912 20:44:47.480856 27276 net.cpp:433] h_21_lstm1_unit_21_1_split -> h_21_lstm1_unit_21_1_split_1
I0912 20:44:47.480865 27276 net.cpp:155] Setting up h_21_lstm1_unit_21_1_split
I0912 20:44:47.480871 27276 net.cpp:163] Top shape: 1 10 1000 (10000)
I0912 20:44:47.480880 27276 net.cpp:163] Top shape: 1 10 1000 (10000)
I0912 20:44:47.480883 27276 layer_factory.hpp:76] Creating layer lstm1_h_conted_21
I0912 20:44:47.480893 27276 net.cpp:110] Creating Layer lstm1_h_conted_21
I0912 20:44:47.480898 27276 net.cpp:477] lstm1_h_conted_21 <- h_21_lstm1_unit_21_1_split_0
I0912 20:44:47.480906 27276 net.cpp:477] lstm1_h_conted_21 <- cont_22_lstm1_cont_slice_21_split_0
I0912 20:44:47.480914 27276 net.cpp:433] lstm1_h_conted_21 -> h_conted_21
I0912 20:44:47.480973 27276 net.cpp:155] Setting up lstm1_h_conted_21
I0912 20:44:47.480981 27276 net.cpp:163] Top shape: 1 10 1000 (10000)
…
I0912 20:44:48.914813 27276 net.cpp:155] Setting up lstm2_gate_input_44
I0912 20:44:48.914824 27276 net.cpp:163] Top shape: 1 10 2048 (20480)
I0912 20:44:48.914834 27276 layer_factory.hpp:76] Creating layer lstm2_unit_44
I0912 20:44:48.914849 27276 net.cpp:110] Creating Layer lstm2_unit_44
I0912 20:44:48.914861 27276 net.cpp:477] lstm2_unit_44 <- c_43
I0912 20:44:48.914875 27276 net.cpp:477] lstm2_unit_44 <- gate_input_44
I0912 20:44:48.914888 27276 net.cpp:477] lstm2_unit_44 <- cont_44_lstm2_cont_slice_43_split_1
I0912 20:44:48.914903 27276 net.cpp:433] lstm2_unit_44 -> c_44
I0912 20:44:48.914921 27276 net.cpp:433] lstm2_unit_44 -> h_44
I0912 20:44:48.914940 27276 net.cpp:155] Setting up lstm2_unit_44
I0912 20:44:48.914952 27276 net.cpp:163] Top shape: 1 10 512 (5120)
I0912 20:44:48.914964 27276 net.cpp:163] Top shape: 1 10 512 (5120)
I0912 20:44:48.914974 27276 layer_factory.hpp:76] Creating layer h_44_lstm2_unit_44_1_split
I0912 20:44:48.914986 27276 net.cpp:110] Creating Layer h_44_lstm2_unit_44_1_split
I0912 20:44:48.914995 27276 net.cpp:477] h_44_lstm2_unit_44_1_split <- h_44
I0912 20:44:48.915009 27276 net.cpp:433] h_44_lstm2_unit_44_1_split -> h_44_lstm2_unit_44_1_split_0
I0912 20:44:48.915024 27276 net.cpp:433] h_44_lstm2_unit_44_1_split -> h_44_lstm2_unit_44_1_split_1
I0912 20:44:48.915040 27276 net.cpp:155] Setting up h_44_lstm2_unit_44_1_split
I0912 20:44:48.915052 27276 net.cpp:163] Top shape: 1 10 512 (5120)
I0912 20:44:48.915065 27276 net.cpp:163] Top shape: 1 10 512 (5120)
I0912 20:44:48.915074 27276 layer_factory.hpp:76] Creating layer lstm2_h_conted_44
I0912 20:44:48.915089 27276 net.cpp:110] Creating Layer lstm2_h_conted_44
I0912 20:44:48.915099 27276 net.cpp:477] lstm2_h_conted_44 <- h_44_lstm2_unit_44_1_split_0
I0912 20:44:48.915127 27276 net.cpp:477] lstm2_h_conted_44 <- cont_45_lstm2_cont_slice_44_split_0
I0912 20:44:48.915145 27276 net.cpp:433] lstm2_h_conted_44 -> h_conted_44
I0912 20:44:48.915213 27276 net.cpp:155] Setting up lstm2_h_conted_44
I0912 20:44:48.915225 27276 net.cpp:163] Top shape: 1 10 512 (5120)
I0912 20:44:48.915235 27276 layer_factory.hpp:76] Creating layer lstm2_transform_45
I0912 20:44:48.915251 27276 net.cpp:110] Creating Layer lstm2_transform_45
I0912 20:44:48.915261 27276 net.cpp:477] lstm2_transform_45 <- h_conted_44
I0912 20:44:48.915272 27276 net.cpp:433] lstm2_transform_45 -> W_hc_h_44
I0912 20:44:48.921494 27276 net.cpp:155] Setting up lstm2_transform_45
I0912 20:44:48.921533 27276 net.cpp:163] Top shape: 1 10 2048 (20480)
I0912 20:44:48.921546 27276 net.cpp:537] Sharing parameters 'W_hc' owned by layer 'lstm2_transform_1', param index 0
I0912 20:44:48.921556 27276 layer_factory.hpp:76] Creating layer lstm2_gate_input_45
I0912 20:44:48.921571 27276 net.cpp:110] Creating Layer lstm2_gate_input_45
I0912 20:44:48.921587 27276 net.cpp:477] lstm2_gate_input_45 <- W_hc_h_44
I0912 20:44:48.921602 27276 net.cpp:477] lstm2_gate_input_45 <- W_xc_x_45
I0912 20:44:48.921620 27276 net.cpp:433] lstm2_gate_input_45 -> gate_input_45
I0912 20:44:48.921643 27276 net.cpp:155] Setting up lstm2_gate_input_45
I0912 20:44:48.921654 27276 net.cpp:163] Top shape: 1 10 2048 (20480)
I0912 20:44:48.921663 27276 layer_factory.hpp:76] Creating layer lstm2_unit_45
I0912 20:44:48.921675 27276 net.cpp:110] Creating Layer lstm2_unit_45
I0912 20:44:48.921687 27276 net.cpp:477] lstm2_unit_45 <- c_44
I0912 20:44:48.921700 27276 net.cpp:477] lstm2_unit_45 <- gate_input_45
I0912 20:44:48.921713 27276 net.cpp:477] lstm2_unit_45 <- cont_45_lstm2_cont_slice_44_split_1
I0912 20:44:48.921730 27276 net.cpp:433] lstm2_unit_45 -> c_45
I0912 20:44:48.921748 27276 net.cpp:433] lstm2_unit_45 -> h_45
I0912 20:44:48.921766 27276 net.cpp:155] Setting up lstm2_unit_45
I0912 20:44:48.921777 27276 net.cpp:163] Top shape: 1 10 512 (5120)
I0912 20:44:48.921789 27276 net.cpp:163] Top shape: 1 10 512 (5120)
I0912 20:44:48.921799 27276 layer_factory.hpp:76] Creating layer h_45_lstm2_unit_45_1_split
I0912 20:44:48.921813 27276 net.cpp:110] Creating Layer h_45_lstm2_unit_45_1_split
I0912 20:44:48.921823 27276 net.cpp:477] h_45_lstm2_unit_45_1_split <- h_45
I0912 20:44:48.921834 27276 net.cpp:433] h_45_lstm2_unit_45_1_split -> h_45_lstm2_unit_45_1_split_0
I0912 20:44:48.921849 27276 net.cpp:433] h_45_lstm2_unit_45_1_split -> h_45_lstm2_unit_45_1_split_1
I0912 20:44:48.921866 27276 net.cpp:155] Setting up h_45_lstm2_unit_45_1_split
I0912 20:44:48.921879 27276 net.cpp:163] Top shape: 1 10 512 (5120)
I0912 20:44:48.921890 27276 net.cpp:163] Top shape: 1 10 512 (5120)
I0912 20:44:48.921900 27276 layer_factory.hpp:76] Creating layer lstm2_h_conted_45
I0912 20:44:48.921914 27276 net.cpp:110] Creating Layer lstm2_h_conted_45
I0912 20:44:48.921924 27276 net.cpp:477] lstm2_h_conted_45 <- h_45_lstm2_unit_45_1_split_0
I0912 20:44:48.921936 27276 net.cpp:477] lstm2_h_conted_45 <- cont_46_lstm2_cont_slice_45_split_0
I0912 20:44:48.921953 27276 net.cpp:433] lstm2_h_conted_45 -> h_conted_45
I0912 20:44:48.922018 27276 net.cpp:155] Setting up lstm2_h_conted_45
I0912 20:44:48.922030 27276 net.cpp:163] Top shape: 1 10 512 (5120)
I0912 20:44:48.922039 27276 layer_factory.hpp:76] Creating layer lstm2_transform_46
I0912 20:44:48.922054 27276 net.cpp:110] Creating Layer lstm2_transform_46
I0912 20:44:48.922065 27276 net.cpp:477] lstm2_transform_46 <- h_conted_45
I0912 20:44:48.922076 27276 net.cpp:433] lstm2_transform_46 -> W_hc_h_45
I0912 20:44:48.927984 27276 net.cpp:155] Setting up lstm2_transform_46
I0912 20:44:48.928019 27276 net.cpp:163] Top shape: 1 10 2048 (20480)
I0912 20:44:48.928030 27276 net.cpp:537] Sharing parameters 'W_hc' owned by layer 'lstm2_transform_1', param index 0
I0912 20:44:48.928040 27276 layer_factory.hpp:76] Creating layer lstm2_gate_input_46
I0912 20:44:48.928059 27276 net.cpp:110] Creating Layer lstm2_gate_input_46
I0912 20:44:48.928082 27276 net.cpp:477] lstm2_gate_input_46 <- W_hc_h_45
I0912 20:44:48.928098 27276 net.cpp:477] lstm2_gate_input_46 <- W_xc_x_46
I0912 20:44:48.928115 27276 net.cpp:433] lstm2_gate_input_46 -> gate_input_46
I0912 20:44:48.928138 27276 net.cpp:155] Setting up lstm2_gate_input_46
I0912 20:44:48.928149 27276 net.cpp:163] Top shape: 1 10 2048 (20480)
I0912 20:44:48.928160 27276 layer_factory.hpp:76] Creating layer lstm2_unit_46
I0912 20:44:48.928177 27276 net.cpp:110] Creating Layer lstm2_unit_46
I0912 20:44:48.928189 27276 net.cpp:477] lstm2_unit_46 <- c_45
I0912 20:44:48.928201 27276 net.cpp:477] lstm2_unit_46 <- gate_input_46
I0912 20:44:48.928215 27276 net.cpp:477] lstm2_unit_46 <- cont_46_lstm2_cont_slice_45_split_1
I0912 20:44:48.928228 27276 net.cpp:433] lstm2_unit_46 -> c_46
I0912 20:44:48.928246 27276 net.cpp:433] lstm2_unit_46 -> h_46
I0912 20:44:48.928264 27276 net.cpp:155] Setting up lstm2_unit_46
I0912 20:44:48.928277 27276 net.cpp:163] Top shape: 1 10 512 (5120)
I0912 20:44:48.928287 27276 net.cpp:163] Top shape: 1 10 512 (5120)
I0912 20:44:48.928298 27276 layer_factory.hpp:76] Creating layer h_46_lstm2_unit_46_1_split
I0912 20:44:48.928313 27276 net.cpp:110] Creating Layer h_46_lstm2_unit_46_1_split
I0912 20:44:48.928323 27276 net.cpp:477] h_46_lstm2_unit_46_1_split <- h_46
I0912 20:44:48.928334 27276 net.cpp:433] h_46_lstm2_unit_46_1_split -> h_46_lstm2_unit_46_1_split_0
I0912 20:44:48.928349 27276 net.cpp:433] h_46_lstm2_unit_46_1_split -> h_46_lstm2_unit_46_1_split_1
I0912 20:44:48.928365 27276 net.cpp:155] Setting up h_46_lstm2_unit_46_1_split
I0912 20:44:48.928377 27276 net.cpp:163] Top shape: 1 10 512 (5120)
I0912 20:44:48.928390 27276 net.cpp:163] Top shape: 1 10 512 (5120)
I0912 20:44:48.928398 27276 layer_factory.hpp:76] Creating layer lstm2_h_conted_46
I0912 20:44:48.928416 27276 net.cpp:110] Creating Layer lstm2_h_conted_46
I0912 20:44:48.928426 27276 net.cpp:477] lstm2_h_conted_46 <- h_46_lstm2_unit_46_1_split_0
I0912 20:44:48.928437 27276 net.cpp:477] lstm2_h_conted_46 <- cont_47_lstm2_cont_slice_46_split_0
I0912 20:44:48.928452 27276 net.cpp:433] lstm2_h_conted_46 -> h_conted_46
I0912 20:44:48.928515 27276 net.cpp:155] Setting up lstm2_h_conted_46
I0912 20:44:48.928529 27276 net.cpp:163] Top shape: 1 10 512 (5120)
I0912 20:44:48.928537 27276 layer_factory.hpp:76] Creating layer lstm2_transform_47
I0912 20:44:48.928552 27276 net.cpp:110] Creating Layer lstm2_transform_47
I0912 20:44:48.928563 27276 net.cpp:477] lstm2_transform_47 <- h_conted_46
I0912 20:44:48.928578 27276 net.cpp:433] lstm2_transform_47 -> W_hc_h_46
I0912 20:44:48.934512 27276 net.cpp:155] Setting up lstm2_transform_47
I0912 20:44:48.934547 27276 net.cpp:163] Top shape: 1 10 2048 (20480)
I0912 20:44:48.934561 27276 net.cpp:537] Sharing parameters 'W_hc' owned by layer 'lstm2_transform_1', param index 0
I0912 20:44:48.934571 27276 layer_factory.hpp:76] Creating layer lstm2_gate_input_47
I0912 20:44:48.934592 27276 net.cpp:110] Creating Layer lstm2_gate_input_47
I0912 20:44:48.934607 27276 net.cpp:477] lstm2_gate_input_47 <- W_hc_h_46
I0912 20:44:48.934623 27276 net.cpp:477] lstm2_gate_input_47 <- W_xc_x_47
I0912 20:44:48.934639 27276 net.cpp:433] lstm2_gate_input_47 -> gate_input_47
I0912 20:44:48.934661 27276 net.cpp:155] Setting up lstm2_gate_input_47
I0912 20:44:48.934672 27276 net.cpp:163] Top shape: 1 10 2048 (20480)
I0912 20:44:48.934682 27276 layer_factory.hpp:76] Creating layer lstm2_unit_47
I0912 20:44:48.934696 27276 net.cpp:110] Creating Layer lstm2_unit_47
I0912 20:44:48.934708 27276 net.cpp:477] lstm2_unit_47 <- c_46
I0912 20:44:48.934721 27276 net.cpp:477] lstm2_unit_47 <- gate_input_47
I0912 20:44:48.934734 27276 net.cpp:477] lstm2_unit_47 <- cont_47_lstm2_cont_slice_46_split_1
I0912 20:44:48.934749 27276 net.cpp:433] lstm2_unit_47 -> c_47
I0912 20:44:48.934767 27276 net.cpp:433] lstm2_unit_47 -> h_47
I0912 20:44:48.934784 27276 net.cpp:155] Setting up lstm2_unit_47
I0912 20:44:48.934797 27276 net.cpp:163] Top shape: 1 10 512 (5120)
I0912 20:44:48.934808 27276 net.cpp:163] Top shape: 1 10 512 (5120)
I0912 20:44:48.934829 27276 layer_factory.hpp:76] Creating layer h_47_lstm2_unit_47_1_split
I0912 20:44:48.934842 27276 net.cpp:110] Creating Layer h_47_lstm2_unit_47_1_split
I0912 20:44:48.934854 27276 net.cpp:477] h_47_lstm2_unit_47_1_split <- h_47
I0912 20:44:48.934867 27276 net.cpp:433] h_47_lstm2_unit_47_1_split -> h_47_lstm2_unit_47_1_split_0
I0912 20:44:48.934882 27276 net.cpp:433] h_47_lstm2_unit_47_1_split -> h_47_lstm2_unit_47_1_split_1
I0912 20:44:48.934898 27276 net.cpp:155] Setting up h_47_lstm2_unit_47_1_split
I0912 20:44:48.934911 27276 net.cpp:163] Top shape: 1 10 512 (5120)
I0912 20:44:48.934921 27276 net.cpp:163] Top shape: 1 10 512 (5120)
I0912 20:44:48.934931 27276 layer_factory.hpp:76] Creating layer lstm2_h_conted_47
I0912 20:44:48.934947 27276 net.cpp:110] Creating Layer lstm2_h_conted_47
I0912 20:44:48.934955 27276 net.cpp:477] lstm2_h_conted_47 <- h_47_lstm2_unit_47_1_split_0
I0912 20:44:48.934967 27276 net.cpp:477] lstm2_h_conted_47 <- cont_48_lstm2_cont_slice_47_split_0
I0912 20:44:48.934981 27276 net.cpp:433] lstm2_h_conted_47 -> h_conted_47
I0912 20:44:48.935042 27276 net.cpp:155] Setting up lstm2_h_conted_47
I0912 20:44:48.935055 27276 net.cpp:163] Top shape: 1 10 512 (5120)
I0912 20:44:48.935063 27276 layer_factory.hpp:76] Creating layer lstm2_transform_48
I0912 20:44:48.935081 27276 net.cpp:110] Creating Layer lstm2_transform_48
I0912 20:44:48.935091 27276 net.cpp:477] lstm2_transform_48 <- h_conted_47
I0912 20:44:48.935103 27276 net.cpp:433] lstm2_transform_48 -> W_hc_h_47
I0912 20:44:48.941411 27276 net.cpp:155] Setting up lstm2_transform_48
I0912 20:44:48.941447 27276 net.cpp:163] Top shape: 1 10 2048 (20480)
I0912 20:44:48.941459 27276 net.cpp:537] Sharing parameters 'W_hc' owned by layer 'lstm2_transform_1', param index 0
I0912 20:44:48.941469 27276 layer_factory.hpp:76] Creating layer lstm2_gate_input_48
I0912 20:44:48.941485 27276 net.cpp:110] Creating Layer lstm2_gate_input_48
I0912 20:44:48.941500 27276 net.cpp:477] lstm2_gate_input_48 <- W_hc_h_47
I0912 20:44:48.941517 27276 net.cpp:477] lstm2_gate_input_48 <- W_xc_x_48
I0912 20:44:48.941536 27276 net.cpp:433] lstm2_gate_input_48 -> gate_input_48
I0912 20:44:48.941560 27276 net.cpp:155] Setting up lstm2_gate_input_48
I0912 20:44:48.941571 27276 net.cpp:163] Top shape: 1 10 2048 (20480)
I0912 20:44:48.941581 27276 layer_factory.hpp:76] Creating layer lstm2_unit_48
I0912 20:44:48.941593 27276 net.cpp:110] Creating Layer lstm2_unit_48
I0912 20:44:48.941606 27276 net.cpp:477] lstm2_unit_48 <- c_47
I0912 20:44:48.941619 27276 net.cpp:477] lstm2_unit_48 <- gate_input_48
I0912 20:44:48.941632 27276 net.cpp:477] lstm2_unit_48 <- cont_48_lstm2_cont_slice_47_split_1
I0912 20:44:48.941648 27276 net.cpp:433] lstm2_unit_48 -> c_48
I0912 20:44:48.941668 27276 net.cpp:433] lstm2_unit_48 -> h_48
I0912 20:44:48.941685 27276 net.cpp:155] Setting up lstm2_unit_48
I0912 20:44:48.941697 27276 net.cpp:163] Top shape: 1 10 512 (5120)
I0912 20:44:48.941709 27276 net.cpp:163] Top shape: 1 10 512 (5120)
I0912 20:44:48.941720 27276 layer_factory.hpp:76] Creating layer h_48_lstm2_unit_48_1_split
I0912 20:44:48.941732 27276 net.cpp:110] Creating Layer h_48_lstm2_unit_48_1_split
I0912 20:44:48.941742 27276 net.cpp:477] h_48_lstm2_unit_48_1_split <- h_48
I0912 20:44:48.941754 27276 net.cpp:433] h_48_lstm2_unit_48_1_split -> h_48_lstm2_unit_48_1_split_0
I0912 20:44:48.941768 27276 net.cpp:433] h_48_lstm2_unit_48_1_split -> h_48_lstm2_unit_48_1_split_1
I0912 20:44:48.941784 27276 net.cpp:155] Setting up h_48_lstm2_unit_48_1_split
I0912 20:44:48.941797 27276 net.cpp:163] Top shape: 1 10 512 (5120)
I0912 20:44:48.941808 27276 net.cpp:163] Top shape: 1 10 512 (5120)
I0912 20:44:48.941818 27276 layer_factory.hpp:76] Creating layer lstm2_h_conted_48
I0912 20:44:48.941833 27276 net.cpp:110] Creating Layer lstm2_h_conted_48
I0912 20:44:48.941843 27276 net.cpp:477] lstm2_h_conted_48 <- h_48_lstm2_unit_48_1_split_0
I0912 20:44:48.941854 27276 net.cpp:477] lstm2_h_conted_48 <- cont_49_lstm2_cont_slice_48_split_0
I0912 20:44:48.941875 27276 net.cpp:433] lstm2_h_conted_48 -> h_conted_48
I0912 20:44:48.941954 27276 net.cpp:155] Setting up lstm2_h_conted_48
I0912 20:44:48.941967 27276 net.cpp:163] Top shape: 1 10 512 (5120)
I0912 20:44:48.941977 27276 layer_factory.hpp:76] Creating layer lstm2_transform_49
I0912 20:44:48.941992 27276 net.cpp:110] Creating Layer lstm2_transform_49
I0912 20:44:48.942001 27276 net.cpp:477] lstm2_transform_49 <- h_conted_48
I0912 20:44:48.942014 27276 net.cpp:433] lstm2_transform_49 -> W_hc_h_48
I0912 20:44:48.948037 27276 net.cpp:155] Setting up lstm2_transform_49
I0912 20:44:48.948078 27276 net.cpp:163] Top shape: 1 10 2048 (20480)
I0912 20:44:48.948091 27276 net.cpp:537] Sharing parameters 'W_hc' owned by layer 'lstm2_transform_1', param index 0
I0912 20:44:48.948101 27276 layer_factory.hpp:76] Creating layer lstm2_gate_input_49
I0912 20:44:48.948117 27276 net.cpp:110] Creating Layer lstm2_gate_input_49
I0912 20:44:48.948132 27276 net.cpp:477] lstm2_gate_input_49 <- W_hc_h_48
I0912 20:44:48.948148 27276 net.cpp:477] lstm2_gate_input_49 <- W_xc_x_49
I0912 20:44:48.948168 27276 net.cpp:433] lstm2_gate_input_49 -> gate_input_49
I0912 20:44:48.948190 27276 net.cpp:155] Setting up lstm2_gate_input_49
I0912 20:44:48.948201 27276 net.cpp:163] Top shape: 1 10 2048 (20480)
I0912 20:44:48.948210 27276 layer_factory.hpp:76] Creating layer lstm2_unit_49
I0912 20:44:48.948225 27276 net.cpp:110] Creating Layer lstm2_unit_49
I0912 20:44:48.948238 27276 net.cpp:477] lstm2_unit_49 <- c_48
I0912 20:44:48.948249 27276 net.cpp:477] lstm2_unit_49 <- gate_input_49
I0912 20:44:48.948262 27276 net.cpp:477] lstm2_unit_49 <- cont_49_lstm2_cont_slice_48_split_1
I0912 20:44:48.948276 27276 net.cpp:433] lstm2_unit_49 -> c_49
I0912 20:44:48.948294 27276 net.cpp:433] lstm2_unit_49 -> h_49
I0912 20:44:48.948312 27276 net.cpp:155] Setting up lstm2_unit_49
I0912 20:44:48.948323 27276 net.cpp:163] Top shape: 1 10 512 (5120)
I0912 20:44:48.948335 27276 net.cpp:163] Top shape: 1 10 512 (5120)
I0912 20:44:48.948345 27276 layer_factory.hpp:76] Creating layer h_49_lstm2_unit_49_1_split
I0912 20:44:48.948359 27276 net.cpp:110] Creating Layer h_49_lstm2_unit_49_1_split
I0912 20:44:48.948369 27276 net.cpp:477] h_49_lstm2_unit_49_1_split <- h_49
I0912 20:44:48.948381 27276 net.cpp:433] h_49_lstm2_unit_49_1_split -> h_49_lstm2_unit_49_1_split_0
I0912 20:44:48.948396 27276 net.cpp:433] h_49_lstm2_unit_49_1_split -> h_49_lstm2_unit_49_1_split_1
I0912 20:44:48.948413 27276 net.cpp:155] Setting up h_49_lstm2_unit_49_1_split
I0912 20:44:48.948426 27276 net.cpp:163] Top shape: 1 10 512 (5120)
I0912 20:44:48.948436 27276 net.cpp:163] Top shape: 1 10 512 (5120)
I0912 20:44:48.948447 27276 layer_factory.hpp:76] Creating layer lstm2_h_conted_49
I0912 20:44:48.948462 27276 net.cpp:110] Creating Layer lstm2_h_conted_49
I0912 20:44:48.948472 27276 net.cpp:477] lstm2_h_conted_49 <- h_49_lstm2_unit_49_1_split_0
I0912 20:44:48.948482 27276 net.cpp:477] lstm2_h_conted_49 <- cont_50_lstm2_cont_slice_49_split_0
I0912 20:44:48.948499 27276 net.cpp:433] lstm2_h_conted_49 -> h_conted_49
I0912 20:44:48.948565 27276 net.cpp:155] Setting up lstm2_h_conted_49
I0912 20:44:48.948576 27276 net.cpp:163] Top shape: 1 10 512 (5120)
I0912 20:44:48.948585 27276 layer_factory.hpp:76] Creating layer lstm2_transform_50
I0912 20:44:48.948601 27276 net.cpp:110] Creating Layer lstm2_transform_50
I0912 20:44:48.948611 27276 net.cpp:477] lstm2_transform_50 <- h_conted_49
I0912 20:44:48.948626 27276 net.cpp:433] lstm2_transform_50 -> W_hc_h_49
I0912 20:44:48.954644 27276 net.cpp:155] Setting up lstm2_transform_50
I0912 20:44:48.954686 27276 net.cpp:163] Top shape: 1 10 2048 (20480)
I0912 20:44:48.954699 27276 net.cpp:537] Sharing parameters 'W_hc' owned by layer 'lstm2_transform_1', param index 0
I0912 20:44:48.954710 27276 layer_factory.hpp:76] Creating layer lstm2_gate_input_50
I0912 20:44:48.954726 27276 net.cpp:110] Creating Layer lstm2_gate_input_50
I0912 20:44:48.954741 27276 net.cpp:477] lstm2_gate_input_50 <- W_hc_h_49
I0912 20:44:48.954761 27276 net.cpp:477] lstm2_gate_input_50 <- W_xc_x_50
I0912 20:44:48.954798 27276 net.cpp:433] lstm2_gate_input_50 -> gate_input_50
I0912 20:44:48.954824 27276 net.cpp:155] Setting up lstm2_gate_input_50
I0912 20:44:48.954836 27276 net.cpp:163] Top shape: 1 10 2048 (20480)
I0912 20:44:48.954844 27276 layer_factory.hpp:76] Creating layer lstm2_unit_50
I0912 20:44:48.954859 27276 net.cpp:110] Creating Layer lstm2_unit_50
I0912 20:44:48.954870 27276 net.cpp:477] lstm2_unit_50 <- c_49
I0912 20:44:48.954884 27276 net.cpp:477] lstm2_unit_50 <- gate_input_50
I0912 20:44:48.954896 27276 net.cpp:477] lstm2_unit_50 <- cont_50_lstm2_cont_slice_49_split_1
I0912 20:44:48.954911 27276 net.cpp:433] lstm2_unit_50 -> c_50
I0912 20:44:48.954929 27276 net.cpp:433] lstm2_unit_50 -> h_50
I0912 20:44:48.954946 27276 net.cpp:155] Setting up lstm2_unit_50
I0912 20:44:48.954958 27276 net.cpp:163] Top shape: 1 10 512 (5120)
I0912 20:44:48.954970 27276 net.cpp:163] Top shape: 1 10 512 (5120)
I0912 20:44:48.954980 27276 layer_factory.hpp:76] Creating layer h_50_lstm2_unit_50_1_split
I0912 20:44:48.954991 27276 net.cpp:110] Creating Layer h_50_lstm2_unit_50_1_split
I0912 20:44:48.955001 27276 net.cpp:477] h_50_lstm2_unit_50_1_split <- h_50
I0912 20:44:48.955016 27276 net.cpp:433] h_50_lstm2_unit_50_1_split -> h_50_lstm2_unit_50_1_split_0
I0912 20:44:48.955031 27276 net.cpp:433] h_50_lstm2_unit_50_1_split -> h_50_lstm2_unit_50_1_split_1
I0912 20:44:48.955047 27276 net.cpp:155] Setting up h_50_lstm2_unit_50_1_split
I0912 20:44:48.955060 27276 net.cpp:163] Top shape: 1 10 512 (5120)
I0912 20:44:48.955071 27276 net.cpp:163] Top shape: 1 10 512 (5120)
I0912 20:44:48.955082 27276 layer_factory.hpp:76] Creating layer lstm2_h_conted_50
I0912 20:44:48.955096 27276 net.cpp:110] Creating Layer lstm2_h_conted_50
I0912 20:44:48.955106 27276 net.cpp:477] lstm2_h_conted_50 <- h_50_lstm2_unit_50_1_split_0
I0912 20:44:48.955117 27276 net.cpp:477] lstm2_h_conted_50 <- cont_51_lstm2_cont_slice_50_split_0
I0912 20:44:48.955132 27276 net.cpp:433] lstm2_h_conted_50 -> h_conted_50
I0912 20:44:48.955209 27276 net.cpp:155] Setting up lstm2_h_conted_50
I0912 20:44:48.955221 27276 net.cpp:163] Top shape: 1 10 512 (5120)
I0912 20:44:48.955229 27276 layer_factory.hpp:76] Creating layer lstm2_transform_51
I0912 20:44:48.955248 27276 net.cpp:110] Creating Layer lstm2_transform_51
I0912 20:44:48.955257 27276 net.cpp:477] lstm2_transform_51 <- h_conted_50
I0912 20:44:48.955271 27276 net.cpp:433] lstm2_transform_51 -> W_hc_h_50
I0912 20:44:48.961498 27276 net.cpp:155] Setting up lstm2_transform_51
I0912 20:44:48.961535 27276 net.cpp:163] Top shape: 1 10 2048 (20480)
I0912 20:44:48.961549 27276 net.cpp:537] Sharing parameters 'W_hc' owned by layer 'lstm2_transform_1', param index 0
I0912 20:44:48.961558 27276 layer_factory.hpp:76] Creating layer lstm2_gate_input_51
I0912 20:44:48.961575 27276 net.cpp:110] Creating Layer lstm2_gate_input_51
I0912 20:44:48.961588 27276 net.cpp:477] lstm2_gate_input_51 <- W_hc_h_50
I0912 20:44:48.961603 27276 net.cpp:477] lstm2_gate_input_51 <- W_xc_x_51
I0912 20:44:48.961621 27276 net.cpp:433] lstm2_gate_input_51 -> gate_input_51
I0912 20:44:48.961645 27276 net.cpp:155] Setting up lstm2_gate_input_51
I0912 20:44:48.961657 27276 net.cpp:163] Top shape: 1 10 2048 (20480)
I0912 20:44:48.961665 27276 layer_factory.hpp:76] Creating layer lstm2_unit_51
I0912 20:44:48.961678 27276 net.cpp:110] Creating Layer lstm2_unit_51
I0912 20:44:48.961691 27276 net.cpp:477] lstm2_unit_51 <- c_50
I0912 20:44:48.961704 27276 net.cpp:477] lstm2_unit_51 <- gate_input_51
I0912 20:44:48.961717 27276 net.cpp:477] lstm2_unit_51 <- cont_51_lstm2_cont_slice_50_split_1
I0912 20:44:48.961731 27276 net.cpp:433] lstm2_unit_51 -> c_51
I0912 20:44:48.961750 27276 net.cpp:433] lstm2_unit_51 -> h_51
I0912 20:44:48.961766 27276 net.cpp:155] Setting up lstm2_unit_51
I0912 20:44:48.961778 27276 net.cpp:163] Top shape: 1 10 512 (5120)
I0912 20:44:48.961789 27276 net.cpp:163] Top shape: 1 10 512 (5120)
I0912 20:44:48.961801 27276 layer_factory.hpp:76] Creating layer h_51_lstm2_unit_51_1_split
I0912 20:44:48.961817 27276 net.cpp:110] Creating Layer h_51_lstm2_unit_51_1_split
I0912 20:44:48.961838 27276 net.cpp:477] h_51_lstm2_unit_51_1_split <- h_51
I0912 20:44:48.961850 27276 net.cpp:433] h_51_lstm2_unit_51_1_split -> h_51_lstm2_unit_51_1_split_0
I0912 20:44:48.961865 27276 net.cpp:433] h_51_lstm2_unit_51_1_split -> h_51_lstm2_unit_51_1_split_1
I0912 20:44:48.961881 27276 net.cpp:155] Setting up h_51_lstm2_unit_51_1_split
I0912 20:44:48.961894 27276 net.cpp:163] Top shape: 1 10 512 (5120)
I0912 20:44:48.961905 27276 net.cpp:163] Top shape: 1 10 512 (5120)
I0912 20:44:48.961915 27276 layer_factory.hpp:76] Creating layer lstm2_h_conted_51
I0912 20:44:48.961930 27276 net.cpp:110] Creating Layer lstm2_h_conted_51
I0912 20:44:48.961940 27276 net.cpp:477] lstm2_h_conted_51 <- h_51_lstm2_unit_51_1_split_0
I0912 20:44:48.961951 27276 net.cpp:477] lstm2_h_conted_51 <- cont_52_lstm2_cont_slice_51_split_0
I0912 20:44:48.961966 27276 net.cpp:433] lstm2_h_conted_51 -> h_conted_51
I0912 20:44:48.962033 27276 net.cpp:155] Setting up lstm2_h_conted_51
I0912 20:44:48.962046 27276 net.cpp:163] Top shape: 1 10 512 (5120)
I0912 20:44:48.962054 27276 layer_factory.hpp:76] Creating layer lstm2_transform_52
I0912 20:44:48.962069 27276 net.cpp:110] Creating Layer lstm2_transform_52
I0912 20:44:48.962080 27276 net.cpp:477] lstm2_transform_52 <- h_conted_51
I0912 20:44:48.962092 27276 net.cpp:433] lstm2_transform_52 -> W_hc_h_51
I0912 20:44:48.968068 27276 net.cpp:155] Setting up lstm2_transform_52
I0912 20:44:48.968103 27276 net.cpp:163] Top shape: 1 10 2048 (20480)
I0912 20:44:48.968116 27276 net.cpp:537] Sharing parameters 'W_hc' owned by layer 'lstm2_transform_1', param index 0
I0912 20:44:48.968127 27276 layer_factory.hpp:76] Creating layer lstm2_gate_input_52
I0912 20:44:48.968142 27276 net.cpp:110] Creating Layer lstm2_gate_input_52
I0912 20:44:48.968157 27276 net.cpp:477] lstm2_gate_input_52 <- W_hc_h_51
I0912 20:44:48.968173 27276 net.cpp:477] lstm2_gate_input_52 <- W_xc_x_52
I0912 20:44:48.968190 27276 net.cpp:433] lstm2_gate_input_52 -> gate_input_52
I0912 20:44:48.968211 27276 net.cpp:155] Setting up lstm2_gate_input_52
I0912 20:44:48.968222 27276 net.cpp:163] Top shape: 1 10 2048 (20480)
I0912 20:44:48.968231 27276 layer_factory.hpp:76] Creating layer lstm2_unit_52
I0912 20:44:48.968247 27276 net.cpp:110] Creating Layer lstm2_unit_52
I0912 20:44:48.968258 27276 net.cpp:477] lstm2_unit_52 <- c_51
I0912 20:44:48.968271 27276 net.cpp:477] lstm2_unit_52 <- gate_input_52
I0912 20:44:48.968283 27276 net.cpp:477] lstm2_unit_52 <- cont_52_lstm2_cont_slice_51_split_1
I0912 20:44:48.968298 27276 net.cpp:433] lstm2_unit_52 -> c_52
I0912 20:44:48.968317 27276 net.cpp:433] lstm2_unit_52 -> h_52
I0912 20:44:48.968333 27276 net.cpp:155] Setting up lstm2_unit_52
I0912 20:44:48.968345 27276 net.cpp:163] Top shape: 1 10 512 (5120)
I0912 20:44:48.968356 27276 net.cpp:163] Top shape: 1 10 512 (5120)
I0912 20:44:48.968366 27276 layer_factory.hpp:76] Creating layer h_52_lstm2_unit_52_1_split
I0912 20:44:48.968380 27276 net.cpp:110] Creating Layer h_52_lstm2_unit_52_1_split
I0912 20:44:48.968390 27276 net.cpp:477] h_52_lstm2_unit_52_1_split <- h_52
I0912 20:44:48.968401 27276 net.cpp:433] h_52_lstm2_unit_52_1_split -> h_52_lstm2_unit_52_1_split_0
I0912 20:44:48.968416 27276 net.cpp:433] h_52_lstm2_unit_52_1_split -> h_52_lstm2_unit_52_1_split_1
I0912 20:44:48.968432 27276 net.cpp:155] Setting up h_52_lstm2_unit_52_1_split
I0912 20:44:48.968444 27276 net.cpp:163] Top shape: 1 10 512 (5120)
I0912 20:44:48.968456 27276 net.cpp:163] Top shape: 1 10 512 (5120)
I0912 20:44:48.968466 27276 layer_factory.hpp:76] Creating layer lstm2_h_conted_52
I0912 20:44:48.968480 27276 net.cpp:110] Creating Layer lstm2_h_conted_52
I0912 20:44:48.968489 27276 net.cpp:477] lstm2_h_conted_52 <- h_52_lstm2_unit_52_1_split_0
I0912 20:44:48.968500 27276 net.cpp:477] lstm2_h_conted_52 <- cont_53_lstm2_cont_slice_52_split_0
I0912 20:44:48.968514 27276 net.cpp:433] lstm2_h_conted_52 -> h_conted_52
I0912 20:44:48.968575 27276 net.cpp:155] Setting up lstm2_h_conted_52
I0912 20:44:48.968587 27276 net.cpp:163] Top shape: 1 10 512 (5120)
I0912 20:44:48.968608 27276 layer_factory.hpp:76] Creating layer lstm2_transform_53
I0912 20:44:48.968622 27276 net.cpp:110] Creating Layer lstm2_transform_53
I0912 20:44:48.968631 27276 net.cpp:477] lstm2_transform_53 <- h_conted_52
I0912 20:44:48.968647 27276 net.cpp:433] lstm2_transform_53 -> W_hc_h_52
I0912 20:44:48.974563 27276 net.cpp:155] Setting up lstm2_transform_53
I0912 20:44:48.974597 27276 net.cpp:163] Top shape: 1 10 2048 (20480)
I0912 20:44:48.974611 27276 net.cpp:537] Sharing parameters 'W_hc' owned by layer 'lstm2_transform_1', param index 0
I0912 20:44:48.974620 27276 layer_factory.hpp:76] Creating layer lstm2_gate_input_53
I0912 20:44:48.974634 27276 net.cpp:110] Creating Layer lstm2_gate_input_53
I0912 20:44:48.974648 27276 net.cpp:477] lstm2_gate_input_53 <- W_hc_h_52
I0912 20:44:48.974664 27276 net.cpp:477] lstm2_gate_input_53 <- W_xc_x_53
I0912 20:44:48.974689 27276 net.cpp:433] lstm2_gate_input_53 -> gate_input_53
I0912 20:44:48.974710 27276 net.cpp:155] Setting up lstm2_gate_input_53
I0912 20:44:48.974721 27276 net.cpp:163] Top shape: 1 10 2048 (20480)
I0912 20:44:48.974731 27276 layer_factory.hpp:76] Creating layer lstm2_unit_53
I0912 20:44:48.974745 27276 net.cpp:110] Creating Layer lstm2_unit_53
I0912 20:44:48.974757 27276 net.cpp:477] lstm2_unit_53 <- c_52
I0912 20:44:48.974769 27276 net.cpp:477] lstm2_unit_53 <- gate_input_53
I0912 20:44:48.974783 27276 net.cpp:477] lstm2_unit_53 <- cont_53_lstm2_cont_slice_52_split_1
I0912 20:44:48.974797 27276 net.cpp:433] lstm2_unit_53 -> c_53
I0912 20:44:48.974815 27276 net.cpp:433] lstm2_unit_53 -> h_53
I0912 20:44:48.974833 27276 net.cpp:155] Setting up lstm2_unit_53
I0912 20:44:48.974844 27276 net.cpp:163] Top shape: 1 10 512 (5120)
I0912 20:44:48.974856 27276 net.cpp:163] Top shape: 1 10 512 (5120)
I0912 20:44:48.974866 27276 layer_factory.hpp:76] Creating layer h_53_lstm2_unit_53_1_split
I0912 20:44:48.974880 27276 net.cpp:110] Creating Layer h_53_lstm2_unit_53_1_split
I0912 20:44:48.974890 27276 net.cpp:477] h_53_lstm2_unit_53_1_split <- h_53
I0912 20:44:48.974905 27276 net.cpp:433] h_53_lstm2_unit_53_1_split -> h_53_lstm2_unit_53_1_split_0
I0912 20:44:48.974920 27276 net.cpp:433] h_53_lstm2_unit_53_1_split -> h_53_lstm2_unit_53_1_split_1
I0912 20:44:48.974936 27276 net.cpp:155] Setting up h_53_lstm2_unit_53_1_split
I0912 20:44:48.974949 27276 net.cpp:163] Top shape: 1 10 512 (5120)
I0912 20:44:48.974961 27276 net.cpp:163] Top shape: 1 10 512 (5120)
I0912 20:44:48.974970 27276 layer_factory.hpp:76] Creating layer lstm2_h_conted_53
I0912 20:44:48.974984 27276 net.cpp:110] Creating Layer lstm2_h_conted_53
I0912 20:44:48.974994 27276 net.cpp:477] lstm2_h_conted_53 <- h_53_lstm2_unit_53_1_split_0
I0912 20:44:48.975005 27276 net.cpp:477] lstm2_h_conted_53 <- cont_54_lstm2_cont_slice_53_split_0
I0912 20:44:48.975021 27276 net.cpp:433] lstm2_h_conted_53 -> h_conted_53
I0912 20:44:48.975080 27276 net.cpp:155] Setting up lstm2_h_conted_53
I0912 20:44:48.975091 27276 net.cpp:163] Top shape: 1 10 512 (5120)
I0912 20:44:48.975100 27276 layer_factory.hpp:76] Creating layer lstm2_transform_54
I0912 20:44:48.975118 27276 net.cpp:110] Creating Layer lstm2_transform_54
I0912 20:44:48.975127 27276 net.cpp:477] lstm2_transform_54 <- h_conted_53
I0912 20:44:48.975141 27276 net.cpp:433] lstm2_transform_54 -> W_hc_h_53
I0912 20:44:48.981379 27276 net.cpp:155] Setting up lstm2_transform_54
I0912 20:44:48.981418 27276 net.cpp:163] Top shape: 1 10 2048 (20480)
I0912 20:44:48.981432 27276 net.cpp:537] Sharing parameters 'W_hc' owned by layer 'lstm2_transform_1', param index 0
I0912 20:44:48.981443 27276 layer_factory.hpp:76] Creating layer lstm2_gate_input_54
I0912 20:44:48.981470 27276 net.cpp:110] Creating Layer lstm2_gate_input_54
I0912 20:44:48.981484 27276 net.cpp:477] lstm2_gate_input_54 <- W_hc_h_53
I0912 20:44:48.981499 27276 net.cpp:477] lstm2_gate_input_54 <- W_xc_x_54
I0912 20:44:48.981518 27276 net.cpp:433] lstm2_gate_input_54 -> gate_input_54
I0912 20:44:48.981542 27276 net.cpp:155] Setting up lstm2_gate_input_54
I0912 20:44:48.981554 27276 net.cpp:163] Top shape: 1 10 2048 (20480)
I0912 20:44:48.981581 27276 layer_factory.hpp:76] Creating layer lstm2_unit_54
I0912 20:44:48.981596 27276 net.cpp:110] Creating Layer lstm2_unit_54
I0912 20:44:48.981611 27276 net.cpp:477] lstm2_unit_54 <- c_53
I0912 20:44:48.981623 27276 net.cpp:477] lstm2_unit_54 <- gate_input_54
I0912 20:44:48.981637 27276 net.cpp:477] lstm2_unit_54 <- cont_54_lstm2_cont_slice_53_split_1
I0912 20:44:48.981652 27276 net.cpp:433] lstm2_unit_54 -> c_54
I0912 20:44:48.981672 27276 net.cpp:433] lstm2_unit_54 -> h_54
I0912 20:44:48.981689 27276 net.cpp:155] Setting up lstm2_unit_54
I0912 20:44:48.981701 27276 net.cpp:163] Top shape: 1 10 512 (5120)
I0912 20:44:48.981714 27276 net.cpp:163] Top shape: 1 10 512 (5120)
I0912 20:44:48.981724 27276 layer_factory.hpp:76] Creating layer h_54_lstm2_unit_54_1_split
I0912 20:44:48.981740 27276 net.cpp:110] Creating Layer h_54_lstm2_unit_54_1_split
I0912 20:44:48.981750 27276 net.cpp:477] h_54_lstm2_unit_54_1_split <- h_54
I0912 20:44:48.981762 27276 net.cpp:433] h_54_lstm2_unit_54_1_split -> h_54_lstm2_unit_54_1_split_0
I0912 20:44:48.981777 27276 net.cpp:433] h_54_lstm2_unit_54_1_split -> h_54_lstm2_unit_54_1_split_1
I0912 20:44:48.981793 27276 net.cpp:155] Setting up h_54_lstm2_unit_54_1_split
I0912 20:44:48.981806 27276 net.cpp:163] Top shape: 1 10 512 (5120)
I0912 20:44:48.981817 27276 net.cpp:163] Top shape: 1 10 512 (5120)
I0912 20:44:48.981827 27276 layer_factory.hpp:76] Creating layer lstm2_h_conted_54
I0912 20:44:48.981842 27276 net.cpp:110] Creating Layer lstm2_h_conted_54
I0912 20:44:48.981853 27276 net.cpp:477] lstm2_h_conted_54 <- h_54_lstm2_unit_54_1_split_0
I0912 20:44:48.981863 27276 net.cpp:477] lstm2_h_conted_54 <- cont_55_lstm2_cont_slice_54_split_0
I0912 20:44:48.981879 27276 net.cpp:433] lstm2_h_conted_54 -> h_conted_54
I0912 20:44:48.981948 27276 net.cpp:155] Setting up lstm2_h_conted_54
I0912 20:44:48.981961 27276 net.cpp:163] Top shape: 1 10 512 (5120)
I0912 20:44:48.981969 27276 layer_factory.hpp:76] Creating layer lstm2_transform_55
I0912 20:44:48.981984 27276 net.cpp:110] Creating Layer lstm2_transform_55
I0912 20:44:48.981995 27276 net.cpp:477] lstm2_transform_55 <- h_conted_54
I0912 20:44:48.982009 27276 net.cpp:433] lstm2_transform_55 -> W_hc_h_54
I0912 20:44:48.988219 27276 net.cpp:155] Setting up lstm2_transform_55
I0912 20:44:48.988250 27276 net.cpp:163] Top shape: 1 10 2048 (20480)
I0912 20:44:48.988261 27276 net.cpp:537] Sharing parameters 'W_hc' owned by layer 'lstm2_transform_1', param index 0
I0912 20:44:48.988271 27276 layer_factory.hpp:76] Creating layer lstm2_gate_input_55
I0912 20:44:48.988286 27276 net.cpp:110] Creating Layer lstm2_gate_input_55
I0912 20:44:48.988301 27276 net.cpp:477] lstm2_gate_input_55 <- W_hc_h_54
I0912 20:44:48.988317 27276 net.cpp:477] lstm2_gate_input_55 <- W_xc_x_55
I0912 20:44:48.988334 27276 net.cpp:433] lstm2_gate_input_55 -> gate_input_55
I0912 20:44:48.988358 27276 net.cpp:155] Setting up lstm2_gate_input_55
I0912 20:44:48.988369 27276 net.cpp:163] Top shape: 1 10 2048 (20480)
I0912 20:44:48.988378 27276 layer_factory.hpp:76] Creating layer lstm2_unit_55
I0912 20:44:48.988390 27276 net.cpp:110] Creating Layer lstm2_unit_55
I0912 20:44:48.988404 27276 net.cpp:477] lstm2_unit_55 <- c_54
I0912 20:44:48.988420 27276 net.cpp:477] lstm2_unit_55 <- gate_input_55
I0912 20:44:48.988433 27276 net.cpp:477] lstm2_unit_55 <- cont_55_lstm2_cont_slice_54_split_1
I0912 20:44:48.988448 27276 net.cpp:433] lstm2_unit_55 -> c_55
I0912 20:44:48.988466 27276 net.cpp:433] lstm2_unit_55 -> h_55
I0912 20:44:48.988482 27276 net.cpp:155] Setting up lstm2_unit_55
I0912 20:44:48.988495 27276 net.cpp:163] Top shape: 1 10 512 (5120)
I0912 20:44:48.988507 27276 net.cpp:163] Top shape: 1 10 512 (5120)
I0912 20:44:48.988517 27276 layer_factory.hpp:76] Creating layer h_55_lstm2_unit_55_1_split
I0912 20:44:48.988530 27276 net.cpp:110] Creating Layer h_55_lstm2_unit_55_1_split
I0912 20:44:48.988541 27276 net.cpp:477] h_55_lstm2_unit_55_1_split <- h_55
I0912 20:44:48.988554 27276 net.cpp:433] h_55_lstm2_unit_55_1_split -> h_55_lstm2_unit_55_1_split_0
I0912 20:44:48.988579 27276 net.cpp:433] h_55_lstm2_unit_55_1_split -> h_55_lstm2_unit_55_1_split_1
I0912 20:44:48.988593 27276 net.cpp:155] Setting up h_55_lstm2_unit_55_1_split
I0912 20:44:48.988606 27276 net.cpp:163] Top shape: 1 10 512 (5120)
I0912 20:44:48.988618 27276 net.cpp:163] Top shape: 1 10 512 (5120)
I0912 20:44:48.988627 27276 layer_factory.hpp:76] Creating layer lstm2_h_conted_55
I0912 20:44:48.988644 27276 net.cpp:110] Creating Layer lstm2_h_conted_55
I0912 20:44:48.988654 27276 net.cpp:477] lstm2_h_conted_55 <- h_55_lstm2_unit_55_1_split_0
I0912 20:44:48.988667 27276 net.cpp:477] lstm2_h_conted_55 <- cont_56_lstm2_cont_slice_55_split_0
I0912 20:44:48.988682 27276 net.cpp:433] lstm2_h_conted_55 -> h_conted_55
I0912 20:44:48.988739 27276 net.cpp:155] Setting up lstm2_h_conted_55
I0912 20:44:48.988751 27276 net.cpp:163] Top shape: 1 10 512 (5120)
I0912 20:44:48.988759 27276 layer_factory.hpp:76] Creating layer lstm2_transform_56
I0912 20:44:48.988775 27276 net.cpp:110] Creating Layer lstm2_transform_56
I0912 20:44:48.988785 27276 net.cpp:477] lstm2_transform_56 <- h_conted_55
I0912 20:44:48.988801 27276 net.cpp:433] lstm2_transform_56 -> W_hc_h_55
I0912 20:44:48.994961 27276 net.cpp:155] Setting up lstm2_transform_56
I0912 20:44:48.994997 27276 net.cpp:163] Top shape: 1 10 2048 (20480)
I0912 20:44:48.995010 27276 net.cpp:537] Sharing parameters 'W_hc' owned by layer 'lstm2_transform_1', param index 0
I0912 20:44:48.995019 27276 layer_factory.hpp:76] Creating layer lstm2_gate_input_56
I0912 20:44:48.995036 27276 net.cpp:110] Creating Layer lstm2_gate_input_56
I0912 20:44:48.995049 27276 net.cpp:477] lstm2_gate_input_56 <- W_hc_h_55
I0912 20:44:48.995065 27276 net.cpp:477] lstm2_gate_input_56 <- W_xc_x_56
I0912 20:44:48.995091 27276 net.cpp:433] lstm2_gate_input_56 -> gate_input_56
I0912 20:44:48.995113 27276 net.cpp:155] Setting up lstm2_gate_input_56
I0912 20:44:48.995126 27276 net.cpp:163] Top shape: 1 10 2048 (20480)
I0912 20:44:48.995133 27276 layer_factory.hpp:76] Creating layer lstm2_unit_56
I0912 20:44:48.995148 27276 net.cpp:110] Creating Layer lstm2_unit_56
I0912 20:44:48.995162 27276 net.cpp:477] lstm2_unit_56 <- c_55
I0912 20:44:48.995173 27276 net.cpp:477] lstm2_unit_56 <- gate_input_56
I0912 20:44:48.995187 27276 net.cpp:477] lstm2_unit_56 <- cont_56_lstm2_cont_slice_55_split_1
I0912 20:44:48.995201 27276 net.cpp:433] lstm2_unit_56 -> c_56
I0912 20:44:48.995219 27276 net.cpp:433] lstm2_unit_56 -> h_56
I0912 20:44:48.995237 27276 net.cpp:155] Setting up lstm2_unit_56
I0912 20:44:48.995249 27276 net.cpp:163] Top shape: 1 10 512 (5120)
I0912 20:44:48.995260 27276 net.cpp:163] Top shape: 1 10 512 (5120)
I0912 20:44:48.995270 27276 layer_factory.hpp:76] Creating layer h_56_lstm2_unit_56_1_split
I0912 20:44:48.995283 27276 net.cpp:110] Creating Layer h_56_lstm2_unit_56_1_split
I0912 20:44:48.995295 27276 net.cpp:477] h_56_lstm2_unit_56_1_split <- h_56
I0912 20:44:48.995308 27276 net.cpp:433] h_56_lstm2_unit_56_1_split -> h_56_lstm2_unit_56_1_split_0
I0912 20:44:48.995327 27276 net.cpp:433] h_56_lstm2_unit_56_1_split -> h_56_lstm2_unit_56_1_split_1
I0912 20:44:48.995343 27276 net.cpp:155] Setting up h_56_lstm2_unit_56_1_split
I0912 20:44:48.995355 27276 net.cpp:163] Top shape: 1 10 512 (5120)
I0912 20:44:48.995368 27276 net.cpp:163] Top shape: 1 10 512 (5120)
I0912 20:44:48.995378 27276 layer_factory.hpp:76] Creating layer lstm2_h_conted_56
I0912 20:44:48.995393 27276 net.cpp:110] Creating Layer lstm2_h_conted_56
I0912 20:44:48.995403 27276 net.cpp:477] lstm2_h_conted_56 <- h_56_lstm2_unit_56_1_split_0
I0912 20:44:48.995414 27276 net.cpp:477] lstm2_h_conted_56 <- cont_57_lstm2_cont_slice_56_split_0
I0912 20:44:48.995429 27276 net.cpp:433] lstm2_h_conted_56 -> h_conted_56
I0912 20:44:48.995501 27276 net.cpp:155] Setting up lstm2_h_conted_56
I0912 20:44:48.995512 27276 net.cpp:163] Top shape: 1 10 512 (5120)
I0912 20:44:48.995522 27276 layer_factory.hpp:76] Creating layer lstm2_transform_57
I0912 20:44:48.995538 27276 net.cpp:110] Creating Layer lstm2_transform_57
I0912 20:44:48.995548 27276 net.cpp:477] lstm2_transform_57 <- h_conted_56
I0912 20:44:48.995571 27276 net.cpp:433] lstm2_transform_57 -> W_hc_h_56
I0912 20:44:49.001780 27276 net.cpp:155] Setting up lstm2_transform_57
I0912 20:44:49.001863 27276 net.cpp:163] Top shape: 1 10 2048 (20480)
I0912 20:44:49.001901 27276 net.cpp:537] Sharing parameters 'W_hc' owned by layer 'lstm2_transform_1', param index 0
I0912 20:44:49.001917 27276 layer_factory.hpp:76] Creating layer lstm2_gate_input_57
I0912 20:44:49.001945 27276 net.cpp:110] Creating Layer lstm2_gate_input_57
I0912 20:44:49.001960 27276 net.cpp:477] lstm2_gate_input_57 <- W_hc_h_56
I0912 20:44:49.001979 27276 net.cpp:477] lstm2_gate_input_57 <- W_xc_x_57
I0912 20:44:49.001998 27276 net.cpp:433] lstm2_gate_input_57 -> gate_input_57
I0912 20:44:49.002022 27276 net.cpp:155] Setting up lstm2_gate_input_57
I0912 20:44:49.002034 27276 net.cpp:163] Top shape: 1 10 2048 (20480)
I0912 20:44:49.002045 27276 layer_factory.hpp:76] Creating layer lstm2_unit_57
I0912 20:44:49.002059 27276 net.cpp:110] Creating Layer lstm2_unit_57
I0912 20:44:49.002071 27276 net.cpp:477] lstm2_unit_57 <- c_56
I0912 20:44:49.002084 27276 net.cpp:477] lstm2_unit_57 <- gate_input_57
I0912 20:44:49.002096 27276 net.cpp:477] lstm2_unit_57 <- cont_57_lstm2_cont_slice_56_split_1
I0912 20:44:49.002111 27276 net.cpp:433] lstm2_unit_57 -> c_57
I0912 20:44:49.002130 27276 net.cpp:433] lstm2_unit_57 -> h_57
I0912 20:44:49.002147 27276 net.cpp:155] Setting up lstm2_unit_57
I0912 20:44:49.002163 27276 net.cpp:163] Top shape: 1 10 512 (5120)
I0912 20:44:49.002176 27276 net.cpp:163] Top shape: 1 10 512 (5120)
I0912 20:44:49.002187 27276 layer_factory.hpp:76] Creating layer h_57_lstm2_unit_57_1_split
I0912 20:44:49.002200 27276 net.cpp:110] Creating Layer h_57_lstm2_unit_57_1_split
I0912 20:44:49.002212 27276 net.cpp:477] h_57_lstm2_unit_57_1_split <- h_57
I0912 20:44:49.002225 27276 net.cpp:433] h_57_lstm2_unit_57_1_split -> h_57_lstm2_unit_57_1_split_0
I0912 20:44:49.002241 27276 net.cpp:433] h_57_lstm2_unit_57_1_split -> h_57_lstm2_unit_57_1_split_1
I0912 20:44:49.002259 27276 net.cpp:155] Setting up h_57_lstm2_unit_57_1_split
I0912 20:44:49.002270 27276 net.cpp:163] Top shape: 1 10 512 (5120)
I0912 20:44:49.002282 27276 net.cpp:163] Top shape: 1 10 512 (5120)
I0912 20:44:49.002292 27276 layer_factory.hpp:76] Creating layer lstm2_h_conted_57
I0912 20:44:49.002306 27276 net.cpp:110] Creating Layer lstm2_h_conted_57
I0912 20:44:49.002315 27276 net.cpp:477] lstm2_h_conted_57 <- h_57_lstm2_unit_57_1_split_0
I0912 20:44:49.002327 27276 net.cpp:477] lstm2_h_conted_57 <- cont_58_lstm2_cont_slice_57_split_0
I0912 20:44:49.002343 27276 net.cpp:433] lstm2_h_conted_57 -> h_conted_57
I0912 20:44:49.002410 27276 net.cpp:155] Setting up lstm2_h_conted_57
I0912 20:44:49.002424 27276 net.cpp:163] Top shape: 1 10 512 (5120)
I0912 20:44:49.002431 27276 layer_factory.hpp:76] Creating layer lstm2_transform_58
I0912 20:44:49.002450 27276 net.cpp:110] Creating Layer lstm2_transform_58
I0912 20:44:49.002460 27276 net.cpp:477] lstm2_transform_58 <- h_conted_57
I0912 20:44:49.002475 27276 net.cpp:433] lstm2_transform_58 -> W_hc_h_57
I0912 20:44:49.008668 27276 net.cpp:155] Setting up lstm2_transform_58
I0912 20:44:49.008699 27276 net.cpp:163] Top shape: 1 10 2048 (20480)
I0912 20:44:49.008713 27276 net.cpp:537] Sharing parameters 'W_hc' owned by layer 'lstm2_transform_1', param index 0
I0912 20:44:49.008723 27276 layer_factory.hpp:76] Creating layer lstm2_gate_input_58
I0912 20:44:49.008745 27276 net.cpp:110] Creating Layer lstm2_gate_input_58
I0912 20:44:49.008757 27276 net.cpp:477] lstm2_gate_input_58 <- W_hc_h_57
I0912 20:44:49.008774 27276 net.cpp:477] lstm2_gate_input_58 <- W_xc_x_58
I0912 20:44:49.008791 27276 net.cpp:433] lstm2_gate_input_58 -> gate_input_58
I0912 20:44:49.008813 27276 net.cpp:155] Setting up lstm2_gate_input_58
I0912 20:44:49.008824 27276 net.cpp:163] Top shape: 1 10 2048 (20480)
I0912 20:44:49.008836 27276 layer_factory.hpp:76] Creating layer lstm2_unit_58
I0912 20:44:49.008849 27276 net.cpp:110] Creating Layer lstm2_unit_58
I0912 20:44:49.008862 27276 net.cpp:477] lstm2_unit_58 <- c_57
I0912 20:44:49.008889 27276 net.cpp:477] lstm2_unit_58 <- gate_input_58
I0912 20:44:49.008903 27276 net.cpp:477] lstm2_unit_58 <- cont_58_lstm2_cont_slice_57_split_1
I0912 20:44:49.008919 27276 net.cpp:433] lstm2_unit_58 -> c_58
I0912 20:44:49.008936 27276 net.cpp:433] lstm2_unit_58 -> h_58
I0912 20:44:49.008955 27276 net.cpp:155] Setting up lstm2_unit_58
I0912 20:44:49.008966 27276 net.cpp:163] Top shape: 1 10 512 (5120)
I0912 20:44:49.008977 27276 net.cpp:163] Top shape: 1 10 512 (5120)
I0912 20:44:49.008988 27276 layer_factory.hpp:76] Creating layer h_58_lstm2_unit_58_1_split
I0912 20:44:49.009008 27276 net.cpp:110] Creating Layer h_58_lstm2_unit_58_1_split
I0912 20:44:49.009017 27276 net.cpp:477] h_58_lstm2_unit_58_1_split <- h_58
I0912 20:44:49.009029 27276 net.cpp:433] h_58_lstm2_unit_58_1_split -> h_58_lstm2_unit_58_1_split_0
I0912 20:44:49.009045 27276 net.cpp:433] h_58_lstm2_unit_58_1_split -> h_58_lstm2_unit_58_1_split_1
I0912 20:44:49.009062 27276 net.cpp:155] Setting up h_58_lstm2_unit_58_1_split
I0912 20:44:49.009073 27276 net.cpp:163] Top shape: 1 10 512 (5120)
I0912 20:44:49.009084 27276 net.cpp:163] Top shape: 1 10 512 (5120)
I0912 20:44:49.009094 27276 layer_factory.hpp:76] Creating layer lstm2_h_conted_58
I0912 20:44:49.009109 27276 net.cpp:110] Creating Layer lstm2_h_conted_58
I0912 20:44:49.009119 27276 net.cpp:477] lstm2_h_conted_58 <- h_58_lstm2_unit_58_1_split_0
I0912 20:44:49.009130 27276 net.cpp:477] lstm2_h_conted_58 <- cont_59_lstm2_cont_slice_58_split_0
I0912 20:44:49.009145 27276 net.cpp:433] lstm2_h_conted_58 -> h_conted_58
I0912 20:44:49.009209 27276 net.cpp:155] Setting up lstm2_h_conted_58
I0912 20:44:49.009222 27276 net.cpp:163] Top shape: 1 10 512 (5120)
I0912 20:44:49.009230 27276 layer_factory.hpp:76] Creating layer lstm2_transform_59
I0912 20:44:49.009251 27276 net.cpp:110] Creating Layer lstm2_transform_59
I0912 20:44:49.009263 27276 net.cpp:477] lstm2_transform_59 <- h_conted_58
I0912 20:44:49.009279 27276 net.cpp:433] lstm2_transform_59 -> W_hc_h_58
I0912 20:44:49.015447 27276 net.cpp:155] Setting up lstm2_transform_59
I0912 20:44:49.015480 27276 net.cpp:163] Top shape: 1 10 2048 (20480)
I0912 20:44:49.015492 27276 net.cpp:537] Sharing parameters 'W_hc' owned by layer 'lstm2_transform_1', param index 0
I0912 20:44:49.015501 27276 layer_factory.hpp:76] Creating layer lstm2_gate_input_59
I0912 20:44:49.015516 27276 net.cpp:110] Creating Layer lstm2_gate_input_59
I0912 20:44:49.015529 27276 net.cpp:477] lstm2_gate_input_59 <- W_hc_h_58
I0912 20:44:49.015544 27276 net.cpp:477] lstm2_gate_input_59 <- W_xc_x_59
I0912 20:44:49.015561 27276 net.cpp:433] lstm2_gate_input_59 -> gate_input_59
I0912 20:44:49.015583 27276 net.cpp:155] Setting up lstm2_gate_input_59
I0912 20:44:49.015594 27276 net.cpp:163] Top shape: 1 10 2048 (20480)
I0912 20:44:49.015604 27276 layer_factory.hpp:76] Creating layer lstm2_unit_59
I0912 20:44:49.015619 27276 net.cpp:110] Creating Layer lstm2_unit_59
I0912 20:44:49.015630 27276 net.cpp:477] lstm2_unit_59 <- c_58
I0912 20:44:49.015642 27276 net.cpp:477] lstm2_unit_59 <- gate_input_59
I0912 20:44:49.015655 27276 net.cpp:477] lstm2_unit_59 <- cont_59_lstm2_cont_slice_58_split_1
I0912 20:44:49.015671 27276 net.cpp:433] lstm2_unit_59 -> c_59
I0912 20:44:49.015689 27276 net.cpp:433] lstm2_unit_59 -> h_59
I0912 20:44:49.015707 27276 net.cpp:155] Setting up lstm2_unit_59
I0912 20:44:49.015718 27276 net.cpp:163] Top shape: 1 10 512 (5120)
I0912 20:44:49.015730 27276 net.cpp:163] Top shape: 1 10 512 (5120)
I0912 20:44:49.015740 27276 layer_factory.hpp:76] Creating layer h_59_lstm2_unit_59_1_split
I0912 20:44:49.015754 27276 net.cpp:110] Creating Layer h_59_lstm2_unit_59_1_split
I0912 20:44:49.015765 27276 net.cpp:477] h_59_lstm2_unit_59_1_split <- h_59
I0912 20:44:49.015779 27276 net.cpp:433] h_59_lstm2_unit_59_1_split -> h_59_lstm2_unit_59_1_split_0
I0912 20:44:49.015794 27276 net.cpp:433] h_59_lstm2_unit_59_1_split -> h_59_lstm2_unit_59_1_split_1
I0912 20:44:49.015810 27276 net.cpp:155] Setting up h_59_lstm2_unit_59_1_split
I0912 20:44:49.015831 27276 net.cpp:163] Top shape: 1 10 512 (5120)
I0912 20:44:49.015841 27276 net.cpp:163] Top shape: 1 10 512 (5120)
I0912 20:44:49.015849 27276 layer_factory.hpp:76] Creating layer lstm2_h_conted_59
I0912 20:44:49.015861 27276 net.cpp:110] Creating Layer lstm2_h_conted_59
I0912 20:44:49.015871 27276 net.cpp:477] lstm2_h_conted_59 <- h_59_lstm2_unit_59_1_split_0
I0912 20:44:49.015883 27276 net.cpp:477] lstm2_h_conted_59 <- cont_60_lstm2_cont_slice_59_split_0
I0912 20:44:49.015902 27276 net.cpp:433] lstm2_h_conted_59 -> h_conted_59
I0912 20:44:49.015969 27276 net.cpp:155] Setting up lstm2_h_conted_59
I0912 20:44:49.015980 27276 net.cpp:163] Top shape: 1 10 512 (5120)
I0912 20:44:49.015990 27276 layer_factory.hpp:76] Creating layer lstm2_transform_60
I0912 20:44:49.016005 27276 net.cpp:110] Creating Layer lstm2_transform_60
I0912 20:44:49.016015 27276 net.cpp:477] lstm2_transform_60 <- h_conted_59
I0912 20:44:49.016027 27276 net.cpp:433] lstm2_transform_60 -> W_hc_h_59
I0912 20:44:49.022290 27276 net.cpp:155] Setting up lstm2_transform_60
I0912 20:44:49.022332 27276 net.cpp:163] Top shape: 1 10 2048 (20480)
I0912 20:44:49.022346 27276 net.cpp:537] Sharing parameters 'W_hc' owned by layer 'lstm2_transform_1', param index 0
I0912 20:44:49.022356 27276 layer_factory.hpp:76] Creating layer lstm2_gate_input_60
I0912 20:44:49.022372 27276 net.cpp:110] Creating Layer lstm2_gate_input_60
I0912 20:44:49.022387 27276 net.cpp:477] lstm2_gate_input_60 <- W_hc_h_59
I0912 20:44:49.022403 27276 net.cpp:477] lstm2_gate_input_60 <- W_xc_x_60
I0912 20:44:49.022420 27276 net.cpp:433] lstm2_gate_input_60 -> gate_input_60
I0912 20:44:49.022444 27276 net.cpp:155] Setting up lstm2_gate_input_60
I0912 20:44:49.022454 27276 net.cpp:163] Top shape: 1 10 2048 (20480)
I0912 20:44:49.022464 27276 layer_factory.hpp:76] Creating layer lstm2_unit_60
I0912 20:44:49.022480 27276 net.cpp:110] Creating Layer lstm2_unit_60
I0912 20:44:49.022491 27276 net.cpp:477] lstm2_unit_60 <- c_59
I0912 20:44:49.022503 27276 net.cpp:477] lstm2_unit_60 <- gate_input_60
I0912 20:44:49.022516 27276 net.cpp:477] lstm2_unit_60 <- cont_60_lstm2_cont_slice_59_split_1
I0912 20:44:49.022531 27276 net.cpp:433] lstm2_unit_60 -> c_60
I0912 20:44:49.022548 27276 net.cpp:433] lstm2_unit_60 -> h_60
I0912 20:44:49.022565 27276 net.cpp:155] Setting up lstm2_unit_60
I0912 20:44:49.022585 27276 net.cpp:163] Top shape: 1 10 512 (5120)
I0912 20:44:49.022596 27276 net.cpp:163] Top shape: 1 10 512 (5120)
I0912 20:44:49.022606 27276 layer_factory.hpp:76] Creating layer lstm2_
I0912 20:44:49.022620 27276 net.cpp:110] Creating Layer lstm2_
I0912 20:44:49.022630 27276 net.cpp:477] lstm2_ <- c_60
I0912 20:44:49.022644 27276 net.cpp:433] lstm2_ -> c_T
I0912 20:44:49.022657 27276 net.cpp:155] Setting up lstm2_
I0912 20:44:49.022670 27276 net.cpp:163] Top shape: 1 10 512 (5120)
I0912 20:44:49.022680 27276 layer_factory.hpp:76] Creating layer lstm2_h_concat
I0912 20:44:49.022701 27276 net.cpp:110] Creating Layer lstm2_h_concat
I0912 20:44:49.022711 27276 net.cpp:477] lstm2_h_concat <- h_1_lstm2_unit_1_1_split_1
I0912 20:44:49.022725 27276 net.cpp:477] lstm2_h_concat <- h_2_lstm2_unit_2_1_split_1
I0912 20:44:49.022738 27276 net.cpp:477] lstm2_h_concat <- h_3_lstm2_unit_3_1_split_1
…
